networks/test_2D/test_fe1_v2.pth (torch, 368471 bytes, 49 tensors)

net.net.hidden_layers.0.weight f8 [40, 4]
000000 4a 8b 0f 19 59 e5 a6 3f 06 04 85 fa 5e 52 dd 3f
       0.04471853667180044 0.45815252747348756
000010 d0 2b ae 3e 63 86 95 bf d5 4f cc c9 26 88 d0 bf
       -0.02102046079702885 -0.2583100290951255
000020 27 d2 29 62 34 ed c6 bf b6 b7 af 6e 72 e6 c2 3f
       -0.17911391060955958 0.14765768437012888
000030 19 05 61 ab a4 73 bc bf 02 a7 9d 43 2d 4a d6 3f
       -0.11113957580620983 0.34827739337070807
000040 c8 97 2e 36 9f 6e c7 3f 37 54 44 cb 37 fa df 3f
       0.18306341310125007 0.49964709139141256
000050 c8 b5 35 ac a9 1f e1 3f ab fa 1b 38 73 d0 ae 3f
       0.5351150859329943 0.06018409786155606
000060 6d 8c cb cf 4d f2 be bf 53 7a a9 6e a0 b9 d3 3f
       -0.12088476489184226 0.3082047539409462
000070 3d fc d4 6e 4c c5 cb 3f a5 84 f0 c7 e5 60 9e bf
       0.21695857440679048 -0.029666509941425407
000080 f8 48 fe f6 a9 87 d9 bf 51 69 1a d9 22 1e d4 bf
       -0.3989052688640551 -0.31433936311227223
000090 ae 49 e6 7a 66 93 d6 3f d6 5a 65 a7 1e 85 c6 bf
       0.35274660112295464 -0.17593749211910986
0000a0 a2 4a 5a 4f 12 d6 b0 3f f9 e7 81 e3 29 5b c0 bf
       0.06576647221872148 -0.1277820931316567
0000b0 dc 3a 58 76 98 b0 a6 bf 0a 0c 3c 1a c2 86 db 3f
       -0.04431606716763323 0.43009998857468246
0000c0 e8 cc 5c a0 9a 6e 40 3f 10 68 45 88 01 0c bc 3f
       0.0005014662753865225 0.10955819680148715
0000d0 72 99 e5 98 ae a2 e0 bf 07 b2 80 22 cb 39 dd 3f
       -0.5198586450831455 0.45665243501096636
0000e0 46 bd 74 41 35 44 d1 bf 7f df 37 74 48 9b b8 bf
       -0.269788087770355 -0.09611943089828222
0000f0 37 83 b0 d1 70 fe 83 3f 60 52 03 8d f2 ae b5 3f
       0.00976265087052895 0.08470073645305254
000100 be 75 91 1d ba a0 8d bf 5f 86 99 5d 50 3c d0 bf
       -0.01446671869978899 -0.25368127003284785
000110 1c f0 75 a7 55 9a c5 3f 03 7c 57 88 50 9f d2 3f
       0.16877241780082464 0.29097379030821474
000120 e5 71 12 56 84 65 b2 3f 1f da 31 ec c7 0f a0 3f
       0.07186152554863375 0.031370399076809934
000130 37 ea 4b 11 4c 09 c8 3f b6 10 f9 e3 34 7e d4 3f
       0.18778372616346115 0.3202030397699319
000140 e7 b7 01 fe 77 6f d4 bf e5 e8 26 b4 01 63 c0 bf
       -0.3193035107168484 -0.12802144333347268
000150 ee 22 13 35 a2 61 b3 3f ce c1 d5 2f b2 d1 85 3f
       0.07570852084894472 0.01065386970978546
000160 b9 33 17 07 c3 7c bc 3f 46 b5 24 4e 62 6e b9 3f
       0.11127871440039784 0.09934057624623902
000170 44 17 f1 ea 30 ce db bf 8c 24 56 73 99 87 d0 bf
       -0.43445990508586285 -0.25827633155183416
000180 a2 7a 62 1c a8 bf c3 3f 72 c8 ea c6 67 0b d7 3f
       0.1542863978001679 0.3600711290884028
000190 ca d8 c1 8c ba ba c2 bf fa ea 50 b0 74 cd e1 3f
       -0.146323508004292 0.5563300555871529
0001a0 02 d3 4b e8 88 8b c4 bf 52 e5 13 68 c4 4e d0 3f
       -0.16050826399409607 0.2548075691589321
0001b0 53 fe a8 82 66 ef a0 bf e3 6d 60 8c 42 09 d3 bf
       -0.03307648034069346 -0.2974401827684387
0001c0 45 32 24 68 c3 13 b9 bf c3 5a 57 22 fd c3 d5 bf
       -0.09795781414522604 -0.3400872073520242
0001d0 9e 73 9a 7a 3c 70 cb 3f 07 74 1a 73 dd a5 d3 3f
       0.21436267839899598 0.3069985984855638
0001e0 b5 0f 8b c8 90 33 b7 bf 2c 47 78 49 dd 86 a5 3f
       -0.09063057800363945 0.04204455873344978
0001f0 c6 49 8b 9b 61 19 cf 3f 3f b4 9c 41 3a 52 d4 bf
       0.24296207518507468 -0.3175187721961414
000200 53 ad e9 9f d8 65 c9 bf 2b 45 f4 56 da 40 cd 3f
       -0.19842059906236872 0.22854165311631766
000210 76 c7 12 12 4b 1b b4 bf aa 60 4e a8 1f e4 b7 3f
       -0.07854146186107677 0.09332464083707018
000220 91 7f 5f fb 71 08 d6 bf dd 3e 69 8f 18 16 b8 3f
       -0.3442654566588255 0.09408715726135193
000230 da 97 22 c0 be 12 d3 3f 93 96 87 72 eb 52 d3 bf
       0.29801911128231284 -0.3019360178426293
000240 66 eb ef 66 23 81 89 bf 72 51 5f 7d de aa d5 3f
       -0.012453342989820104 0.33855402224914777
000250 b9 b1 02 7b 13 02 b1 3f da 63 00 74 1d 1e ca bf
       0.06643792870699529 -0.2040440384305658
000260 e3 5a 50 2a 30 d5 c0 3f 10 d4 e3 9f c7 d7 9c bf
       0.13150598589046245 -0.02816688455000721
000270 48 f3 8f df 1f e1 c6 3f f6 65 4c 53 1f 76 ac 3f
       0.17874525467041225 0.05558870212389515
000280 72 db 60 0d c8 a5 d1 bf 73 d1 4e ec 7c 14 be bf
       -0.27574349695662825 -0.11750012177691875
000290 14 27 16 7d 4e 00 c0 3f 3a cf 8a 8f 15 22 d1 3f
       0.1250093565725413 0.26770533578677524
0002a0 ce 3d 73 0f 98 2a 93 3f 7a 0d f6 65 47 80 d5 3f
       0.018717170660975495 0.33595452267783055
0002b0 d4 8d b1 0f 5d 91 dc 3f cc 60 db 58 57 86 cd bf
       0.4463722851998828 -0.23066226805418066
0002c0 39 c3 a1 fa 8b 69 d9 3f 83 8d ec 9a c8 72 d5 3f
       0.39706706500787764 0.3351308358125708
0002d0 4a c7 50 01 de 05 d1 bf a7 a2 89 6c 4c 80 d2 bf
       -0.2659831059310035 -0.2890807208955643
0002e0 78 8e 34 55 0d da cc bf 9f 34 eb c8 24 d4 b9 3f
       -0.22540442142882333 0.10089330582850885
0002f0 e8 fc d3 32 61 fc d3 3f c6 27 21 9c c5 b2 58 bf
       0.3122790333145091 -0.0015074662956231374
000300 ed ad 1f 90 67 e0 bb 3f d6 77 a3 52 4a f9 d1 bf
       0.1088928915848368 -0.28084047384424815
000310 80 36 2f f1 f7 03 cb bf 8e 0d 77 ac 52 df bd 3f
       -0.21105860973914403 0.11668888769695782
000320 ab d9 a6 1a da fc bb 3f 59 23 0a bd 97 9e ca 3f
       0.1093269648616572 0.20796486597489652
000330 ac 27 62 46 b4 4d ae bf bc 9f f3 a9 4f 90 d5 bf
       -0.059186585990644275 -0.33693305584756295
000340 aa f8 2b bc 2b 40 c9 bf 70 8a 06 50 76 2e d1 bf
       -0.1972708386237561 -0.26846082510943514
000350 9b 5e c7 d7 99 47 c6 bf 95 83 ed a2 73 01 db 3f
       -0.17406008754800414 0.42196360503117464
000360 c2 1e 2d 87 f9 48 cf 3f 94 a6 7f c0 f5 59 d2 bf
       0.244414511684445 -0.28674072073645474
000370 94 85 a1 ba 7a e7 b4 bf 93 5a 72 0e 5b 42 d6 3f
       -0.08165709549350303 0.347800029857731
000380 0f 18 82 5d 60 01 c9 bf 87 0d 74 ec 12 96 c7 3f
       -0.19535450521306116 0.1842673925931246
000390 34 e6 93 1f 0c d5 b0 3f 2e 8c af e3 2c 60 b9 bf
       0.06575084467831332 -0.09912376936658582
0003a0 c2 af 0c c6 d5 39 cf bf 30 90 7d 44 0f 02 b9 3f
       -0.2439524857558109 0.0976876775944795
0003b0 71 17 f2 c0 13 4f d3 3f ae 08 c9 0e 78 c1 d4 bf
       0.30170148699141125 -0.3243084091556153
0003c0 67 85 5c 47 f2 52 c6 3f c4 26 90 af fb b1 d8 3f
       0.1744063232845676 0.3858632292254749
0003d0 40 65 5a 3b b7 0a c5 bf c6 ea ac cd 93 17 b7 bf
       -0.16438951871968221 -0.0902035119187686
0003e0 43 64 69 3c ec 31 d2 3f de 01 bf 71 74 1e b1 bf
       0.284297045703685 -0.0668709542942518
0003f0 fc 22 6a a2 7e f0 c6 bf 5b 9a 03 b8 6e c5 bb bf
       -0.1792143147506734 -0.10848133080035309
000400 5e 4f 75 2d da 21 c0 bf f7 38 0e a6 04 3f c9 3f
       -0.1260330888713907 0.1972356615846775
000410 d7 d2 8e 63 09 91 c2 3f ad fb d7 a9 ff 2d d1 bf
       0.145051168071993 -0.268432536948178
000420 13 76 65 ee 3b 4b b2 bf 16 86 92 92 0b 38 d6 bf
       -0.07146048135970089 -0.3471707278605164
000430 b5 db 0d 83 d7 28 bb bf bd 7a 54 8a 05 52 b5 bf
       -0.10609194707454501 -0.08328280093381131
000440 65 8b 88 f2 f7 de c2 bf 7f 3d cc 59 bf 36 d4 bf
       -0.1474294599766736 -0.31584152001683913
000450 f8 71 49 44 ab a4 c1 3f a5 b3 27 03 f6 5c cc 3f
       0.13783779939957674 0.2215869441419304
000460 0a 81 8c b0 59 4a ba bf 09 2f 9f ad 7d 17 cf 3f
       -0.10269699630999099 0.24290438630702507
000470 c9 44 d3 44 18 3a db 3f 6e 0e 6b 1d 66 d3 cc bf
       0.42542082520692454 -0.2252013820308209
000480 67 ec 26 1c 3f 4b a4 3f 45 9e 75 5f c9 cc d5 3f
       0.03963658541348352 0.34062418291293667
000490 fb 9c 32 ee 6b f0 c1 bf 3b 05 a8 47 6f c0 c2 bf
       -0.1401495850634332 -0.14649764059871892
0004a0 e6 8c f5 a3 2b 3d cd 3f 8d f9 5f 86 a9 35 d1 3f
       0.22842927461451906 0.2689002811674975
0004b0 67 aa cc cd cc 43 c2 bf 82 98 8e 4b 7b ad d0 bf
       -0.14269409226229188 -0.26058847788443285
0004c0 cf b1 90 02 3a 10 d0 3f 29 08 30 ba 2b fb c6 bf
       0.2509903931666288 -0.1795401248091946
0004d0 61 8d 35 83 8a 6f a3 3f d9 cd 6c 23 a1 92 ba bf
       0.03796036578821816 -0.10379988779896311
0004e0 5d ea ef f1 62 9c d5 bf 7e 75 23 07 04 76 ae 3f
       -0.3376700747172999 0.05949413859500917
0004f0 c1 fe ba 34 7a e0 c0 3f 2e 95 6c f7 4b 59 d6 bf
       0.1318505055878543 -0.34920024073138023

net.net.hidden_layers.0.bias f8 [40]
000000 2a c7 74 7e 0b 2e 73 bf 3b b4 e8 e5 7b e4 a6 bf
       -0.004682583711927349 -0.044711944403708924
000010 1d 81 49 83 3a f7 b9 3f 60 11 97 b5 6a bd cd bf
       0.10142865853550061 -0.23234304300980124
000020 83 7b 22 d4 21 34 aa bf aa 27 c7 10 a9 40 8e 3f
       -0.05117898668799283 0.014771767448923463
000030 22 bb b1 fc 4f 2d 7f bf 0c ad bc 2f c5 e7 cd bf
       -0.007611572694357334 -0.2336355670061966
000040 96 e5 0c 76 20 b1 c1 bf 68 fd 8d e6 50 f2 a6 bf
       -0.1382179809968817 -0.04481747450244705
000050 35 df c5 e5 3a 59 c8 bf 04 39 4d 6d 42 4b ab bf
       -0.19022308558828063 -0.05330855926750824
000060 f1 c6 d7 56 1e 8e 78 3f 5b c6 03 0c 1b 66 ba bf
       0.00599490977536886 -0.10312050860718484
000070 f6 0d 46 e9 63 8e c0 3f e7 aa 59 b1 1b c5 b1 3f
       0.12934540643992393 0.06941388206329756
000080 c8 e6 b9 85 d7 40 d1 bf d5 1d 6b 14 5e 78 c1 bf
       -0.26958263453671494 -0.13648582455628736
000090 68 8f fe 03 16 6d b7 bf a0 1a e0 2c 98 35 d7 3f
       -0.09150827024001063 0.36264614469875234
0000a0 d0 0f 72 01 6e c4 72 3f 1f 94 a0 67 a5 26 b5 bf
       0.004581861218984032 -0.08262094287836462
0000b0 c6 86 25 b8 5c 4a 70 bf d0 fc ac cb ab 92 d6 bf
       -0.003977167305807055 -0.35270209207733405
0000c0 cf 94 2d 2f dd 64 d0 3f e2 a9 13 5c 5a 6e 77 bf
       0.2561562500689662 -0.005720475165825497
0000d0 c3 92 96 e8 79 98 b0 bf 4c 5d 57 8a 6d 5c d1 bf
       -0.06482660225317276 -0.27126635084046735
0000e0 37 f3 a4 21 51 15 d3 bf 22 fc 99 0f 46 2d d4 bf
       -0.298176081519887 -0.3152632858618195
0000f0 df d9 d8 39 8b 3b bd bf 64 96 f1 20 ba c5 cd 3f
       -0.11418981706888286 0.23259665115908768
000100 e0 b1 1f 97 67 e2 ce bf 60 6f c2 6f 43 53 cb 3f
       -0.24128432158558066 0.2134784980488531
000110 b0 91 cc 19 eb 9b bc bf 06 c0 4b a9 1c c0 d4 3f
       -0.11175412540303031 0.3242255833893072
000120 74 45 3b 1f 3e 68 bc bf 36 ce 6d 39 08 e1 ce 3f
       -0.11096561682213296 0.24124243549486984
000130 40 bf 5d 24 b2 2f c0 3f 07 09 1a 9c 03 78 c9 3f
       0.1264555623597463 0.19897503969338734

net.net.hidden_layers.1.weight f8 [60, 40]
000000 91 85 d4 ed 8d b9 c0 bf 1b fa 6c ca fc 69 ca 3f
       -0.13066267121125155 0.2063594807058998
000010 5e 00 fd 0d 5e ad a0 3f 26 77 f4 e3 ad 02 c4 bf
       0.03257268830066161 -0.15633176451313452
000020 8a b2 db 05 d3 7c bb 3f 29 f2 ca bf ec 98 ae 3f
       0.10737341778776446 0.05976047364444909
000030 bc f5 f2 ac 94 9a 94 3f d6 2e 08 2c ed bd b7 bf
       0.020120928817723302 -0.09274179768561494
000040 00 29 33 29 80 66 9d 3f f7 e5 ce f1 ec 6d c4 bf
       0.028711321367873133 -0.15960466200867504
000050 2c 9a 6b 30 eb 87 6a bf 26 b1 9d 4f 90 27 9e bf
       -0.003238639215271696 -0.029447798594831508
000060 d5 29 e5 41 40 ee bf 3f 95 15 a5 ff 5f 45 bc bf
       0.12472917183655537 -0.1104335784085236
000070 7f e8 e8 41 b7 d2 a4 3f 0f 05 eb b6 93 d9 b5 bf
       0.04067013434946975 -0.08535121169827085
000080 13 96 df bb b1 b6 ac bf 71 59 95 50 78 ef 9b bf
       -0.05608134668709055 -0.027280692976398627
000090 30 60 bf 0e cb c5 b8 bf 16 9f 6b 5d 81 e3 9c bf
       -0.09676808462188613 -0.028211613966873626
0000a0 45 19 53 a4 d3 b2 c7 3f 32 48 ab e3 9a 8f d3 3f
       0.185144858585952 0.3056399558382764
0000b0 4c 10 d8 a0 65 3f b9 bf 33 24 71 29 47 ab c7 bf
       -0.09862361122947155 -0.1849144890168489
0000c0 2e 05 e9 96 15 a9 c6 3f 81 47 fe 18 d2 dc a8 bf
       0.17703504437126 -0.04855972819417698
0000d0 bf 33 27 cf 4a 31 85 3f aa ff ab 86 7d 05 cf 3f
       0.010347923704921656 0.24235505176329514
0000e0 d4 cd ac 5e d1 1b c8 bf 98 7c 5d b5 31 6e 74 3f
       -0.1883489334373808 0.004987901853240072
0000f0 e1 f3 87 85 f8 bd b9 bf d4 f8 08 d8 8d 50 cc 3f
       -0.10055497417484062 0.22120831535898466
000100 ff bf 5a ff 2e 10 81 3f 2c 9f 3f ad 29 c6 aa 3f
       0.008331648986626304 0.0522931121811879
000110 2e da c9 c9 82 46 c3 3f 0e c0 b0 5c 4b cf a3 bf
       0.15058932164147748 -0.03869090563273413
000120 a0 c2 d3 9f fa f8 c0 bf 2c 5b 49 67 c5 99 c3 bf
       -0.13259823612272204 -0.15313022177971314
000130 31 49 9a 99 8b e9 99 3f f4 e6 80 c8 97 9f b1 3f
       0.025304967165149243 0.06884144444566315
000140 98 0b aa 7d 01 04 7e bf 1d 12 0e 7d 22 6e cc 3f
       -0.0073280390012112825 0.2221110449428502
000150 b2 2c 65 d5 94 3e cd 3f f7 9d ed a0 89 76 b8 bf
       0.22847233218849322 -0.09555874041472366
000160 ac 4a 1e 36 51 93 c0 bf 73 f5 02 b1 7c a0 a4 3f
       -0.12949576513763839 0.04028691921983354
000170 62 ff 2b 05 8c c7 9e 3f 12 e7 74 0b 70 47 86 bf
       0.030058086219468712 -0.010878444051388967
000180 bf a6 20 0d 2f 61 b3 3f a3 b8 43 2f 19 7c b6 3f
       0.07570165701386154 0.08783109096450174
000190 a1 2b 3e 62 b7 ab c3 3f 80 f5 23 a7 7e d9 c0 bf
       0.1536778669072563 -0.1316374126544524
0001a0 e7 36 3d 12 50 a6 cc 3f b3 d4 ba 95 cc 31 c1 3f
       0.2238254632051657 0.13433224974656852
0001b0 db 56 b3 52 85 ae ba 3f ba a4 1d 43 4c 76 ae 3f
       0.10422547596985103 0.059496291344495814
0001c0 9c d5 eb 03 7e 0d a3 bf 4c 2d 50 cd 09 e1 66 3f
       -0.03721231267801814 0.002792853493252123
0001d0 2c d4 73 de ff 6e ac bf c8 db 5e 97 cc c2 86 3f
       -0.055534358887520646 0.011113737458669962
0001e0 ee 82 77 ba 35 c4 bb 3f b6 8c c1 2c 71 fc a5 bf
       0.10846267511761784 -0.04294160529459516
0001f0 09 9a 25 3e 02 1f b9 bf a4 ee 80 a1 4d a2 a7 bf
       -0.0981294061399255 -0.04616015049438474
000200 5b 23 51 01 a6 08 a7 3f 32 e0 90 d4 55 40 a6 bf
       0.04498785749507902 -0.04345958919333305
000210 00 50 58 44 5b ae ba 3f 15 f7 32 96 90 05 92 bf
       0.10422296923235308 -0.017599352996277313
000220 1c e5 9c ba b8 94 bc bf b0 7f 69 5a d1 6d 62 bf
       -0.11164431148508352 -0.002249630825914971
000230 19 ef 20 d2 d6 38 bb bf c4 6f 75 ed 93 8e a8 bf
       -0.10633604650587038 -0.04796278260866374
000240 78 c3 f8 09 61 9a c5 bf 78 3a 6d f2 c9 91 bc 3f
       -0.16877377497578627 0.11159956139202076
000250 ce dd a2 0c bb 1f 98 3f c2 6b 15 61 88 cb a6 bf
       0.023558542867901093 -0.044521581507715804
000260 61 2a 2d 5a 04 b6 a9 3f 5f 5f 3b f7 8e 11 a2 bf
       0.050216804511894926 -0.0352902104183943
000270 0c 34 c8 95 60 d2 b2 bf eb d3 5d d9 ea bb bf bf
       -0.07352260262287319 -0.1239611416511505
000280 ce de d4 eb 8f 23 b5 3f 84 0b 2c ae f2 bb 85 3f
       0.08257388599019608 0.010612388553914227
000290 75 1d 7e 42 bb 1a b9 3f ab e3 04 42 19 1c ad 3f
       0.09806414006572146 0.05685500079056934
0002a0 ff 28 f6 89 d2 83 b5 bf 04 05 94 26 21 13 c6 3f
       -0.08404270046426986 0.17245878585530516
0002b0 29 4b 12 82 d1 82 8b bf 41 41 3b 1c b5 0b b1 bf
       -0.013433110029188082 -0.06658489169354188
0002c0 f9 50 1a 08 60 86 bd bf 9f cb e8 a8 9a 35 bb 3f
       -0.11533165166685312 0.10628668426288222
0002d0 e9 d0 60 e4 a2 07 c1 bf 16 ae 78 b1 86 71 c7 3f
       -0.1330455412986631 0.18315204301448834
0002e0 8b b9 d4 5d dc 8d a7 3f 5f 91 03 d2 7d 6b 9f 3f
       0.0460041870631925 0.030683484976991134
0002f0 4c a6 aa 29 49 76 a2 3f 52 3e 76 c9 0c 0c 7a 3f
       0.03605869897485245 0.006359147976936779
000300 ba 3e d5 00 0f 62 95 bf b6 7b 13 bb 2f 03 9c 3f
       -0.020881876397935463 0.027355905335635554
000310 2f 03 23 28 bc d2 91 3f 88 b7 17 00 00 08 b2 bf
       0.017405452680353036 -0.07043457033407041
000320 88 6d 13 82 27 22 b3 bf b8 13 95 6a 39 fe b7 bf
       -0.07473990369492445 -0.09372290470226019
000330 f4 97 a3 d7 31 9a ac 3f 41 eb c2 74 cd ab 77 3f
       0.05586391217529743 0.00577907806671868
000340 37 96 23 e0 cb 19 cb bf 5f 60 d6 76 9e 25 91 bf
       -0.21172474331176414 -0.016745067599544302
000350 34 14 0e f4 13 46 b0 bf 7f 77 9e c3 10 3e 78 bf
       -0.06356930454610749 -0.005918565258893226
000360 68 54 c1 96 aa 28 a6 3f 6a 7c 8d 6c d1 ce b7 bf
       0.04327900972627036 -0.09299954319202333
000370 53 d3 9b be 5c 10 b1 bf 0c 4c c8 e9 8d 9c 91 3f
       -0.06665591863186408 0.017198769945093104
000380 ce 64 07 53 56 3e 9a 3f ae e7 66 16 2e bd c9 bf
       0.025628422563248425 -0.20108581632467576
000390 17 b9 06 04 55 64 c7 bf c8 12 08 42 64 50 c0 3f
       -0.18274939247698604 0.1274533579272854
0003a0 84 9d ab e3 69 5f bc bf a4 60 89 e4 ee f2 a7 3f
       -0.11083089645727823 0.0467753080344562
0003b0 05 52 88 61 45 91 bb bf cc 1c 87 4d 0a 10 86 bf
       -0.10768540984310711 -0.010772781840286426
0003c0 39 98 1a f3 f9 fe b7 bf 06 73 e7 28 a4 52 8d 3f
       -0.09373438058045815 0.014317781923574479
0003d0 2a 4a 61 9b 67 07 ae bf 69 8e 8d 02 6f cd c3 bf
       -0.0586502434895418 -0.1547068369355771
0003e0 9f f9 a7 0c 40 25 81 3f 07 79 dd 0c 58 05 b6 3f
       0.008371830354914787 0.08601904214944876
0003f0 e0 6b 15 98 2a bd a6 3f 22 81 de 00 df 91 c2 bf
       0.04441197496881677 -0.14507663290442802
000400 d0 6c 5d 54 d6 5c c9 3f ed f0 87 a8 c8 f8 b3 3f
       0.19814566726095117 0.07801488985564094
000410 d4 2e 4e 95 43 0f c9 3f a9 16 6b 08 76 12 b6 3f
       0.19577832022002062 0.08621919351125008
000420 2d bb 5c 18 ea c8 c2 bf 4e 29 e1 46 9e 03 a6 3f
       -0.14675642194330277 0.04299635520199506
000430 cc cc 5d 5d c8 c4 8f 3f 1b 96 f4 f3 8a 3e 48 bf
       0.015512051915470691 -0.0007398775559621125
000440 3e d3 69 b4 90 d5 9a bf 80 ed 24 af 19 27 a4 bf
       -0.02620531178623086 -0.03936081183425255
000450 67 e2 8d d2 72 59 a9 bf 3e 52 d6 89 4f fd b4 bf
       -0.04951056308977258 -0.08199021449247199
000460 03 8a 12 e6 9c 5f b5 bf 91 e9 48 3b 70 f1 a9 bf
       -0.08349018685343172 -0.050670153843799366
000470 70 59 85 9e b4 13 81 bf e4 8d 11 80 7f 0d c0 bf
       -0.008338366592096164 -0.12541192773197374
000480 34 74 dc b4 d0 8b b1 3f 87 33 42 20 9a c7 b3 bf
       0.06853966155581831 -0.07726443564952322
000490 38 ed ec d3 6c 3a a5 3f 6b 89 a5 ff 12 37 9d bf
       0.04146137320500504 -0.028530403951103105
0004a0 6c 42 0f a4 52 47 a0 bf 83 e6 4e 6d c6 81 a1 bf
       -0.03179414990120652 -0.03419323047951386
0004b0 45 9a a5 25 ca 00 c0 bf 8c 2a 85 22 ce 56 b0 bf
       -0.1250240978071863 -0.06382454245355457
0004c0 9a 1e 92 de cc 5f c3 bf 09 ad 56 81 5e 7f 92 3f
       -0.15136109225953903 0.018063999790382677
0004d0 35 f6 51 4e df 7f b2 bf cb 93 31 4e 62 7b c0 bf
       -0.07226367628205639 -0.128765381031512
0004e0 b9 52 17 c2 30 56 a9 bf 69 14 b2 8a f0 a2 c6 bf
       -0.04948570603634068 -0.17684752247092497
0004f0 a8 04 c8 25 11 c5 c8 3f 33 d7 6f e8 2e 56 b9 bf
       0.19351400704184596 -0.09897130179146245
000500 8d 9f 18 ac 5c 9d 79 3f a8 24 4a ab 88 fd a4 3f
       0.0062535877237123285 0.04099680987298743
000510 20 7a c8 de cc 3f 9f bf af 80 f8 e0 60 b2 c3 3f
       -0.030516816232301847 0.15388117775819896
000520 58 53 36 a7 f9 c2 a8 bf 85 cf 4f 4d 17 e4 85 bf
       -0.048362542783400186 -0.010688955351703342
000530 72 dd f6 14 8d 80 a0 bf 09 ab cf ef 4c 5b a7 3f
       -0.032230767068024316 0.04561844279654365
000540 59 30 5a 16 7a e9 a5 bf 1d 9a 6e e9 d5 18 97 3f
       -0.04279691241126277 0.022555677769242267
000550 d3 38 fb 4f ff 44 98 bf 0d 8f ce 1a cb 20 53 bf
       -0.023700703865693406 -0.001167486519286723
000560 bb cd 38 99 10 22 b6 3f 54 d3 7e 9f ec 31 b9 3f
       0.08645728817719249 0.09841803449564895
000570 1f 57 ea 17 ba 1a c3 bf 69 f8 db 0a 69 e2 9b bf
       -0.1492531410955786 -0.02723087433604868
000580 43 be 8a 44 50 f6 81 bf f5 80 cc 73 f3 a2 a4 bf
       -0.008770587054953377 -0.04030571735916225
000590 56 aa 0b b4 83 b7 c4 3f b4 5e 7d c2 0a f8 b5 3f
       0.16185041705405706 0.08581607101711591
0005a0 f0 3b a0 d4 5d 80 d3 bf 56 e4 80 e0 c0 60 b7 3f
       -0.30470987095117064 0.09132009011308759
0005b0 9a 3b ba 7c 5b 3e c2 3f fb d3 9e 36 3e 3e b7 bf
       0.14252799596985427 -0.0907935031271591
0005c0 02 76 c6 c2 2b 89 b4 bf 69 76 b2 a1 ed b3 ac bf
       -0.08021806245093191 -0.056060243595521815
0005d0 7f 47 b9 67 3e 18 c3 3f 06 28 d7 91 f4 78 b6 3f
       0.1491773611510858 0.08778313217695208
0005e0 b3 cf 18 ac 8d 10 ba 3f 29 0c 36 9a c7 11 b9 bf
       0.10181508494934981 -0.09792754664344784
0005f0 80 45 b6 86 32 5a c2 3f ce 68 fa c5 1e 5c be bf
       0.14337760522588994 -0.11859314282847608
000600 70 f3 15 d4 f0 8f b1 bf a9 03 2c 0e fe 9d be 3f
       -0.0686026113307443 0.11959827276224523
000610 f9 4b 1e d3 0f 67 d0 bf bf 62 45 f8 aa 15 af bf
       -0.25629039399171877 -0.06071218758251495
000620 59 ad 7c 4b ac 02 ab bf 06 5d c1 4c 24 fb aa 3f
       -0.05275476857635892 0.05269730984644565
000630 28 04 92 ec 26 d5 bf 3f ae 9e 1d b8 fc 68 c1 3f
       0.12434619212764686 0.13601645460152184
000640 6d 4b a7 8e 0c 5d c2 bf 18 9f 8a 1d 11 72 a8 3f
       -0.14346463170530957 0.047745261055125165
000650 8a 3b 6f 13 89 1e 74 3f 0e 36 db 20 ff 77 c3 bf
       0.004911933377072306 -0.1520995054656144
000660 4f 3c 22 8b c3 1a 85 3f 9a 46 8f 58 29 64 c3 bf
       0.010304954226994094 -0.151494186632182
000670 1d f6 2d dd 6d 76 ac bf 50 fc 70 4f 98 04 b9 bf
       -0.0555910427565147 -0.09772636355863651
000680 27 50 72 e2 f6 c4 ab 3f f0 f3 24 c5 de 09 c3 bf
       0.05423709406127868 -0.14873871446789577
000690 a6 57 d8 08 61 b9 c1 3f 37 d7 c0 79 e1 5f 74 3f
       0.13846981937302622 0.004974251522119214
0006a0 cb 03 7e 94 66 30 28 bf e2 db 24 d1 33 5f c1 3f
       -0.00018454792211389093 0.13571784698589712
0006b0 32 2c 9e 5c 5a 21 9d 3f ba c7 65 ff a2 fb c0 3f
       0.02844754400534217 0.13267934294304756
0006c0 75 2a f6 36 b8 e0 b9 3f 7d 21 32 d1 a1 26 ab 3f
       0.10108519880137996 0.053029114519691035
0006d0 97 88 91 be 24 8c c8 3f f0 46 7d 04 6e e5 b5 3f
       0.1917768412122924 0.08553207025149923
0006e0 d4 d4 9d 15 26 46 a7 bf 2b e6 b9 2e c9 dd c2 3f
       -0.045457067621933384 0.1473933675913924
0006f0 e8 61 81 a9 77 e8 c7 bf 31 5e 14 f1 f9 c1 c4 bf
       -0.1867818429625594 -0.16216968795264244
000700 5f 9f cc 98 c9 21 b4 bf 98 9b 87 5a c5 8f 8e bf
       -0.07864055614902331 -0.014922658753631343
000710 4f a5 c6 bd bf f4 c7 bf 52 3e 9b d4 b9 b4 ae bf
       -0.187156646408122 -0.05997257919591149
000720 bb a1 a3 1b 62 70 b0 bf 54 c0 1d 63 75 77 86 3f
       -0.06421483206543759 0.010970036589896072
000730 19 ff be 64 cf 2b c8 bf b6 5d aa 0a 9f 4b a7 3f
       -0.1888369790958613 0.045498819400730126
000740 d1 98 e3 04 c3 5a 91 3f 5b db ee ba f7 00 cd 3f
       0.016947791264919247 0.22659203174199657
000750 85 dd 91 cb 23 2c 8d bf 12 e6 96 db df 36 b9 3f
       -0.014244346284825191 0.09849356757231245
000760 d7 3f bf d0 e3 e2 c9 bf 26 c4 42 69 92 5e a2 bf
       -0.20223663037040637 -0.03587777647897665
000770 07 42 a3 01 db 28 ba 3f ee 97 41 64 1e ea b5 bf
       0.10218590536101867 -0.08560361812268955
000780 0d 77 d9 b0 fb 14 87 3f 2b c0 37 61 c2 93 c7 3f
       0.011270490965383151 0.18419675585710257
000790 98 80 a7 12 48 44 77 3f 46 9a e4 22 e8 d5 bb 3f
       0.005680352720872993 0.10873270847205516
0007a0 8b 8e 43 72 47 b4 bb 3f 12 23 28 2e a1 d8 af bf
       0.10821959056516499 -0.062199627766011414
0007b0 74 3a d0 00 5b 0d b6 3f 25 b4 b7 47 59 22 c6 3f
       0.08614128846986963 0.17292324067912648
0007c0 e1 d6 13 cf be c3 ae bf 25 44 b6 ed b5 68 c2 bf
       -0.06008716848184093 -0.14382051569967405
0007d0 c7 51 bd e7 6b b9 b2 3f 55 85 2b 44 b6 da c1 3f
       0.07314180762961718 0.1394870598660797
0007e0 f1 0d 9c ac bb e8 b9 bf 6f 63 c0 84 14 e3 c5 3f
       -0.10120747531987441 0.17099243623740842
0007f0 43 f0 2a 22 07 8f b8 3f 79 88 c3 ca 0d ed c0 3f
       0.09593243202374517 0.13223431015564183

net.net.hidden_layers.1.bias f8 [60]
000000 51 60 40 5a 44 e7 95 3f 8e 6a 90 cf ca cd cd bf
       0.0213900261006475 -0.23284278044669232
000010 26 5e 7f 45 06 9a c6 3f 05 1e 8d 33 02 0d b7 bf
       0.17657545464929675 -0.09004224546981028
000020 29 8e 54 04 a2 2e b7 bf 0e 48 9a fd 9d 8d b7 3f
       -0.0905553112575538 0.09200465623351325
000030 a7 60 da 23 eb 7f bb bf f8 f3 27 a6 a7 d8 b5 bf
       -0.10742063165014547 -0.08533714109940138
000040 32 0f c7 8e 01 ec c9 bf 4d f5 22 79 cf 1e ae 3f
       -0.2025148341327792 0.058828815018822846
000050 56 b8 6e 2e 7c 6a 99 bf 08 48 1b 17 92 bf a2 bf
       -0.024820270856871517 -0.03661781818449589
000060 08 ae 91 e9 a3 ff b6 bf 0f 58 a8 33 c6 d8 b2 3f
       -0.08983826115007087 0.07362021218463631
000070 ff 08 96 ae d5 9d bc 3f cf 36 58 76 73 51 ba bf
       0.11178336632113782 -0.10280534400245787
000080 56 bd 01 a3 4b 78 7d bf e9 ac de 84 98 3a ae 3f
       -0.007194800811802201 0.05904080030389897
000090 3c 59 0a 45 35 ee ba 3f ad 35 3a 84 a2 2b b7 3f
       0.10519726691777448 0.09050956466872746
0000a0 81 cc 9f db 2b 56 a0 3f 81 d8 01 d5 37 e5 c3 bf
       0.03190743499717375 -0.15543268109076183
0000b0 c5 33 d1 78 0b fe 9e 3f e3 f2 92 08 30 a7 ae 3f
       0.03026597905072827 0.0598692903963405
0000c0 5e 39 d4 f9 02 4b b2 3f 4b 79 e2 8d 26 da b3 bf
       0.071457086556824 -0.07754746402722394
0000d0 28 87 5d dd 3a aa c3 3f 97 61 50 82 50 bc c2 3f
       0.1536325055013148 0.14637190211284398
0000e0 8f 6d 27 6f 00 92 b9 bf 56 05 7c 52 e7 66 c0 3f
       -0.09988405908318597 0.1281403687244544
0000f0 aa 49 8e 8b cc c2 a9 3f 51 12 16 81 25 0d b6 3f
       0.0503143234592643 0.08613809968489618
000100 8e 4a 8e 8d c2 6d c4 3f e0 1d e3 0c a3 d7 bc 3f
       0.1595996085348656 0.11266535820606505
000110 f7 4d 64 f9 a6 3c b7 3f 3a c4 ed dd be c2 c0 bf
       0.09076922978083944 -0.1309431632649039
000120 1a 7e a4 4e 3c 11 b3 bf 81 38 47 ae e1 90 ac bf
       -0.07448174400314436 -0.05579285862369066
000130 5a c9 ad e0 98 2e b8 bf 2f 62 6b f2 df e6 c8 bf
       -0.09446101651500297 -0.19454573952568086
000140 6f 33 61 d6 a6 6e 90 bf 53 e5 9e 49 58 a8 b6 bf
       -0.016047102770517293 -0.08850623891239211
000150 bc 51 94 c0 5a ea a4 bf 5f 20 43 11 72 f6 c1 bf
       -0.04085048294851698 -0.14033342211610297
000160 62 f4 2c e1 42 66 9f bf eb 9d 09 39 17 83 be bf
       -0.030663533204677747 -0.11918778555411051
000170 85 b9 34 95 1e 90 c6 bf a8 3d 83 ac ca 91 7e bf
       -0.17627317700812398 -0.007463256544908793
000180 88 2b fc de e6 1f be bf 54 86 ba d7 54 66 85 bf
       -0.11767428344698605 -0.01044908793784597
000190 c9 b3 56 b3 21 d5 bb bf a3 e2 e2 26 94 7d b2 bf
       -0.10872088077913057 -0.0722286791741547
0001a0 e0 36 57 3f 77 67 8c 3f bb ae 41 dd 51 02 92 3f
       0.013869220371727164 0.017586974267415494
0001b0 69 f4 83 ce cc df cc bf fd 65 ca 0c f9 4b 9e 3f
       -0.2255798347831928 0.02958668842857114
0001c0 e4 fd 0f e6 1b 6f b3 3f 7a 11 6c 8d 56 b0 8a bf
       0.0759141384769389 -0.01303165072523237
0001d0 75 68 a6 80 35 1a bf bf e2 b1 3f ae fe dd cc 3f
       -0.12149366751546771 0.22552474506609516

net.net.hidden_layers.2.weight f8 [60, 60]
000000 cd a8 66 3c 53 d8 c7 3f 6d 44 4e d2 c3 91 8a 3f
       0.18628921937244627 0.012973337035676569
000010 a0 72 c9 9f 35 db 79 3f 83 21 e0 0f 00 e4 c2 3f
       0.006312570065884288 0.14758301520511105
000020 48 47 3b c3 14 a7 bd bf 9a 33 34 8d 25 9e c8 3f
       -0.11583070532222195 0.192326253840659
000030 1c 70 1e 1b c7 29 94 bf 52 ec 9d 07 2e 44 bc 3f
       -0.01969061949749583 0.11041534124335442
000040 06 02 64 51 f2 e1 b2 3f 6d f4 6f ed 17 c3 7c 3f
       0.07376017081333694 0.007021993128543885
000050 b1 eb 26 a5 14 81 ab 3f 3c e9 cb 02 2b b6 a7 bf
       0.05371918216720618 -0.046311706630108834
000060 6a 15 be bc 61 bc 97 bf 51 f3 31 91 6f e2 95 bf
       -0.023179556984833573 -0.021371596562392018
000070 7d 7b 33 52 df 3b a1 bf 55 fb fb 24 59 21 a1 bf
       -0.03365991476470407 -0.03345755173176338
000080 51 f1 1e 1b e3 3b b4 bf 05 3c c8 dc 7b e6 a0 bf
       -0.07903880512362106 -0.033008452130268075
000090 63 65 2b c7 d6 48 c6 bf 21 0a a1 79 2f bb a4 3f
       -0.17409786915849698 0.04049061164598223
0000a0 55 59 83 6c cd 18 88 bf fd 23 52 3a a1 0f b2 3f
       -0.011766056894356206 0.07055099176263009
0000b0 c4 55 f7 d2 87 c4 c5 bf 5e aa 3f 4d 94 80 94 3f
       -0.17006013680535947 0.020021741118322438
0000c0 0e a5 99 3a 2b 69 a7 bf 00 59 b0 ab 51 55 c0 bf
       -0.04572424974760213 -0.12760373004193326
0000d0 81 5d 9a ec b1 89 b9 bf 7b d7 e3 0c 3a 59 c1 bf
       -0.09975730921211402 -0.13553548459429607
0000e0 e2 9e f9 03 7b 6d b2 bf 91 47 b6 dd fc 49 9e 3f
       -0.07198304030464045 0.02957911589835011
0000f0 c2 a0 dc c6 20 ff bd 3f 1d 85 ae 98 ee 68 6c bf
       0.11717419486069772 -0.0034680042349043553
000100 60 6a 77 a9 82 1b a0 bf 8f 11 33 f8 38 b6 b9 bf
       -0.031459887682747434 -0.10043674525792866
000110 bd 51 1b cc 4c 48 9d 3f 67 9a 42 96 0d 95 b2 3f
       0.028596115071950246 0.07258686941586633
000120 b0 df 0e 6e 26 68 91 bf 67 42 64 da d3 7a ab 3f
       -0.016998863665974973 0.05367147484696915
000130 4e 56 3f a0 d9 70 c5 bf 85 9c 43 1e 23 fe 8e 3f
       -0.16750641178684805 0.015133165703856708
000140 7b f2 fb 26 55 63 90 bf 2f 07 66 c5 47 1f a0 3f
       -0.016003923897175625 0.03148865017557367
000150 6a 5c 78 15 2e a9 b4 bf 72 c1 37 a1 be d7 af 3f
       -0.08070648216413337 0.06219287603369396
000160 2d 32 71 da a0 cd bb bf e1 17 5f ca aa 71 be 3f
       -0.10860638936100804 0.11892192307195117
000170 d2 50 9a 53 7c c2 9f bf 5f 7d e4 d3 ea ff c0 bf
       -0.031015341379842472 -0.1328099760657819
000180 f8 f5 b9 3f 24 b4 bd 3f b0 cb ff d6 65 94 a3 3f
       0.11602999263592284 0.038241560454387424
000190 c3 87 7b 7c 57 77 c2 3f 10 5c 79 83 93 63 a6 bf
       0.14426702097176589 -0.043728456305579866
0001a0 43 ad 7d a9 de d2 7d 3f 0e 8e 0b 5d a8 8c ae bf
       0.007281179212309144 -0.05966688285641562
0001b0 24 d5 2e b9 93 10 bd 3f b8 7c e9 0c e7 73 bc 3f
       0.11353419562404504 0.1111435324214537
0001c0 56 b8 55 37 20 16 b2 3f 45 fb 11 e4 a2 db c2 3f
       0.07065011359165516 0.14732776771776393
0001d0 e9 23 8e ab 70 e0 a0 bf 2f ad 8f 81 95 d4 b3 bf
       -0.03296234220676537 -0.07746252453914758
0001e0 97 26 81 16 27 fd 8f bf f5 fc 16 0d f8 a6 66 3f
       -0.015619569181711852 0.0027651638744995385
0001f0 2f cf 4d ad 74 cd c9 bf 2b db 5d a1 2d 42 9a 3f
       -0.2015825124941499 0.025643074964558792
000200 66 73 fa 80 37 76 9b 3f 52 3e 5e 6b 95 3a 92 3f
       0.026818148848735922 0.017801603964072328
000210 c3 00 e6 64 a1 be aa 3f b8 db 06 af 9f 9d b6 3f
       0.052235644880967345 0.08834264777293199
000220 f1 44 2c 3a c2 df ba 3f 33 e9 29 3f 29 22 85 3f
       0.10497678680646395 0.01031906341562614
000230 13 3e 9b 81 33 9d bd bf e5 39 5b 6d 86 50 a5 3f
       -0.11567994989604129 0.04162998280445488
000240 07 4d c3 03 c6 a0 9f 3f 5b 12 04 06 4c 14 bd bf
       0.030886739711445645 -0.11359095713493998
000250 3d 6d 58 0b 91 8f c6 3f 42 63 7b 99 9e 75 ae 3e
       0.17625630430198128 9.077623870048216e-07
000260 0f e7 45 3e 0f fb c1 bf 64 fd 13 75 67 85 c4 3f
       -0.1404742292468701 0.1603211709661806
000270 8e 1a 22 4d 6f 6f ba bf bb 05 58 e0 ff 6a a2 3f
       -0.10326285966048429 0.0359725915295814
000280 17 59 5b 58 ff b4 b5 3f a6 d5 bd 06 10 1c 91 3f
       0.0847930517878449 0.01670861283442595
000290 23 9b 15 be e3 57 a4 bf 25 6e c0 36 c3 e4 bc bf
       -0.039733044580137176 -0.11286563955985025
0002a0 4e 46 41 5e 76 9a b8 bf 1f 05 42 a0 11 38 8d bf
       -0.09610690880915593 -0.014267099097426126
0002b0 e7 7c ab 1b 32 95 96 3f b7 92 46 fa 84 22 a5 3f
       0.022053511561236496 0.041278987456541065
0002c0 cb 81 3e f8 af b9 ab 3f 57 62 cb b9 75 fb 94 3f
       0.054151057294123804 0.020490493264193024
0002d0 e9 1e a2 e1 a4 81 a0 3f 8a 3a 30 4f bc 69 a6 3f
       0.03223910574257422 0.04377544848113242
0002e0 35 8f 2b 30 c0 5a 78 3f cc 53 1d b6 90 c9 b2 bf
       0.0059459216451818635 -0.07338814207226035
0002f0 d1 66 bc 9e d3 03 c7 3f 69 b1 05 2b 06 7a a7 bf
       0.17980427981165417 -0.045852844955194545
000300 89 49 ee bb 4a 86 a2 bf 12 8f 3e da 55 df 96 bf
       -0.036180816117069865 -0.02233633179243017
000310 2c 79 19 d3 a7 8b b6 3f 44 e6 4a b5 84 c3 b2 3f
       0.08806847480579866 0.07329587389076503
000320 59 4f 84 21 fe 26 b0 3f 24 f6 eb 79 55 e8 c0 bf
       0.06309498136789439 -0.13209026768883902
000330 e1 72 1a 4c 73 8c ae 3f 6a 54 56 68 8c cc ab 3f
       0.05966530136104154 0.05429495595596097
000340 0d 50 aa d9 e1 fe b5 3f f5 1e 94 2b 8b 11 b8 3f
       0.08592044414609763 0.09401769460611915
000350 30 1c 12 44 9c f2 ad bf 10 22 99 b7 12 05 a1 3f
       -0.05849159556333239 0.033241829788099975
000360 1a 53 7e 65 e4 96 73 bf 8a ef af 50 92 13 c0 bf
       -0.004782573865573148 -0.12559727611357757
000370 8c 5d a6 c0 53 f8 c3 3f 60 76 b9 fb b7 90 23 bf
       0.1560158434556168 -0.00014927144899250493
000380 05 d9 2c c9 6b b9 b7 bf be d8 32 4d 6a c0 b6 bf
       -0.09267305051330162 -0.08887352356655051
000390 f1 15 43 eb c6 ec be 3f 9c 3c 97 a8 c1 b6 7a 3f
       0.12080043071463088 0.006521946409932113
0003a0 0c ce 05 36 70 09 9d 3f f0 59 c5 fa f7 29 ad bf
       0.0283563168499779 -0.05696082054298646
0003b0 c4 da 1e f6 3c 77 ad 3f 5e ea 5d e0 d3 f5 56 3f
       0.05755033974076221 0.001401383314684999
0003c0 4f 1a c9 9e f0 00 cd 3f fd d3 e6 e1 dc 41 cf 3f
       0.22659118416977939 0.24419747381548965
0003d0 bd e2 fd 2c 09 a4 c8 bf 6e 8a 1d 3a 76 34 98 bf
       -0.192505976647018 -0.023637625977594494
0003e0 16 86 d7 ea 8e 3b b9 bf b2 f0 73 9e 05 94 c0 3f
       -0.09856503709263395 0.12951727139432517
0003f0 4d 2b f7 24 c7 55 77 bf 9a 97 db 99 bb af ae bf
       -0.0056970385625828126 -0.05993448498865846
000400 6b 38 01 46 6f 12 ad 3f 5d 18 07 7e 5d fa ae 3f
       0.05678127030897503 0.060503884920351615
000410 03 2b b4 6e e9 f9 c0 bf 3c 1b dd 95 84 f9 b8 bf
       -0.13262670426805565 -0.09755734118253384
000420 db 34 61 88 05 6a a4 bf 7d 16 8c 2f b3 6c 89 bf
       -0.03987138070861259 -0.012414359940076775
000430 6f c6 89 89 f4 cc a8 3f 44 08 99 db a6 57 b9 3f
       0.048438684262589564 0.09899371014856323
000440 fe 40 45 8e 28 cd 5f 3f 47 ff 7d 3f 98 07 b7 3f
       0.0019410034229459523 0.08995963621236767
000450 74 f4 16 8b 05 09 c8 bf fc 53 0b 3c cc c0 86 bf
       -0.1877753190182464 -0.011109920103459452
000460 ad 1e 6f 71 ae b4 61 bf bb fc 07 30 fe aa b1 3f
       -0.0021613509265739545 0.06901539490353319
000470 fd b8 83 d6 34 e8 c3 bf c8 8e 5a 66 c0 04 b5 3f
       -0.15552387689917416 0.08210375307913431
000480 38 8b 28 ca d4 9c 5b bf 31 fc de c0 52 ff 9a bf
       -0.0016853406929235436 -0.026364605924524113
000490 41 5e c7 e7 37 7e c7 bf f8 5a f7 14 82 23 84 bf
       -0.18353937928508127 -0.009833351387823694
0004a0 9f a3 8a 68 cf df c3 bf e6 33 99 12 16 ad c0 3f
       -0.15526764492576903 0.13028217228057243
0004b0 18 c8 12 2a 6f d5 90 3f 1b 8d b6 f3 1e 1f a4 3f
       0.016439186995462846 0.039299933672078256
0004c0 55 1f b2 89 71 a2 a2 3f a4 8b 3b 35 a8 6e 91 bf
       0.036395595606392085 -0.017023685692844417
0004d0 30 1d 1c a2 9c 3c 9d 3f 18 e9 ae ab ad 85 c2 3f
       0.028551528353117195 0.1447045410439578
0004e0 56 5d 44 52 fc e2 9c bf 0f f9 09 12 6b 44 a7 3f
       -0.028209631463224603 0.04544386477663142
0004f0 3f 66 a5 d4 2d 1c bc bf 78 79 2f 61 8c a6 b9 3f
       -0.10980497781329122 0.10019757626239378
000500 79 f1 51 37 f1 7a a0 3f 47 32 5a c3 6c fd 98 3f
       0.03218797493261411 0.024404239104614225
000510 a8 cc be 80 9e ef b1 3f b1 fa 12 a6 aa e2 a1 3f
       0.07006254809566548 0.0349324538924426
000520 59 7c 14 17 49 64 a5 bf fa 74 2f c9 37 16 8f bf
       -0.04178074270952754 -0.015179096057119857
000530 2f de e0 4e de fa 85 3f ff 20 51 3d a3 8b c6 bf
       0.010732399732758939 -0.1761364030264829
000540 09 0d de f8 23 9d c8 bf d8 84 22 ff 4a da c5 bf
       -0.1922955479786668 -0.17072427232509457
000550 ef fc 8c 17 cb 34 c1 3f 32 53 d2 4f 8c a8 ad 3f
       0.13442362451494413 0.05792654489883943
000560 ce 3a db 23 f4 80 bd bf b1 5d 58 20 83 25 b1 3f
       -0.11524892688178598 0.06697864093472707
000570 9f 1c 81 34 94 1b 9c 3f df 8a bc e4 a3 75 a6 bf
       0.027448955254183557 -0.04386627356713801
000580 eb 32 9b b4 a5 77 ab bf 7f 74 38 2d 3b 6c b6 3f
       -0.053647211357746936 0.08758897642151629
000590 6f 38 4b 8b e2 b5 aa 3f b1 06 1b d8 00 d5 be bf
       0.0521689219509519 -0.12043767238631166
0005a0 56 c1 cd d5 5e 08 a2 bf e4 89 98 d9 ef 24 cc bf
       -0.03522011146458463 -0.21987722515866814
0005b0 e1 a0 cc c3 bd a1 7f bf 23 9d 55 67 4f 87 b3 bf
       -0.007722607869063065 -0.07628341934979636
0005c0 0d 3b 44 bc 10 64 c7 3f b9 c0 f9 32 43 ec 86 3f
       0.1827412528295657 0.011192822449828875
0005d0 4a 60 5a 03 aa 5b 82 3f cb 96 86 28 71 30 c0 3f
       0.008963897921873482 0.12647833327098676
0005e0 70 80 52 ea 3b 7b 99 bf 5a 65 d2 62 61 be b8 bf
       -0.024884163071533683 -0.09665497458117525
0005f0 33 31 8f 97 a9 8e ba 3f 5d 07 e7 8c 06 c5 b9 3f
       0.10373935651950177 0.1006626218795907
000600 81 ea e8 7b 11 02 b3 3f 61 5c 0b bf 4c a6 ae bf
       0.07425030970709125 -0.05986251670918175
000610 73 3d 78 2c dc 56 bf bf 0b 89 e3 06 38 b0 b0 bf
       -0.12241912923513158 -0.06518888633903346
000620 61 da eb c6 b1 34 84 3f 21 7d a2 e7 fe 9d b1 bf
       0.009866131671043723 -0.06881707339424682
000630 50 5c 97 d2 d0 77 92 3f 8f 34 4e 89 a9 30 7f bf
       0.018035185674161902 -0.007614767314305783
000640 67 10 4b 18 b7 1d ae 3f 6f 96 7e b2 f0 a2 be bf
       0.05882045909450611 -0.11967377050185644
000650 36 54 a9 e6 c5 bc ab 3f 31 d5 25 4c 75 90 a1 3f
       0.05417459908191129 0.034305253548988175
000660 63 49 34 71 4f db b3 bf af c1 64 31 ed 3d c0 bf
       -0.07756515992904194 -0.12688984786792676
000670 86 f0 10 ac 5c 1c b0 3f 9f 17 b9 1e e6 69 b2 3f
       0.06293276978334647 0.07192838907312059
000680 23 04 f9 2d a3 16 5d 3f 8e 99 9f 39 35 b8 b3 3f
       0.0017754167128176755 0.07702953965017498
000690 07 b5 6f e3 1a 89 c5 3f 49 5a 89 c7 f4 ec c8 3f
       0.16824661355295964 0.19473132842058963
0006a0 13 69 68 39 f3 37 b0 3f fe fa ab a0 f1 4a af bf
       0.06335373069342536 -0.061118651259667076
0006b0 c5 a1 ec 2d e2 76 b8 bf 28 53 c2 c4 93 f5 98 bf
       -0.09556401845168867 -0.02437430275365951
0006c0 4c 95 55 0d 93 3a b0 bf a7 38 bb 86 4f c5 b6 bf
       -0.06339377475304281 -0.08894822158183278
0006d0 4a 50 d5 18 af 9c bb 3f 06 fb a3 96 4f 97 8b 3f
       0.10785955768852876 0.013472196373638844
0006e0 20 44 aa 30 82 1f b9 bf ce 51 cb 05 18 44 97 bf
       -0.09813703239548532 -0.02272069487919897
0006f0 75 ec 16 af 37 58 b5 3f 4a d1 9c 92 69 d2 b9 bf
       0.08337734245917423 -0.10086688832672511
000700 b8 b2 27 cd fb cb b7 3f 27 05 a6 5b be 0f ba 3f
       0.0929562927119133 0.10180272805702782
000710 80 46 ea a1 e6 61 b8 bf 7b ec 1a 05 20 3f a8 3f
       -0.0952438493061667 0.04735660612410527
000720 f7 b4 cd 88 87 e4 ab 3f 54 b5 3a d7 2c 8c c6 3f
       0.05447791619267577 0.1761528063702068
000730 78 fd 4b 8c 59 8d 9e bf 3e c3 81 5a cb 16 b5 bf
       -0.029836081684150056 -0.08237906417504079
000740 77 f6 e5 e2 18 15 b3 3f 22 00 c4 ad fe 90 c6 bf
       0.07454066791066248 -0.17629989132547147
000750 a5 4b 71 4e e5 df 83 3f 2f e3 4e be 06 64 95 3f
       0.009704390961052864 0.020889382710922163
000760 bd de 39 64 d2 2e 93 3f b4 df f9 4b 11 56 bc bf
       0.01873329865199368 -0.11068828682789339
000770 61 db 19 a5 26 46 bc 3f e6 16 7f cc bd ab b3 3f
       0.11044541865144943 0.07683931582058853
000780 70 9c 42 d5 7a 65 c1 3f 0b 2b d4 42 2c 3b b4 3f
       0.13590941823096925 0.0790279067188459
000790 f3 6e 07 69 0e 14 a8 bf d8 4b b9 ef ce a4 af bf
       -0.047028017350127536 -0.06180426288906177
0007a0 90 eb 5b 47 b9 42 c0 bf 27 b1 c9 88 c5 4b a1 bf
       -0.1270362471039701 -0.0337812165715568
0007b0 47 30 9c 34 d6 0c bb 3f a5 8b b7 1b 45 0b b3 3f
       0.10566462311197809 0.07439071585353803
0007c0 6f bd a9 0c 83 85 b9 3f 7d 01 de 1b 63 59 98 3f
       0.09969348010212341 0.02377848489368394
0007d0 5c a8 41 1d e9 c8 8d bf 7e 2b e9 b2 0f 3d a4 3f
       -0.014543362813317078 0.03952836092920274
0007e0 cf ca ad bc 9b 1d c1 3f bb 17 55 46 73 4e 8b 3f
       0.1337160750659536 0.013333225807070073
0007f0 7a 6c 3e e8 4e 95 b2 3f 73 37 18 e9 cf 38 95 bf
       0.07259076280608837 -0.020724533655133336

net.net.hidden_layers.2.bias f8 [60]
000000 ea 42 5d e2 93 ea c2 bf 1c 60 aa b9 28 6e bd bf
       -0.14778374245590636 -0.11496214421129064
000010 56 ff 07 c7 67 15 c0 3f a5 c5 c1 a3 78 46 c7 bf
       0.1256532403785921 -0.18183811183875523
000020 40 eb b7 e6 55 48 b7 bf 00 82 32 a1 b1 dc c4 3f
       -0.09094750292562725 0.16298504229509092
000030 a4 82 1d 19 96 c0 c2 bf a9 af 1e 1b 50 d6 a8 bf
       -0.14650226808864375 -0.04851007777264666
000040 57 08 b0 eb 84 ea cb bf 32 8b 2c 00 45 1e aa 3f
       -0.2180944586580746 0.051012188216438395
000050 da 3c 0a 85 05 c9 c0 bf bb fa 85 22 14 4f ca bf
       -0.13113469120114624 -0.20553828893385692
000060 b3 93 67 18 37 b1 8d bf d6 69 e0 99 ab fb ae 3f
       -0.01449816745020791 0.060513842138067694
000070 eb cf f3 ad fa 97 b4 3f ac 0d 4e 48 16 26 c4 bf
       0.08044401881107859 -0.15741232424271112
000080 4b 49 6c a1 33 07 8f bf e2 c9 17 59 f7 a3 c7 3f
       -0.015150454868067561 0.18469135141601983
000090 5a 39 75 d4 36 08 c9 bf e5 66 c5 a5 d5 7c ce 3f
       -0.19556317686005792 0.23818464845935874
0000a0 5b 72 65 4a c4 59 b3 bf 7b 0a 47 ce 90 14 c1 3f
       -0.07558848205867134 0.1334401137556432
0000b0 b8 5c 31 dd f8 3a 9e 3f ed 84 d5 7b 73 33 d1 3f
       0.029521835804499047 0.26876532643480183
0000c0 69 d3 91 8a 03 72 aa 3f 94 d6 b3 0a 12 be 6e 3f
       0.05165110651515798 0.003752742040542165
0000d0 9b 04 31 a3 42 34 b8 bf b7 c7 cd 7b 33 50 b7 bf
       -0.0945474289337817 -0.09106752178720866
0000e0 67 0e 72 96 b7 d9 c1 3f ea ea 72 58 c0 fe a1 bf
       0.13945669980977302 -0.03514672355364275
0000f0 b0 82 da 22 d2 03 c5 bf 11 b0 31 3e a2 0c c5 3f
       -0.1641791029151327 0.16444805180378855
000100 8c e9 a1 67 7c b5 ca 3f d3 5e 95 c5 c6 e6 c1 3f
       0.20866351185015863 0.13985523841505784
000110 69 9d c3 ad 5b 2f c2 bf f5 3a 3a a0 31 9a 56 bf
       -0.14207025513244823 -0.0013795361163919083
000120 74 4f 12 97 7d e9 a8 bf 3b f7 ad 0a 98 c9 a3 bf
       -0.0486563918031199 -0.03864741449704786
000130 60 69 c0 be 00 3e 94 bf 7a a5 ef a3 0f 34 c0 bf
       -0.01976777233367366 -0.12658877854054734
000140 22 b1 99 53 31 aa c1 3f 60 72 dc 0d bc 58 b0 bf
       0.13800636846588882 -0.06385398233801132
000150 8f 2e 3f df 36 62 c7 bf 91 1e 74 07 d4 57 c8 bf
       -0.18268476391527996 -0.19018030513710873
000160 68 23 d2 de 7c 47 a8 3f 31 71 d4 6d 1a 42 b0 3f
       0.04742040843945611 0.06350865537064433
000170 ce fe 8c 5a 6d b6 bf bf c0 4d ae 83 61 10 ac bf
       -0.12387736759864795 -0.05481247646744292
000180 3e b2 99 f4 42 87 95 3f af 6e 14 a7 2b fa b4 3f
       0.021023794345113915 0.08194229916665095
000190 b3 c3 38 02 04 78 c3 bf f2 7b d8 0e fa 5b af 3f
       -0.1521000872467347 0.06124860221120078
0001a0 64 f6 4d 77 e0 62 cf bf 50 2c 3e 56 43 27 b7 3f
       -0.24520498109261546 0.0904428563646189
0001b0 89 2d d4 46 f5 c3 8f bf 91 70 4f 2e fd 89 a2 3f
       -0.015510479187034647 0.03620902242957514
0001c0 14 4f 2b 95 6e 2f a6 bf ee 33 ed 7b f9 11 94 bf
       -0.043330627164008956 -0.01959981745612887
0001d0 22 db 87 64 8e 62 bc bf 89 b0 0b 4b 8b a9 81 3f
       -0.11087884859430777 0.008624160983764522
