networks/test_2D/test_fe3_v1.pth (torch, 586296 bytes, 49 tensors)

net.net.hidden_layers.0.weight f8 [40, 6]
00000000: 37e6 81b4 671c b73f bf01 50cb f9d6 c8bf
00000010: db02 9289 4a2a b1bf 2982 f90f f5f5 d63f
00000020: c3e4 5fb8 7f72 d9bf c38d ea05 745d cabf
00000030: 6363 87d8 aa34 da3f d289 6b3e ddcb d03f
00000040: b99f 92f5 28c2 d2bf ff46 d340 6e53 cd3f
00000050: d0c8 62de dd00 cdbf 900c 7bd0 175f c3bf
00000060: 60d3 cb49 3ac8 dcbf 0347 05a4 bb9b babf
00000070: 62b4 259e c0fb d83f 195a 565f 1799 d0bf
00000080: 9584 648f f66e e03f a8dd ba7f 37d8 abbf
00000090: bf68 21f4 7837 d0bf 4406 7307 d382 b43f
000000a0: 3f80 f695 ec58 d13f 9620 9305 1b08 b03f
000000b0: c3e5 a569 6b80 c43f 311a a172 d701 c9bf
000000c0: 2644 3edb e88e d1bf 37a7 3016 60a4 dc3f
000000d0: 02cb ebbb 983f ca3f d7b8 6a75 2491 90bf
000000e0: acda 3f7a a2a8 c53f 619a 214d ee6a dabf
000000f0: f91c dc86 57e4 dbbf 5390 9b4b 0e48 db3f
00000100: f3de be73 028b d03f 59b5 c5a9 4e0c b4bf
00000110: 97c9 32b6 ab6f b2bf 55fa f8da 1e9e 763f
00000120: 1365 8d10 1cfe d3bf 0998 0110 b553 bcbf
00000130: f7a9 7d8d 53c9 cfbf a38c 2a07 4081 d8bf
00000140: 51d0 3052 4498 b03f 180a b706 72fe d03f
00000150: 49c4 335e 20fe cfbf 5b43 fda3 5014 d83f
00000160: ea1c 579e 15ac dc3f 7d35 fb55 fb6f e2bf
00000170: fb05 95e4 1a8e e0bf 3df0 2961 8ea6 973f
00000180: 3f25 5f56 0de5 d7bf 464b 7269 9232 d23f
00000190: d851 8d46 a183 da3f 29c0 b367 26ee c63f
000001a0: d674 3fce 1340 d8bf 3d27 2439 4aa0 d8bf
000001b0: b04a 8305 b846 e2bf a45d e5df 7365 d2bf
000001c0: 41a8 b7fc d629 d53f 2c3b ae93 bfbf d43f
000001d0: 9895 ced0 3188 823f 4366 7255 f5d8 57bf
000001e0: 3088 6a87 8ae3 cd3f e149 d791 b096 a43f
000001f0: 54b3 e380 9ebb dbbf 0d31 1021 84c3 c43f
00000200: de21 3cd0 740b 9a3f 5c18 9862 829a d43f
00000210: f02f a49c 2e16 b03f 4b18 7b60 680c e8bf
00000220: 2ddb 7570 02ef bebf 7703 fbb4 be2d b0bf
00000230: 754c a18d 0733 cb3f 1d3d 34dc 47cd adbf
00000240: a151 23ba 394b d0bf a5dc 96a0 78ab c8bf
00000250: 33ab 4383 b564 d23f 9443 58f9 b473 d73f
00000260: 31d8 c000 9116 d73f 2146 a779 01f3 c4bf
00000270: b30f b893 5896 de3f fcf1 885a 2725 86bf
00000280: 3e80 eac3 5eab bdbf aa82 6259 af72 c2bf
00000290: b21b ad53 e2c0 c53f 8ee4 431c c7e8 b1bf
000002a0: f245 8db3 31ee cfbf a4cd ebf7 cfbe d3bf
000002b0: 020b bd81 47b5 c1bf 8731 7ff3 8f8b ce3f
000002c0: a2bf 13af d0fa c1bf a201 54e0 1174 c6bf
000002d0: 3843 b4f8 2678 d0bf e70e f171 b6a6 d6bf
000002e0: aebf 2cfe 1feb d13f bfd2 8091 1d61 e33f
000002f0: 0b72 baa4 68d3 a7bf 5339 c7f2 227a da3f
00000300: 09bf 32f0 625c c6bf 6c98 f63c 8763 e43f
00000310: 5104 5bf2 a09e c13f f928 c63b c368 e4bf
00000320: ed74 571e a251 c1bf 6254 4f7b b50a c3bf
00000330: fe85 398b bda7 c5bf 59ae 6419 0213 db3f
00000340: d68f 0150 03a2 bf3f 3842 be26 cba8 ccbf
00000350: 3539 91e1 0c08 923f 27ac 2c50 5f06 cebf
00000360: 8e20 acd0 adf8 da3f 9cc3 c2fa cfbc df3f
00000370: 6b6e 45a7 bf64 d3bf 5232 6130 f650 d3bf
00000380: 973b f008 06db a4bf 7ea2 7da4 60d8 bc3f
00000390: 2a64 e7c4 649f e4bf 7511 239a dbc9 b43f
000003a0: 7f16 efef ad66 d83f 4be6 556a 3a80 cf3f
000003b0: c158 9121 4711 c03f 9282 fa16 8fc8 ce3f
000003c0: 5e9c 5620 78bf a93f a566 2d09 2dac b53f
000003d0: e471 f00e befb c2bf 5079 cac2 9a6c d2bf
000003e0: 5018 0cba 9da8 d33f d5a1 6ab3 8798 dabf
000003f0: c4f7 cbaa 62ad c53f 226b 1b9e 17eb cabf
00000400: 6eb7 5049 7b65 c7bf eed8 2573 033f d7bf
00000410: d366 8ee9 b618 cc3f 0864 9452 ab9e d03f
00000420: d05d 732d 0aa9 d83f 9eb8 a0b5 afd3 b2bf
00000430: b866 a483 935b e1bf 0416 c603 6ac7 c3bf
00000440: fde3 8304 26ac b5bf f50d 843b 277d d23f
00000450: d0c9 44a9 973b b1bf 6e73 0fc1 e316 d93f
00000460: 2d47 1ef0 a6ff d43f 68dc 817f 2b6d e3bf
00000470: 98e9 f86b 1343 da3f ea43 84ac 9d02 a53f
00000480: 7ce6 266d 457c b4bf 7621 5b54 a7ec cb3f
00000490: 6c5a a2d4 b909 d33f d9fb 1013 9c7f d43f
000004a0: db1b c76e c2ab d4bf 4337 807a f83f c13f
000004b0: 9c14 28b4 78ae d4bf f902 c042 953d e03f
000004c0: 5333 c6bf 917f 543f 6535 17f9 22fb d7bf
000004d0: 7691 5db1 1a08 d7bf aee2 dda4 ba46 d43f
000004e0: 7c7c 5b97 331e ce3f 5bff 4dde f956 e5bf
000004f0: dd7a a492 a519 d13f d6c8 f94b 3baf ae3f
00000500: 16ee 932f 84e8 a93f 0f17 784b 3793 dbbf
00000510: 8e67 8286 fa71 babf 7b63 54cd 3173 dabf
00000520: 462d 8305 1ad5 c1bf 0e8b a204 034c dc3f
00000530: 8fa5 319d 8cb4 dcbf 175e 6203 3292 d23f
00000540: e47b 6167 6422 a53f fe51 97b9 5b95 e03f
00000550: 40d4 ae43 0e7c c6bf 7d8e 4e25 8241 80bf
00000560: a9b9 7189 b120 bd3f 3069 479b f021 d23f
00000570: f9f1 5224 550b dbbf fd20 c351 40ac c33f
00000580: 6be8 1ed6 393f ddbf bb9d 7646 9af4 e0bf
00000590: 8212 3bc4 04d5 d33f fdbd d8c3 1c47 c63f
000005a0: 9dc9 be8f 9b77 ca3f 4315 ed46 fa59 d23f
000005b0: 6dff 5cb3 a175 c53f 8581 5f6e 6b64 d43f
000005c0: 03a7 7dd2 ab4c c1bf 329b 7496 2933 b0bf
000005d0: 313b 9a60 58ca dc3f b690 5337 55ba b33f
000005e0: 2f20 97b0 26e9 e3bf e398 8987 33ab d6bf
000005f0: f4ae 7ef5 d29a d53f 56bb 43f8 255b d4bf
00000600: 0653 be70 6a00 d3bf dfd4 a1a4 fdec c43f
00000610: 1ce5 78ef fc98 e43f 9d58 64b8 9a34 e1bf
00000620: 5a31 bcb3 b333 c13f 92ff 18f7 784d d23f
00000630: cd78 cf98 8ebb b8bf 9d25 1feb 787b d4bf
00000640: 0378 f5ad a238 b43f aee2 7bb1 d7f5 c1bf
00000650: 2713 6742 ebba b03f 89fe e630 2e93 dd3f
00000660: 2831 42a9 1007 9a3f a9ad d33f e653 c13f
00000670: b7d1 fa67 8caa c6bf e010 6bd6 8c78 cf3f
00000680: 11e1 b512 f74c d03f ab2a 3481 0eff d0bf
00000690: cde8 14a4 d0e1 e63f 2684 b9d7 837a c2bf
000006a0: 8378 27d3 68fb c53f 8444 60d4 82e3 9ebf
000006b0: 33d6 29e3 128d aebf 6372 2b8c 7528 d63f
000006c0: 6869 342a 8b55 d6bf f1ee 7ad0 5f21 d83f
000006d0: d9b6 b5b3 dddb e23f d743 1f57 9785 b7bf
000006e0: e2a9 998c 0ed5 db3f 7064 2baa 75b3 cfbf
000006f0: e003 16c9 f001 d7bf 3577 a9ca 18f2 c5bf
00000700: 0821 39d6 118b d73f ff4d 1cd0 f822 db3f
00000710: c9ad 9276 726a ca3f d7bb c901 0dca d33f
00000720: 8c4f 021c bfc8 e73f 542b 035e d6d0 993f
00000730: 8e0c 6843 02d4 e1bf 03e8 b5c6 1f85 e43f
00000740: fd8f 87b8 9b7a d73f 2be9 ce8e 0529 d0bf
00000750: d025 3f7a bdfc b9bf 139c 42ee c12d cdbf
00000760: aaf6 5688 e535 cb3f 4e14 55e2 92e7 953f
00000770: c10b 8aaf 38d8 d1bf 00d6 e48c 0cb6 bb3f
0.09027717739982043 -0.19406053950662103 -0.06705156191493293 0.3587620407106749 -0.3976134586842585 -0.20597696579817013 0.4094645609416629 0.26244288535795335
-0.29310058576310954 0.2291086021928592 -0.22658894880948433 -0.1513395088169074 -0.44972092825564935 -0.10393879656228582 0.3903657478720729 -0.25934395132336047
0.5135453034055383 -0.05438397821620394 -0.2533857711874922 0.08012122089260126 0.27105250019849686 0.06262368093587364 0.1601690545901829 -0.19536870095380857
-0.27434750948401854 0.44753267447468964 0.2050658147414524 -0.01617867437988071 0.16920882195673437 -0.4127765420184116 -0.4358118836393739 0.4262729395252382
0.25848447135238856 -0.07831279415923599 -0.07201646040156216 0.005521889237171414 -0.3123846208232674 -0.11065227165963178 -0.24833149346098057 -0.3828888006193642
0.06482340818985334 0.2655301156593466 -0.24994282340733978 0.3762399293382736 0.44800320113104297 -0.5761696509668323 -0.517346807908495 0.02309629886666208
-0.373355230662657 0.28433666512971845 0.41428405656668366 0.17914276183683 -0.3789109720363063 -0.3847833211917651 -0.5711326701806083 -0.2874421774372087
0.3306786983436077 0.32420339033062606 0.009048833069594406 -0.001455535491720631 0.23350650417438734 0.040212171366551315 -0.4333263643919072 0.16221667875687054
0.025434327325486332 0.32193050030071446 0.06283847164394252 -0.7515146145240207 -0.12083449597944869 -0.06319801252813116 0.21249479690104392 -0.058206792478922
-0.25459139993224694 -0.19273288575434325 0.2873967916372521 0.36643719053341184 0.3607523448330339 -0.16366594734294984 0.4779263918464906 -0.010813052606970956
-0.11589615138154927 -0.14412490715496534 0.16994885526420728 -0.06995815696781646 -0.2494566084592829 -0.3085212632278973 -0.13834470591435638 0.23863410367483714
-0.14046677159012427 -0.17541717008135743 -0.2573335102797958 -0.3539253342353121 0.2799758894134311 0.6056049196109469 -0.04653479586452044 0.4137046213990249
-0.1746944115488918 0.637149447506784 0.13765346368566836 -0.6377884070837175 -0.13530374986195373 -0.14876431008329677 -0.1691815309341535 0.4230351684552481
0.12356587126993132 -0.22390117065198623 0.017608834521803025 -0.23456946768541906 0.4214281595054751 0.49589919556006534 -0.30302420935706803 -0.3018165085275416
-0.04073351725684587 0.11267665878188812 -0.6444572301653626 0.08120510590658177 0.3812670558075765 0.24610071365514083 0.12552727831888968 0.2404955732536292
0.05028891939883161 0.08465844606453261 -0.14830756883101437 -0.2878786947493568 0.30716651123691907 -0.4155596973528451 0.16935380305943515 -0.210299446297392
-0.18278447227333622 -0.36322103733927136 0.2195042267238053 0.2596844011728199 0.3853173679212576 -0.07354257759354474 -0.5424287387024469 -0.15452313598886758
-0.08465802774652782 0.2888887482842784 -0.06731555826698998 0.392022074256423 0.3281037659554496 -0.6070764055610995 0.4103439859788067 0.04103558283726001
-0.0800212279781593 0.2181595956701689 0.29746862187440715 0.3202886758990054 -0.32298336809293254 0.13476472836958395 -0.32314889520086765 0.5075174621307205
0.0012511180239897681 -0.3747031624341928 -0.3598696453175515 0.31681696033732976 0.23529667749878402 -0.6668671934021221 0.26719035454327217 0.05993066122472761
0.05060208397659609 -0.4308603512766788 -0.10330167564316481 -0.4132809167072577 -0.13931584614906906 0.44213939144735626 -0.4485198531243321 0.2901730568932818
0.041278016681409985 0.518232214434249 -0.17566088013487224 -0.00793744732238299 0.11378011327335592 0.28332152523002474 -0.4225666861273392 0.15369419090553285
-0.456984004118232 -0.5298587204205697 0.3098766247096948 0.1740451771051851 0.20677513617336 0.28674179960610874 0.16765233285877504 0.31862912920589564
-0.13515231874344388 -0.06328067706327259 0.449850172365518 0.07706196404211849 -0.6222108315496423 -0.3541992972954075 0.33757471059901367 -0.31806325192058205
-0.29690037736990893 0.1634823850505773 0.6436752965156844 -0.537671432629185 0.1343903186428957 0.2859785473883615 -0.09661189299319801 -0.3200361534223591
0.07898918864290753 -0.14031501928527262 0.0653521573177157 0.46210818076722454 0.025417576151583493 0.13537290684267347 -0.17707972600113717 0.24586639852180436
0.254697578689517 -0.2655674230342508 0.7150653080673465 -0.14436386140280993 0.17173490820181678 -0.030164760792164916 -0.05967005751601242 0.34621943176697395
-0.34897116776996606 0.37703700408358914 0.5893391141850898 -0.09188218953137493 0.4348789570855428 -0.24766417321260148 -0.3594934428911625 -0.17145070930103548
0.3678631393454599 0.4240095169381845 0.20637350835509796 0.309207202669254 0.7432551905680937 0.025210713851986213 -0.5571299854785978 0.6412505036416863
0.3668584157987878 -0.25250376649968825 -0.10151275858438358 -0.22795890935705695 0.21258229405605295 0.02139119631216984 -0.27882210867408835 0.10824659766952749

net.net.hidden_layers.0.bias f8 [40]
00000000: 8bce 3222 0dda b63f 2030 2534 7f87 d0bf
00000010: 2ac0 9bc0 9aac cb3f 3543 657d 2568 95bf
00000020: 0601 d50e 399a cc3f f1e0 00cd 670d cabf
00000030: 2b49 49d1 83b7 d63f 8129 f017 d96e b03f
00000040: 7d39 9dee e2e5 a2bf 1144 8141 9c77 c83f
00000050: 07bc 3265 1008 cdbf a776 e3dd 54a3 d63f
00000060: 094e 330b 01ae c4bf 824c c756 3641 ccbf
00000070: 5fec 9200 ad06 d63f 853f 6013 2d35 cdbf
00000080: b773 119f ad15 c63f e8ca e1f4 d84d a0bf
00000090: a09a a7c5 b91f d0bf 9294 37e1 a84c ccbf
000000a0: c98d b431 d27c cd3f bc85 610b 5220 d03f
000000b0: 7b67 5f6d ef27 c03f b5f2 2346 2b60 acbf
000000c0: e2ad 5b1f afa2 d4bf b132 a48c 507f bcbf
000000d0: 6186 9546 b512 c63f bd3e 8e68 fe14 c63f
000000e0: ff92 316d b829 d1bf 7020 2c56 675a d33f
000000f0: 9aca 9408 8a5e dabf 8ea3 0392 1650 c33f
00000100: bc1c 3b36 6c72 cebf ab4c 6a37 dd72 c43f
00000110: e4b6 e47a f83b cd3f 2e1f 0b1f ee1a d7bf
00000120: adcd 98cd de7f c3bf 5df2 b7ff f541 d2bf
00000130: cda3 5694 5474 cabf a754 c30b 5ba5 b33f
0.08926469883845749 -0.2582700738173589 0.21620497135836675 -0.02090509965757122 0.22345650886746443 -0.20353410253461093 0.35495086134064263 0.06419140657832224
-0.03691014445085992 0.19115021894916187 -0.22680859509770832 0.35371896427919086 -0.16156018301863664 -0.22074012028915396 0.3441574578861885 -0.22818530508129356
0.172536566419607 -0.031843929188559106 -0.2519363813611708 -0.22108946797303425 0.23037173678413428 0.2519726859228191 0.12621872749769722 -0.05542121154028249
-0.3224294477683697 -0.11131766732814687 0.17244592615593304 0.17251567940956206 -0.2681714121193152 0.3023928014304209 -0.4120202144432966 0.15088159684753716
-0.23786690376275554 0.15975537496396916 0.22839265823988975 -0.36101868659578684 -0.15233979262266698 -0.2852759358645807 -0.20667512171828975 0.07674187695677635

net.net.hidden_layers.1.weight f8 [60, 40]
00000000: 67fa 7334 feba b33f 0de7 8a74 67fb c8bf
00000010: b56c 1051 a4fa dc3f d20b 7424 5d4e bf3f
00000020: 6541 be13 914a d43f 4aa1 dcf7 64f6 ea3f
00000030: cf47 3737 0386 abbf 1775 1e1f 2c60 f33f
00000040: 5e54 940f 75e1 e73f 894f 0979 f5d9 d83f
00000050: 9dd9 c38d c3a1 d5bf 67bb 6797 f1ab a1bf
00000060: 0737 cbfa e9a5 d93f cfb1 8bb3 b08e dbbf
00000070: 412b e68d c27c cb3f 2c9c 188d 8b7a c23f
00000080: e8f1 82b2 7bfd d93f 72e6 4f25 aabe c83f
00000090: dc24 cff1 24b0 e0bf de4a 9d4e a8ed ef3f
000000a0: 2869 421d 30cd d3bf 7f01 d331 eee9 acbf
000000b0: 8cc4 cf3e f47c eebf 61ea d82d e356 b23f
000000c0: c5ae 955f cc8b bb3f fd7c fe2c 508d bf3f
000000d0: 7d75 2e15 881e cb3f c9c9 0a2e ce8c 913f
000000e0: b13b 8474 67a0 dabf c76b 0459 9697 ad3f
000000f0: bb8e c171 8dd2 b7bf 6df7 c3bd e432 e2bf
00000100: 3c04 03ba 3618 e93f 133f df6f aa72 a43f
00000110: 83ff 74ae 4505 a2bf 970b 6d64 15da e3bf
00000120: a4e7 d91b 3bc3 d73f 719e 8283 8b9f dd3f
00000130: 19dd d9b3 7f2c f6bf 21b2 7028 e2ce cc3f
00000140: 2d8f 11c4 cf90 b43f b61f 50fa 7fc5 c23f
00000150: fec5 6767 9d58 c0bf b8a0 d93d 5de6 c8bf
00000160: 9e7d 0ed0 0527 a0bf 5b6f 6a3b 8f9e c23f
00000170: 6e7a 2c25 f3d0 b83f e250 6f27 54f3 50bf
00000180: 8381 6483 5696 c53f 044f d3d4 1070 b33f
00000190: cd08 ad24 0019 973f 919d 0590 b96c cbbf
000001a0: 8733 c24e 3c80 b23f f54a 886f 063e 93bf
000001b0: 9a35 1c70 5f9e c13f d10b 4195 b2ed b43f
000001c0: cd99 e70b 113b b43f 7c4c 020b ec58 b63f
000001d0: 37d0 82be a605 c43f dcf4 c232 4b48 c23f
000001e0: 3dd6 4b4d c3b5 a7bf 2d80 c161 ffe1 c7bf
000001f0: 03be 6f39 3ef0 c3bf ffb1 41ac 9564 afbf
00000200: 30de a312 c1e9 bbbf 4491 04e0 e83f ba3f
00000210: 83fe fa11 d15e 9b3f 79b3 fea4 6ead 853f
00000220: a68c 1f68 fce6 c23f 3eff d43e ee2f de3f
00000230: 400d 6fc9 5a8e 853f 8758 bdb1 2334 84bf
00000240: 8f2a 51a8 ecf9 cfbf f167 915b 9435 ac3f
00000250: ae4c 6d40 9138 a9bf 4c72 f991 d995 cdbf
00000260: 8dc5 0f31 7652 bfbf f3e5 f927 f8ab b0bf
00000270: 688c 2cb4 2e0d c43f 09c8 e978 17d5 c7bf
00000280: c34a 4874 10a2 ad3f 57dc 9158 2999 b9bf
00000290: c99e 2809 d932 863f b1f4 4b1f 3a7a b33f
000002a0: 81e8 6794 8f06 b6bf 3ac7 9147 2495 c5bf
000002b0: 4215 f9bd e472 b1bf 86c9 b692 c49a 933f
000002c0: 66cc e439 7da1 8fbf 6a1f 416b 53fd ba3f
000002d0: 89eb 362c f003 b5bf 853a 96f0 0d8e df3f
000002e0: 26b6 9c05 4529 c8bf 8415 6fc4 addf c13f
000002f0: 3cd1 1e0c a0fe a7bf 10d8 d345 61b0 ae3f
00000300: 7e3a fe5d b1d9 d9bf 8264 5bde 82fd aebf
00000310: dc2f 7934 9193 babf 8050 fe68 3015 b6bf
00000320: 89e4 9a03 043e b23f 2359 c152 3f6a bcbf
00000330: 803a 20ed 2aac c23f 7b1a 690e eca6 cebf
00000340: 3839 b7c8 d2bc a13f 60c7 1871 c612 aa3f
00000350: 7d7c 0cea b318 943f 515c fed0 fa67 a9bf
00000360: 2d04 9e3d 8bb7 c0bf c763 5fc2 51fe b23f
00000370: 738e 57f8 d696 a0bf bf3e c585 bcc1 cd3f
00000380: 3065 9251 2e9c d1bf f8fe 9731 58cf babf
00000390: c2ae 7321 741b c4bf 5cba 16f6 4a8f c03f
000003a0: 21fa cb8e 0299 bbbf f85a 0524 e2ed bebf
000003b0: 8cd0 4086 38a0 ae3f dbf7 1a43 2d58 bdbf
000003c0: 7f35 f050 8a39 cdbf 5d78 011a 6a7f a13f
000003d0: c6b3 20a8 eb47 b83f 4aae 24c8 14e3 c8bf
000003e0: b62a 20dc 892b bd3f 3e82 0a33 f05a c03f
000003f0: e78a 7c8c bff0 cf3f 8da8 a7a1 565a c6bf
00000400: 3468 2d63 27f5 613f 1400 1f6c 55a1 c3bf
00000410: 4624 017a bc31 c63f 8950 724f d16b c9bf
00000420: 12ee 1ea2 56f5 b03f 250d e6a8 fc1b c5bf
00000430: d756 19a4 864f b03f eda4 1252 2dd7 c73f
00000440: 1ee4 3708 0a8e bf3f ede5 31c1 a2ac 99bf
00000450: 882b 9647 6b08 b73f 3212 e983 d7f8 c73f
00000460: 4bcc f137 f496 a5bf e48f 310a 9ccf b03f
00000470: 413b a769 68e9 d23f ff55 69fb 50ea b9bf
00000480: e1f9 3e2e d6b1 993f 9e3e 4031 14ff c03f
00000490: ef1c 52e1 6165 dfbf c711 5953 c159 c5bf
000004a0: 0fda c82f 4a0d c73f b1e6 385d 3610 e13f
000004b0: 328f 6e0e 09d7 af3f a7b1 4129 7539 bbbf
000004c0: 46d3 7546 b6b2 c6bf 920c 0e32 af5c af3f
000004d0: 505d 75be d0c5 b73f bfc3 96be 025e b7bf
000004e0: da04 e469 5d7f b83f 8205 a57d edf3 883f
000004f0: d17d c3dc 21c3 cb3f 00ac 3ab4 43c0 a8bf
00000500: 0125 a906 26e1 b2bf 85eb f495 78b6 af3f
00000510: 95ba 43df 6a35 8b3f 6ea5 cbe0 24ee c6bf
00000520: cc50 8338 dbf8 923f c28c 856f 39f7 2c3f
00000530: cb39 cdac 2224 b63f 57df 5ab3 2361 a1bf
00000540: 5494 3240 81ec bbbf 9e6a dde9 eb35 b6bf
00000550: a595 65ec 4fdd a7bf 2c59 9805 4e91 9ebf
00000560: 0be0 62cf 9ca7 dfbf e9de 9456 c6e6 c23f
00000570: a9cf 371b 32aa b33f cf93 dc27 6c84 a23f
00000580: a698 f414 ddea c53f d9ac 0dfa b112 c23f
00000590: beaf 8249 f20f c83f 363b fe99 c8bf cebf
000005a0: fa31 5da2 e74d 96bf 61c0 e00f 4973 953f
000005b0: 6ee2 b2a2 8205 d03f 3dbc c0d4 22d4 b4bf
000005c0: 9476 1b1e 5cf4 bb3f 0945 ac0d 862e bd3f
000005d0: 2efc 956f cbe2 bbbf 99bf ab48 a1de c6bf
000005e0: ddfe abdc 5f4c b8bf 7a39 97ae d549 c23f
000005f0: 5066 344f 645c 85bf b8d5 7429 ad1d c83f
00000600: 8a22 f649 765e cdbf ed6d 358f 4f49 b7bf
00000610: db43 368a 9f67 943f 31c4 8908 aaf5 c33f
00000620: a7bd ebb3 4b3a c0bf 1efa 5130 ff15 ccbf
00000630: 5528 0951 e124 c43f 9eab 5e81 5414 a8bf
00000640: 7728 f315 3332 853f 628d 3a9c 799c bc3f
00000650: e633 d94c 2141 a3bf 0fda 0004 3809 b2bf
00000660: 4fd2 709f 36c3 be3f a3af 948e 60ba ca3f
00000670: 4966 a17a cf4e c73f 2d6b 9325 c27a c33f
00000680: b880 bf14 45a6 b03f 7bd7 385e 969c b4bf
00000690: 67cd fab4 60f2 a83f 6a57 c300 59ef e0bf
000006a0: 1925 6b05 d528 dbbf c148 c8e2 de61 8b3f
000006b0: 0f3e 4fab 4dc7 afbf 22c0 90d6 238a 903f
000006c0: 9864 b17d 235a d63f c902 f689 3c27 bc3f
000006d0: 9334 7c33 1d6f d13f 4b7e 3c0e 32d3 c63f
000006e0: 1cbd 4905 6e59 bebf ea32 8309 3b1c 67bf
000006f0: e779 4a4a e87e 97bf 134f bbcc cb6c da3f
00000700: ef83 b766 babb d03f 367f 2620 9bd2 c23f
00000710: 8ebb 6c59 76d7 d8bf ed41 e536 7b5d 99bf
00000720: c397 cad0 dcf4 8a3f 0435 5794 f0a3 d33f
00000730: 2a0f 7fd2 2cd0 bb3f c6c4 d978 43a4 b5bf
00000740: 851a 2762 50a4 cd3f 5844 6c77 f87c adbf
00000750: 7983 56e6 8462 c3bf fc6c 4c85 7029 cabf
00000760: 0236 bd81 287b bd3f fa56 5f32 2084 cebf
00000770: 314d 8953 20eb c2bf c02c 4c7b 6243 c8bf
00000780: 3d1d a139 348b 8ebf ec0a eb65 4580 c13f
00000790: 3d7e 5261 069f c73f 29e6 d753 f153 b23f
000007a0: ca56 03e4 50e2 adbf 8a9f 2dae 6840 bcbf
000007b0: bd9e 0491 1093 a53f b005 b033 6d4d c8bf
000007c0: c804 38cb 1fe2 903f e2ac f90e baa0 bebf
000007d0: c01e 0d7e c6aa c7bf 5233 6069 a553 b9bf
000007e0: 9326 77eb 9484 c23f 2899 a07b e9a7 b63f
000007f0: 63de 4c89 99ea bebf 07e2 1b3e c707 9f3f
0.07707203655807292 -0.1951722449355703 0.4527979652063537 0.12228948726628566 0.31705119064374393 0.842577442269467 -0.053756809702136026 1.2109795775971344
0.7462716392789266 0.3883031541820335 -0.33799828380815616 -0.03451495145042465 0.400751585880116 -0.4305841210723686 0.21474487236658926 0.14436478032550448
0.4060963862682727 0.19331862279777884 -0.5215019915423471 0.997760919135853 -0.3093986783730025 -0.05647224767881464 -0.9527531840123102 0.07163829678840151
0.10760190328226844 0.12325001810539855 0.21186924967052426 0.017138692436398793 -0.4160402906281276 0.05779714428555099 -0.09305652644394062 -0.5687125879628475
0.784205783180489 0.03993733039498983 -0.03519647364237157 -0.620371528763246 0.3712909481033597 0.4628628525046912 -1.3858639741354806 0.22506358122463246
0.08033464943724473 0.14665221903146425 -0.1277043108853348 -0.19453015823387942 -0.03154771961930723 0.14546385193977582 0.09693832070886696 -0.0010345765892810156
0.16865044990209918 0.07592873760159696 0.02255630706645988 -0.2142555192215068 0.07226921961610176 -0.01879129462947567 0.13764565443163407 0.08175197738550756
0.07902628460542545 0.08729434269689479 0.1564224653462831 0.14283122995940445 -0.046308615861488246 -0.18658439896808102 -0.15576913647190346 -0.06131427505247088
-0.10903555588799274 0.10253768414674364 0.02672888443225797 0.010584701929326578 0.14767413219587872 0.4716754544824545 0.010525426170608143 -0.00986507307213126
-0.2498145887241958 0.05509627931378692 -0.049259699930780484 -0.23113555553108467 -0.1223520154742543 -0.06512404418926802 0.15665229604300923 -0.186190542258885
0.05787707728827265 -0.09999330913875447 0.01083917197418262 0.07608378662185335 -0.08603761075201712 -0.16861394400216928 -0.06815938604366514 0.019145080046379735
-0.015444734887387134 0.10542794579043649 -0.08209134177643142 0.49304531569297466 -0.18875944875746703 0.1396386346006403 -0.04686451099351749 0.05993942239176431
-0.40391191653262826 -0.06052788700407864 -0.10381419688309229 -0.0862608200389463 0.07125878417982014 -0.11099620600120778 0.14587914064800955 -0.23946905807152405
0.03464373302596119 0.05092449312759473 0.019625483665660404 -0.04962142754737243 -0.13060131558089108 0.07419310565400315 -0.03240081578749434 0.2324748662162985
-0.2751575275993501 -0.1047263260916188 -0.15708781846421088 0.12937294975332037 -0.10780349718331951 -0.12081731204430557 0.05981613768418112 -0.11462672127069544
-0.22831849052492356 0.03417522017910877 0.09484742026025036 -0.1944299676191455 0.1139455950180189 0.12777521602858316 0.24953455314342607 -0.17463190930658748
0.0021920937810309352 -0.15336101321554507 0.17339282948731433 -0.19860283259606984 0.06624356706645809 -0.16491659399989902 0.06371346956560885 0.18625418193304402
0.12326109600680055 -0.025072615663224985 0.08997221467704553 0.18728155079783587 -0.04216731245914981 0.06566787003390534 0.2954960853357314 -0.10123163354850105
0.025092455456382615 0.13278438954192934 -0.4905628872297276 -0.16680161065791152 0.18009307225447954 0.5332290478465521 0.06218746472521132 -0.10634548432580591
-0.1773288578075613 0.06125400053044773 0.09286217355599047 -0.09127823975610648 0.09569343409750122 0.01218400516211449 0.2168924644420103 -0.048341861487038784
-0.0737479940663839 0.061939018540633696 0.013285479486936405 -0.17914257980673248 0.018527436565663177 0.000220990906892293 0.08648888319769481 -0.03394424023048142
-0.10907752816508892 -0.0867602773627518 -0.046610353095086134 -0.02985116871976705 -0.49460525753556855 0.14766768672574607 0.07681573071005111 0.0361665533694474
0.17122996829238452 0.14119553289069733 0.1879866465509376 -0.24022777098840614 -0.02178155830852011 0.02094759139453151 0.2503363217215683 -0.08136193937456056
0.10919738516846628 0.11399114450275162 -0.10892936205162648 -0.17866912887938893 -0.09491538178917432 0.1428782560819391 -0.0104301296874382 0.1884056522773514
-0.22944525348090777 -0.09096238371187555 0.01992654114798485 0.1559345761957345 -0.1267790440101468 -0.21942129001031757 0.15737549263787068 -0.047030106346333186
0.01034965430007538 0.11176261963060122 -0.03760627806750687 -0.0704531678937672 0.12016621964068828 0.20881278001740808 0.18209260452094814 0.15218378863104345
0.06503707653564816 -0.08051433372824406 0.04872419556832135 -0.5292172446158763 -0.4243671944537524 0.01337026719651069 -0.062067439233597914 0.016151962252649928
0.34925162577344215 0.1099737011736678 0.27240686443185175 0.1783201760781473 -0.11855208996870598 -0.002821078593206007 -0.022945050749166553 0.4128903865177886
0.2614580157369905 0.14705218381731705 -0.38815077526936015 -0.024770665383870783 0.013162350770766445 0.30688108908073297 0.10864524973936499 -0.08453771305518662
0.23157696526159924 -0.05759407480048456 -0.15144406554193404 -0.20438963421552347 0.11516049544771792 -0.238407158466252 -0.1478004844562775 -0.18955641765965048
-0.014913948067386879 0.13672702290030914 0.18454055549681128 0.07159336373288085 -0.0583672788940653 -0.1103578019370827 0.04213763971557458 -0.18986287139709423
0.016487595346920597 -0.11963999620063562 -0.1848991504177686 -0.09893258879328684 0.14467107293448986 0.08849963443990261 -0.12076720811898549 0.03030310932715177

net.net.hidden_layers.1.bias f8 [60]
00000000: 3c66 1802 ab74 c23f 44dc d330 de64 b4bf
00000010: d94e 9794 2644 b83f 21a2 f21c f072 763f
00000020: 90c1 c430 ec90 ab3f 99c4 9006 03a3 b4bf
00000030: 53a6 b2b8 8cee bebf cf7c 3f4a 7b15 ca3f
00000040: 1577 68c7 278b a73f a646 cc60 709a ba3f
00000050: b167 82ae c476 c7bf 6cf1 289a 735a ba3f
00000060: 8eaa 7cc3 e622 b53f 384c 202b c37e cabf
00000070: 44d8 6151 689d b8bf f3b2 d6a8 8744 b8bf
00000080: 42b9 28a4 ef9b a5bf be3d 36da 6661 bc3f
00000090: eacd 47a5 abab a1bf 1b70 2a74 cf1f a13f
000000a0: fd04 51b0 f3be a93f 5bd4 c24a 9bd1 b23f
000000b0: e39c 615a edfa b6bf 17f9 b415 b50a c5bf
000000c0: 0d3f 2ba1 afd6 cb3f 8589 5ab7 1544 bebf
000000d0: 7df0 501f 4afd c33f 3a64 f090 df1c 963f
000000e0: 356f 9fed 8429 af3f 1f94 ce91 2a3b c4bf
000000f0: 7b11 76f8 a247 b9bf 8ac9 7135 98ff c1bf
00000100: b8d5 47f4 be23 bd3f fa64 ac03 5f4a d1bf
00000110: a580 6509 61bb b3bf a456 819b eca4 b4bf
00000120: 7401 78d0 9867 babf de4f 4034 4ed8 abbf
00000130: 4164 1c1d 9d43 a1bf bb9a 76a1 1f30 aabf
00000140: 119f d87c 38ac d3bf de5e c25f cbde c0bf
00000150: 53b9 188f ba20 c13f 2724 7cf0 c6c7 c23f
00000160: c0dc 3b3e 8b92 883f dfe8 9a49 22be abbf
00000170: fa54 07ed f5ff b6bf 9ca6 9952 418c bebf
00000180: 3700 604f 0e8b b43f b0fa d4b5 bffe bbbf
00000190: 511e 9c18 aabe 9ebf 315b 4d93 6e4a c93f
000001a0: 63f9 9623 5a46 a13f 61f9 ccc0 cbd7 9f3f
000001b0: 4669 55c3 55c0 b3bf c42a 89fd 4bf9 bb3f
000001c0: 68f6 97ea 5d18 c1bf a69c 4701 1a07 bf3f
000001d0: 094a 77bc 8451 a73f 6b39 aa3e d084 b73f
0.14418542482671792 -0.07966412250594695 0.09478989722930055 0.005480707112987677 0.05384004683799326 -0.08061236295977138 -0.12082747945046295 0.20378056645765816
0.04598354634457117 0.10391905177336955 -0.18331202050177134 0.10294268144293078 0.08256380341178213 -0.20699348073739698 -0.09615184771414059 -0.09479568359411043
-0.04220532301802617 0.11086123301924197 -0.034512866903152986 0.03344581883467886 0.05028497245121775 0.07351084304066673 -0.08976634460997306 -0.1643892627707337
0.2174891983945532 -0.11822639204414116 0.1561672833357796 0.0215945179189456 0.06086364174527007 -0.15805561179618707 -0.09874933782527322 -0.14061262712091277
0.11382668937570528 -0.2701642547486497 -0.07707792739302251 -0.08064154430879938 -0.10314326371736177 -0.05438465488273868 -0.033718976787163964 -0.05114840360629588
-0.30738651458749283 -0.13179914642090912 0.13381130206239308 0.14672171347072657 0.011998260342336642 -0.05418498180866193 -0.08984314953643838 -0.11932762400251778
0.08024682462564746 -0.1093559092450771 -0.030024202110352786 0.19758398239601996 0.03373986896939376 0.031096633570308344 -0.07715354937446248 0.1092727178558262
-0.13355611758008767 0.12120211154216295 0.04554381180391338 0.09187032251268128

net.net.hidden_layers.2.weight f8 [60, 60]
00000000: 25f1 64e1 d24c cb3f 0247 280f 8657 b9bf
00000010: a265 72b4 6d06 a8bf 1052 f5a0 53d6 c6bf
00000020: 2d49 70ee 9ffb b63f d646 af49 63ca ca3f
00000030: d8fc 3ccb 25f1 b0bf 9658 129c db54 b23f
00000040: 87a7 e5be 7e1c 863f a53e 1ff7 9726 b2bf
00000050: 29a6 9a5c bec2 b63f 4dc6 7831 39e0 c03f
00000060: 9865 3420 f2ec c73f f19d b1ad 40ce c6bf
00000070: c85f 2b43 059e a53f 8b5a 1d2d 4c81 873f
00000080: 1c14 04ee a610 76bf 5955 5a80 1fe3 d2bf
00000090: 402f 5b71 b436 b8bf 93b3 fb4a 90e9 a03f
000000a0: dead bd4e 16b9 c2bf 7e12 d593 5aef babf
000000b0: 6ea2 bf86 e733 acbf 5347 98d6 2b32 ae3f
000000c0: 67fe 251a a771 ddbf ac23 67c1 13f0 643f
000000d0: cc1c a4fb 57a0 babf fa4c 3424 bad9 b1bf
000000e0: 08a6 f54b 010e c1bf 0a41 bafc 3363 9cbf
000000f0: 1896 d1c9 f19a b73f 7bbc e0ec 49ad bb3f
00000100: fccb 8381 b032 c3bf 3100 9b57 29f6 77bf
00000110: 5f9e 8f6b 379d 903f 5e73 4828 f5bb b9bf
00000120: 8c0c 7c93 48d1 d03f 612a de38 5b0f 983f
00000130: 5993 1dc5 3414 b4bf 8f90 c36c 8d0f bdbf
00000140: 0472 8479 1f0d d13f 281a 8723 0dfc b3bf
00000150: 932d 3eb1 d13b 943f 5ad6 58cf 7f49 bbbf
00000160: bd0a 3c85 cb35 b03f 7881 e9db 3669 d2bf
00000170: b4c8 fa7f 9dd9 c83f 1ffd b438 a178 953f
00000180: 401b 7f83 f059 bfbf f8d2 ca6a 34af c33f
00000190: aa18 18ed d7f4 b43f 74b7 30ec 3ba6 c8bf
000001a0: a1b2 2ed7 f7c5 98bf f0ab 941b 247a c43f
000001b0: 5b6e d0d8 0617 9a3f 9e67 eb89 cb9d b9bf
000001c0: aa45 aea3 6130 9abf 1d4e 1f34 46cf bfbf
000001d0: 9d4c c2eb 5a29 c83f 3201 b94f f178 a8bf
000001e0: d3c4 8d9e eac5 c43f f0dc 3830 7e82 bdbf
000001f0: cd23 2c3b 2448 b23f 271f 4236 b271 abbf
00000200: 2fb0 56e2 da19 d1bf 0b36 6b78 fae2 cbbf
00000210: 57a0 c22a fc44 aebf 6d8a 4b73 7b64 ca3f
00000220: d9fb cda6 e9ac c3bf 02ce e22c 7ab9 b1bf
00000230: a548 b4ec 1375 c2bf 994f 589e 82ce aa3f
00000240: fa8f bc83 82bf d7bf b86a 2a3e c0e3 d0bf
00000250: 9cc6 6491 4b9d d43f 1185 9002 5818 91bf
00000260: 8df9 c6f5 2cf0 e0bf 0445 2be0 b4b8 a73f
00000270: 4955 881f 9b2d 81bf 3fb6 6321 e224 c9bf
00000280: d905 3f5a 1861 cd3f 6097 285e 457d e73f
00000290: b596 e518 d669 92bf 5d43 0d37 ed5b 9c3f
000002a0: eb63 c5f7 d6b8 e13f 53b9 554b 2f7f c0bf
000002b0: b960 c404 4d7e d3bf 51a2 b119 e73c be3f
000002c0: 0112 8a50 29b6 ca3f 3dec 5802 0b89 cc3f
000002d0: f679 3074 d508 9fbf b716 cbdd 259c cb3f
000002e0: 9c27 7603 d432 d4bf 28db e4fc e0a5 bb3f
000002f0: 9bfa 62ab 9b2c b03f ddb8 2c14 54af d43f
00000300: e1d4 0b65 9554 a2bf 7933 755c 8c43 bfbf
00000310: a5a7 9539 8174 bebf 7918 c6f1 79ed d43f
00000320: fd7b 1e2f c43d e3bf 7af7 7546 432b 79bf
00000330: 0bab ce3d df72 b73f b697 ae64 3476 cc3f
00000340: 7879 4788 74c5 b5bf 352c 05d8 37d4 ec3f
00000350: db49 3782 1718 c93f 90ac 7432 fd2d d93f
00000360: a1bd a806 839f c63f 0403 395f 5b39 c2bf
00000370: 9dce e3f1 4eb4 cfbf ce34 43cb a2bf c03f
00000380: 01c7 eba8 8143 d13f 5e2c ce9a 01a0 d3bf
00000390: 974b 2336 728b c73f 4031 dbb1 6652 d33f
000003a0: bdaa 357c bad6 c6bf 2309 04c4 666c dcbf
000003b0: cdc2 0b50 0228 c5bf 7dbd caa3 9bd5 ad3f
000003c0: 3342 2219 51c2 c63f f06d 55a7 a2bf ccbf
000003d0: 31a1 0483 a324 c6bf 3767 6828 d680 b8bf
000003e0: cadd 2276 f021 b9bf 390a 7967 013d c0bf
000003f0: 6ea3 17a4 228b 6b3f 489e 6d51 f75f ae3f
00000400: 71df d1cf 2ad8 a9bf 9fb2 e8c6 8af0 9c3f
00000410: 1bc6 5f35 954f a83f b476 673d bc56 903f
00000420: 1eb4 1cb0 582b b7bf 3d94 d5c2 b411 c33f
00000430: 1a4f b2ca af69 76bf 5906 36e6 e059 c83f
00000440: 7544 5638 6678 a83f 284b b950 5d0d c23f
00000450: a045 efb0 3527 a4bf b6c8 1105 827f ae3f
00000460: 4617 1b5a 2780 85bf fbcc d982 2d8f db3f
00000470: 4937 5393 17c0 c33f 02d6 7308 c1b9 b3bf
00000480: 3b51 d1d7 1462 a63f 0aa2 cee7 3484 b13f
00000490: 932f 9fbb d24b 743f 7917 0c0a cca0 663f
000004a0: 2927 ae0c 1da1 9bbf b1b3 fbc1 c91a c4bf
000004b0: 37bb bd7b 5b99 c63f 12b4 cdf1 b4df aa3f
000004c0: 5f89 bb17 7d27 adbf 0d64 a848 3b1b bfbf
000004d0: 8c26 a51e 435c b5bf 3f47 1419 b1a2 b03f
000004e0: a143 0646 c068 b0bf 37e0 e994 c210 b03f
000004f0: 531d b968 4c76 c6bf c63a 264a c4ed a5bf
00000500: 1dd5 3e97 2cea c2bf 49a8 1369 3a35 b63f
00000510: bb7e 6389 48a4 aa3f 99cb 2627 8ab8 b3bf
00000520: 057a 977a 5711 b43f fc0a 2a37 904b d73f
00000530: 17db 2466 863c b1bf c082 eb70 f6c3 bfbf
00000540: 54a2 97c2 7ca1 a63f 5411 5bcc d0dd b9bf
00000550: 0522 4fb4 3753 99bf 7ba0 57b2 0d0c c53f
00000560: b774 f511 5db0 b5bf b00b 63a4 1914 a13f
00000570: 8df5 1c9c f33d b5bf 58e2 1d5f 6519 973f
00000580: 05e3 25ac 358c b1bf c69f 3964 cd3e 84bf
00000590: 59e1 0c83 a4be 5fbf 740e ee7b 6b35 babf
000005a0: 559c 53c3 9b5a ae3f 31f7 c083 4b1d bebf
000005b0: 184b d221 3f98 82bf 4d7c 82bd 8f11 c4bf
000005c0: eba7 9818 3b83 f9be 150e 9dc2 1950 a73f
000005d0: 277a b29e e529 b8bf 4fde 1cf3 7ce9 bf3f
000005e0: 0dfc 218b 760d c9bf fb3d 7c17 b01b b5bf
000005f0: b538 2c66 8401 cfbf d170 c4b2 1197 b4bf
00000600: c530 bd42 57e8 963f dbf3 3b7f 333a c2bf
00000610: 0dd1 b40e abbf c73f 21f1 0962 b6f7 aebf
00000620: 5290 4aac 7f86 b8bf d49a d43b 44d3 9b3f
00000630: 0c5f efee fa07 a3bf cfee a71b d07a b4bf
00000640: 6e9c b767 6b44 b13f 47dc 798a 5872 b5bf
00000650: 0303 329c f6a3 9fbf daf6 7dfa 9fca a73f
00000660: 35fb fd4b 0010 ce3f dbe1 4dba 1ac8 a5bf
00000670: 9a40 ddc7 c78e 8a3f 2101 b99b 7eec c23f
00000680: 0f7c 3b48 c8bd 9e3f 59e8 d47e 2c12 c0bf
00000690: f01e eab4 a995 9d3f 0ede f321 064b ab3f
000006a0: 3caf bc4c 94f1 a13f a5d6 9815 000a b93f
000006b0: 07a9 528e 4a71 70bf 9347 a9fe 94fb c03f
000006c0: 1ffe 1617 17ac 993f 1627 e979 9c75 b8bf
000006d0: 1fd5 6774 7784 ba3f d280 0a22 046f ae3f
000006e0: 2567 327f 6989 913f a23d 25a6 a57b a93f
000006f0: e0c0 33d3 fc5c 9abf b5c2 9851 8934 a0bf
00000700: 57fc 0f68 daa1 72bf 6dbb 2dbd 04d4 c2bf
00000710: 3dc4 ed62 1f1e 70bf 6efc 3213 e0ff b73f
00000720: 8bd9 2899 71e3 c73f db97 299e a4ba ad3f
00000730: 9219 4562 4206 b13f ef01 13d0 b6d3 b73f
00000740: ffb5 cc71 990d 8bbf c1cb 993a 0130 bfbf
00000750: 1878 4433 d9f9 a1bf 1284 fcf1 d8b7 7e3f
00000760: 105e 5cca 2818 b8bf 3dde 91f8 d924 b33f
00000770: bb1c 3724 44a0 a4bf 3be5 ca72 2389 c0bf
00000780: edfe 026c 3531 ccbf 4558 81a0 f62f 913f
00000790: 2f5c ea4e fdf6 88bf 6f13 ba0b 7c8e 7fbf
000007a0: 1e4c d2b7 6226 b13f 0bac f5e1 d439 b53f
000007b0: 44e5 38aa 1b0f a1bf 4e1c 4844 42ce d0bf
000007c0: d3e1 2b67 50dd bb3f 47fb 943c f153 babf
000007d0: 631e b6b6 4832 c53f 4623 5362 48fa c83f
000007e0: 1393 6bb2 f2aa c83f c5c2 0e72 8c16 b23f
000007f0: a520 1dd5 b9d7 d2bf 4e2d 7909 9128 c4bf
0.21328197484570768 -0.09899175519992912 -0.04692404582710742 -0.17841573104182418 0.08977698870902336 0.20930138681301597 -0.06617962085600781 0.07160732803672185
0.010796537590710432 -0.07090139182332196 0.08890905152170404 0.1318427554665952 0.1869185120820418 -0.17816933137076732 0.04222122616710028 0.011477084280767677
-0.005386974400839708 -0.29511249098262266 -0.09458472983822919 0.033031949189399466 -0.14627341122409993 -0.10521474942385997 -0.05508349914436371 0.058976526208552336
-0.4600618129115674 0.0025558839654178014 -0.10400915044384645 -0.0697285021199611 -0.13323990067446823 -0.02772217969919758 0.09220801522459288 0.10811292679930944
-0.149984420051254 -0.005849992268565572 0.016224733295443602 -0.1005242560717767 0.26277365114965145 0.023496079774796622 -0.07843332111731395 -0.11351856141442539
0.26642596117906714 -0.07806474797607932 0.019759441798255017 -0.10659025966818927 0.06332084658428534 -0.28767177081865425 0.1941410899067414 0.0209679785596083
-0.12246611795772555 0.15378432478396298 0.08186101473265475 -0.1925730613015123 -0.024192688473407945 0.1599774489089607 0.025478465064323035 -0.10006401173759946
-0.025575185408859426 -0.1242565037967371 0.1887620593230154 -0.04779771898438624 0.1622899316967393 -0.11527241399095423 0.07141329235686485 -0.0536018077119123
-0.2672030649507659 -0.21786433105300804 -0.05912006399131602 0.20619147424357057 -0.15371437687642134 -0.06923640819405111 -0.14419793184112453 0.05235679800912791
-0.3710638319482765 -0.2639008147322488 0.3221005363330762 -0.016694426685835376 -0.5293183136307548 0.04633107410848861 -0.008387767696187114 -0.19643808966013585
0.22952560812522796 0.7340418662104007 -0.017981858510572397 0.027694422230811856 0.5538134421614108 -0.12888137033901134 -0.3045837923577995 0.11811680199901643
0.20868412430367303 0.22293222059838227 -0.030307135788570215 0.21570275621177412 -0.31560230577508164 0.10799986051720778 0.06318066534275106 0.32320119829354416
-0.03580157144998864 -0.12212445504446902 -0.11896522193788302 0.32699440584872935 -0.6012898369116325 -0.0061447742403951625 0.09159655817954275 0.2223573199855175
-0.08504417731407965 0.9009055346626896 0.1960477243251962 0.39343194892234923 0.1767429144397115 -0.14237539434000024 -0.24769007502583387 0.13084826397827104
0.26974526878539967 -0.3066410075923097 0.18394305842829503 0.3019043671490813 -0.17842799248622568 -0.44411629812397474 -0.1652834788178751 0.058270324463019364
0.1778050778125518 -0.22459824724761246 -0.1729931249367467 -0.09571588980216182 -0.09817412265953532 -0.1268617396581975 0.0033622433263542006 0.059325913133588204
-0.05047735010970101 0.028261345282020952 0.04748216892756948 0.015955868957340427 -0.09050516414272677 0.14897784722703192 -0.005471884428647456 0.190242874534351
0.047793573739121444 0.14103285256950326 -0.039361646507710235 0.059566557997543 -0.010498340070067901 0.4306138780440986 0.15429968541723785 -0.0770531316410015
0.04371705183499094 0.06842356356958859 0.004955123114949961 0.0027622208730261858 -0.02698178663152998 -0.15706750842892128 0.1765550951199317 0.05248799754813417
-0.05694189943985139 -0.12150927089568615 -0.08343905924007283 0.06498247968945935 -0.06409837445813917 0.06275573859773052 -0.17548518289025114 -0.042829641391212855
-0.14777142891913622 0.08674969735480532 0.05203463246448111 -0.07703460174415823 0.07838961356126369 0.36398702036983344 -0.06732978814839573 -0.12408390290103011
0.04420080066103496 -0.10104088772920267 -0.024731512432284237 0.16443034370536566 -0.08472234428832591 0.03335647708583822 -0.08297655640941155 0.02255781548544386
-0.06854567959625164 -0.009885410901190893 -0.001937542587439797 -0.10237762237198372 0.05928503760679208 -0.11763450590748616 -0.009079449863099096 -0.1567859340038659
-2.4330730900391713e-05 0.045532994276552476 -0.09438929676478179 0.1246564954316167 -0.1957233600005285 -0.08245373319027031 -0.24223380078223547 -0.08043013204991502
0.022370685051371426 -0.14240115845305365 0.1855367490585497 -0.06048364588511591 -0.09580228763894752 0.027173105384600785 -0.03717025915801572 -0.0799989764708997
0.06745024950179054 -0.0837760294033255 -0.030898907931717023 0.046467780425684516 0.2348633166365858 -0.042542300455298686 0.012967644488213904 0.147842241322004
0.030020837219918713 -0.12555462067558912 0.028891231219431768 0.05330676235638175 0.03504622875911287 0.09780884291907428 -0.004014292940306647 0.13267767367011327
0.025070534500399085 -0.09554460502945647 0.10358378021176805 0.05944073596515555 0.01712574805114921 0.04977147725241628 -0.025745344534642167 -0.03165082093290065
-0.004548886442534337 -0.14709529149282777 -0.003934977153094596 0.09374809712152096 0.1866285322045765 0.05806459837621932 0.06650175952117923 0.09307425098359777
-0.01320953253306367 -0.12182624512369868 -0.03510931731055694 0.007499549333972249 -0.09411864223908872 0.07478105848883217 -0.04028523389893609 -0.12918513398271067
-0.22025172971733956 0.01678452829977341 -0.01218984505730533 -0.007704243234574955 0.06699196803883509 0.08291368977158713 -0.03331839039715104 -0.2625890414059925
0.10884573477586139 -0.10284335831691492 0.16559704705672393 0.19513802338613057 0.19271692001270732 0.07065656456576182 -0.2944168645085575 -0.15748799288335608

net.net.hidden_layers.2.bias f8 [60]
00000000: 4872 8778 645c b8bf 71f6 fec5 882d b5bf
00000010: 28e3 0618 f9cf a2bf 4a9b 6f90 14a0 913f
00000020: f695 bf23 1f9f 973f 929c 35f0 d01b c93f
00000030: ee76 1c28 696e cfbf b655 88dd eee1 bf3f
00000040: 4e7c 4a30 04e5 b9bf b445 b185 4241 b4bf
00000050: 3c66 53fc 4e90 bdbf c7b2 18e1 91c7 b43f
00000060: 1326 b24f 2d90 ae3f b7b6 acc3 1639 74bf
00000070: 8ff5 2cfb 2c54 8dbf 4976 2822 b153 43bf
00000080: 0224 22d7 9264 babf c637 c778 19f6 abbf
00000090: 270b b21b 5bbd a1bf 7a80 be2e 416f b7bf
000000a0: defc ae01 2d63 81bf a8f9 44d3 7072 aebf
000000b0: cc9a 8485 b70d 9f3f f071 c927 1dfb bb3f
000000c0: 3b7b ebde 3729 b9bf 0cef 746a 46da bbbf
000000d0: 8279 e35a e75f 8bbf e6c3 63d3 ca3d a83f
000000e0: 9c51 b6fa 78ec c1bf 63c8 37a2 ca21 c2bf
000000f0: 5d65 228c 77eb b23f c26c 5333 beca c03f
00000100: 161e 5cda 271f c5bf 5fb9 6900 db3c acbf
00000110: 9ed9 8568 17ff da3f 69c8 5d98 70b3 b3bf
00000120: 172f a505 6bda b13f 8943 0f0b 78fa c1bf
00000130: 2354 b1ea 291d adbf d8fe 1f8d b7a0 b7bf
00000140: e88f 208b 3aba c4bf 35b8 d392 a24c b0bf
00000150: 9e29 ba46 ba5f c2bf ad67 2e42 2035 b7bf
00000160: 388f dfc0 9506 c13f 2084 d6c3 66c4 a1bf
00000170: 9040 a3e9 0405 c43f dd9c af23 7d76 b53f
00000180: 6b0f 24fe e8f6 cabf 5404 0cbe 54ac 54bf
00000190: fbf5 2537 dacc a4bf a6a2 96f6 09f0 aa3f
000001a0: e9b6 eb1f 337d b73f 60e2 d2d0 7ea1 c73f
000001b0: a0b4 bd80 573b 89bf 1fc3 6666 e38d a23f
000001c0: bffc dd40 d07a c4bf 79d6 dcc0 66a3 b33f
000001d0: ae7f 38ff 0267 c1bf a451 7e34 650e ba3f
-0.09515979712109257 -0.08272604783902594 -0.036742958243343005 0.01721222049300345 0.02306793838206108 0.19616138199782945 -0.24555696924738107 0.12454121502408708
-0.10115076235750672 -0.07912078632332148 -0.11548322353646595 0.08117019410628777 0.05969373319483053 -0.004937256739862831 -0.01432070867087523 -0.0005898108395887082
-0.10309713127402634 -0.05461196517317961 -0.03464779580192206 -0.09154136077131794 -0.008489944089772935 -0.059466863431669126 0.030325763248721313 0.10930044385299431
-0.0982851905095971 -0.10879936312715816 -0.01336651559944069 0.04734643774452944 -0.14002907029920386 -0.14165623589321105 0.07390544100998882 0.1311872244467392
-0.1650132957658889 -0.05515179042855566 0.4218195458155608 -0.07695678443795519 0.06973904502700311 -0.14045620479603496 -0.05686312665844919 -0.09229609675821437
-0.16193324845619306 -0.0636693581070354 -0.1435463757846493 -0.09065438857797288 0.1330134574665125 -0.034701548963546935 0.15640317352381716 0.08383924599876331
-0.21066009911748593 -0.0012617900430884803 -0.04062539981076082 0.05261260161507168 0.09175414590182708 0.18461594768975242 -0.012320216766705194 0.03623877167718192
-0.15999797026959148 0.07671205719528897 -0.135956167811853 0.10178215533807716
