networks/test_2D/test_fe1_v1.pth (torch, 404536 bytes, 49 tensors)

net.net.hidden_layers.0.weight f8 [40, 4]
00000000: 7de9 8514 99d3 b33f 7647 cd6d 0373 e0bf
00000010: 1d00 27e4 3e61 cc3f 38fc 2515 7bdc e43f
00000020: f96a f6c9 9e62 d33f cf0f 1516 e237 debf
00000030: efa4 bf4c 4d7d d3bf 5316 b874 eff6 d63f
00000040: 8a15 4dc2 eb20 ddbf 80b4 2df4 22d3 c23f
00000050: 406a 768e 18e5 c23f 6a35 19a7 8fda dabf
00000060: 189a b3c2 ef19 d0bf 761e 5670 4139 cebf
00000070: 99fc 04fe 4ebc aabf 7967 be71 3bfa e2bf
00000080: b2f2 6c08 11ee c0bf fc94 9fb2 5b5e d53f
00000090: ba75 ae09 1db0 d13f d0e6 31de 252b dabf
000000a0: 2e33 ed20 171b ba3f f2ab c1ea 07a9 ae3f
000000b0: f05d 2452 a209 debf 3070 4481 8008 d13f
000000c0: 601b fada cb48 b4bf 164e f22f b00d 9fbf
000000d0: 1bba 2ed4 d2c5 e3bf feee e5fb e8bb c5bf
000000e0: c7aa d783 9005 cbbf 021b 2e5f 4cc5 bfbf
000000f0: ed47 ddc4 2635 d3bf f938 3497 051f d3bf
00000100: 1b7c dbe2 2b00 c13f 035d 5b75 c52c 993f
00000110: 0992 a6bd 5952 b3bf ebdd 5b9c 2b93 d73f
00000120: f77f 1269 b8e5 643f aa22 0d5b d121 b5bf
00000130: 86bc 76cb fd46 c5bf e07a 9a91 dcf7 b7bf
00000140: bf6e 3475 af78 b8bf e2a7 a251 b15d c13f
00000150: 50cf 5f39 04fd dabf b4a1 394a 1d42 d8bf
00000160: 454e eaa6 a257 e03f 3725 b87a 7102 dabf
00000170: 2535 0775 b551 d0bf e36b 658e 43f8 e13f
00000180: 3a3f acac 0d26 c4bf bed3 d5e4 1cdc b6bf
00000190: ca63 6010 b915 b9bf b54b 7462 5279 c03f
000001a0: d28e 2775 8622 e63f 4e3d 5d8c 8330 dbbf
000001b0: 9ad8 222f 8214 e4bf 1362 96a8 0d3c bd3f
000001c0: ce07 7965 737c dabf 699c 7796 aa13 d83f
000001d0: 824a 334a 32c4 e1bf 7faa f91a 8cbd b03f
000001e0: a29a d764 f1a8 bdbf 2735 2bac d158 c43f
000001f0: 612f 99d9 cce1 a1bf c2e9 8df0 6874 c6bf
00000200: 8b4f 1fa4 c6dd cabf d4a1 4b11 c5bb d0bf
00000210: bc47 f150 7ddf c9bf 959e 6456 98d6 bbbf
00000220: 8f4a ddf4 91bb b7bf d08a c60c a16f d1bf
00000230: 3066 0dc2 b517 d83f 6ee3 20a6 5a25 c13f
00000240: 8e2a 5af8 a204 e9bf 9532 80e4 f39b d33f
00000250: f9c8 b15f 8473 e33f 2973 ee6c d7ff d4bf
00000260: 833a e829 d2ae d13f 8b41 d64d 4e6e a1bf
00000270: d235 2263 e65a afbf 8fb4 b75a f9fe d13f
00000280: 5cdd b72d 3c88 d63f a6f3 dab6 a194 603f
00000290: 58aa 53f2 242e b43f 64d9 5c8d 2d39 9cbf
000002a0: 03a5 ebae 093d cbbf f1f7 2954 24ab b23f
000002b0: 0669 2d7e 38a6 e2bf 5e50 bbe3 0971 e03f
000002c0: 9030 4140 9caf cd3f 3c4d 2224 479d d5bf
000002d0: 5eb5 6b1e 194e cfbf 7856 cdce 9593 cd3f
000002e0: b211 0f16 9532 b23f 2c6f 8638 7059 82bf
000002f0: fb72 3702 befd e2bf a75f 6f5a 3308 ccbf
00000300: c7b6 ad2c 80ad e4bf 5e78 d4d9 a97b d3bf
00000310: 82d4 12ce 05ab e53f 4cc5 f1a1 6219 c03f
00000320: 78ca 5657 0e13 dcbf 4d2f fb24 31f3 ce3f
00000330: b823 a5c6 69ea d13f 7630 a16f 3a29 93bf
00000340: 1bce 64f9 c2ca 98bf ca97 71b2 e39f d23f
00000350: 40bf ba05 d8d6 c9bf 47c3 7fac 7a85 b23f
00000360: ee08 23e5 c2eb cbbf 26d9 0169 90d3 75bf
00000370: 9790 9a26 b96b e43f e66d 2f30 9448 d63f
00000380: 4eac 6780 7f05 d0bf 92f7 b357 f15f da3f
00000390: 063f b1b8 6160 b13f a9c8 2bf7 fe00 c23f
000003a0: 0ee7 1e1d 2f1b c0bf de73 896c dabc c43f
000003b0: 60f1 83fa a993 e03f 83bc 0d4c 7bf6 e03f
000003c0: 16e2 5406 799f c8bf a22c 6ffd 5e66 d53f
000003d0: 208c b38a 9a02 9fbf eb4c 666a 5530 cb3f
000003e0: 2488 ad9a 4450 b23f 7f08 1c7e 6730 963f
000003f0: a386 80b7 b081 b53f ac0e 90cd e93b cdbf
00000400: 2c79 dc5a a61a d3bf 9b61 afbc 1f5d b2bf
00000410: ef18 e09f be20 b0bf a1ea 70b6 f3ed d43f
00000420: b9ba 9594 1a8a d43f 3bf0 c01a 6db4 c83f
00000430: 6f7c caed 3190 d1bf 32d1 13bf 7ba2 c3bf
00000440: 31e4 905c 17cb dc3f b031 cea7 f760 94bf
00000450: f309 cdd2 9878 d5bf bbb4 1fe7 c73d d5bf
00000460: 3d99 b9c6 9ee4 cabf ba9b 60e9 a98c dfbf
00000470: baff 480c 49e3 cdbf 8930 5b41 b3ad d33f
00000480: 213b a887 50fc debf 3586 8603 92aa db3f
00000490: 729f f5d3 b9bc e03f 1e6f 9206 7b64 bcbf
000004a0: 4466 b33b 8aad dabf 15b0 9d6a b854 bf3f
000004b0: d8d7 1827 d97e ce3f 25f7 93c1 1991 803f
000004c0: 4161 74b7 9f45 bebf cc99 4612 cc12 bdbf
000004d0: 78d4 2c03 9dfb c7bf 9b42 44ce 71bc e33f
000004e0: ab91 a738 2377 c9bf 73c0 3094 8bf1 c0bf
000004f0: b929 a311 0e89 cb3f 20cf c544 6afd e2bf
0.07744747878124332 -0.5140397209708982 0.22171770229579205 0.651914159112386 0.3028943035402985 -0.4721608367583458 -0.3045228242395543 0.3588217391810293
-0.4551343343230988 0.14706837580471088 0.14761645275287272 -0.41958991354189 -0.25158304227662276 -0.2361223028676595 -0.05221793032478068 -0.5930459233816087
-0.13226521407513797 0.33388416713417235 0.2763741106553784 -0.4088835401413293 0.10197586587783 0.059883353621294946 -0.46933801671681774 0.26614391921771396
-0.07923578353994065 -0.03032565395967709 -0.6178983825864778 -0.1697970609637806 -0.21110731542224512 -0.12410428355915928 -0.3001191065314959 -0.2987684227563388
0.13281773163814212 0.02458485153951263 -0.0754753196729966 0.3683575655881827 0.0025509454504373213 -0.08254726860935571 -0.16622898516422796 -0.09362581782123014
-0.09559151278920817 0.13567177282430892 -0.42169290163950723 -0.3790353035788272 0.5106976757110223 -0.40639912590320953 -0.2549871104100297 0.5615556508231488
-0.157411298096571 -0.0892961558036651 -0.09798771524255226 0.12870244796121502 0.6917145050215032 -0.42483605105822597 -0.6275034828784272 0.11419759145645285
-0.41384587201548306 0.37620033926072566 -0.5551997613168427 0.0653922620637477 -0.11585911476104596 0.15896054178885174 -0.03492584377508368 -0.1754275488454607
-0.20989306463036103 -0.2614605587864649 -0.20213285877485798 -0.10874321088032908 -0.0927058432401202 -0.2724382996331487 0.37644714308189275 0.1339524565862819
-0.7818159914616716 0.3063935977413988 0.6078512066872285 -0.3281153262885704 0.27629522411817947 -0.03404469204099588 -0.061240386582635545 0.281187380401044
0.3520651289431578 0.0020239981157303575 0.07882910648519592 -0.027561866524785997 -0.21280022660292994 0.07292391829284363 -0.5827906097795512 0.513798661030261
0.23192170274194668 -0.33772448090276774 -0.24457086549174795 0.23106644246825048 0.07108432568117598 -0.00895965263844508 -0.5934743922512945 -0.21900026241087042
-0.6461792824390721 -0.3044228198285789 0.6771267914651988 0.12577469737474656 -0.43866308716966484 0.24179662996027176 0.27993244551594954 -0.018711960852940433
-0.02421097418955585 0.291008877049873 -0.20186901359329035 0.0723492308750454 -0.21813236416171072 -0.005328716375620856 0.6381498102168902 0.34817986207573737
-0.25033557452724586 0.41210588040109386 0.06787691840258611 0.14065539425752618 -0.12582959100637264 0.16201334285406593 0.5180253880385344 0.5300880895064356
-0.19236672219427992 0.33437323331299684 -0.030283369746836653 0.21241252608579173 0.0715372922545901 0.02166902262889225 0.0840101669314444 -0.22839090859644295
-0.29850157616773987 -0.07173345905846988 -0.06299964335639506 0.32702343765746816 0.32092918882601 0.1930061703332074 -0.2744259664704662 -0.15339609937621784
0.44989570655485794 -0.01990115129187736 -0.33548565469769115 -0.3318958050793516 -0.21010193541878577 -0.492960431964487 -0.23349869823323194 0.3074768198246223
-0.4841500592018964 0.4322857889584129 0.5230378284295354 -0.11090821180772223 -0.4168420393958494 0.12238648035935314 0.23824610146556213 0.008089257450133733
-0.11824987629768648 -0.11356807180582179 -0.18736612944636355 0.6167534855504359 -0.19894829050384763 -0.132371375425922 0.21512008534621233 -0.5934344619003902

net.net.hidden_layers.0.bias f8 [40]
00000000: 51c5 8a3d 9a2a b9bf ea09 e317 51fe c3bf
00000010: 607e 531a 95e9 a2bf 09ef 90d0 b7df dfbf
00000020: 9e18 41b2 6c75 b3bf 3314 2e07 6d36 b2bf
00000030: 53b7 0ad9 327f dbbf ea67 2436 8a33 c4bf
00000040: 774e 7231 c14a b63f aa01 3ed5 4668 debf
00000050: c385 93b6 86b6 c33f 0381 fbcd b70b d3bf
00000060: d35d 46f9 32dd c7bf b68d a40c e964 d13f
00000070: 083a f22f 6248 dbbf 8565 99ec 14b4 c2bf
00000080: 14cc b050 653e 9d3f e01b 87e9 fcd5 ac3f
00000090: d707 f797 a373 c9bf 5db9 8fb6 47c4 a53f
000000a0: fdbe 3d4f 35b7 c03f b03c df01 bd17 d03f
000000b0: 2db0 321d c14b b13f a3bf 0fb4 dc6d d0bf
000000c0: a1c9 b007 55fb dabf 5b4d 338a 1a5b d43f
000000d0: e7b1 e87e 62a8 b1bf e365 d436 2be1 69bf
000000e0: 3366 0e5f 1e45 da3f 1fde 3285 c19b c13f
000000f0: 10c1 93b3 6d55 c33f 65f0 feeb 65a5 df3f
00000100: ef1f b0a7 55c1 c53f 6f85 d9b7 87e1 ccbf
00000110: 7bb5 8bb1 9ea3 c33f 519f 8428 4d6f d5bf
00000120: b45f 387e bbf0 d5bf fd5d 4eb1 531f d13f
00000130: a4ba 59de 0ec6 bcbf b5bc 77ec 1239 bbbf
-0.09830631258480095 -0.15619863191939426 -0.0369383425365839 -0.49802966468608695 -0.07601050712500743 -0.07114297318737854 -0.42963858790868875 -0.1578228725782645
0.08707816559972935 -0.47511454414782384 0.15400775828224597 -0.29759020915481943 -0.186437961307759 0.2717840789284439 -0.4262929409241285 -0.14612065842338154
0.028558333444561226 0.05632009840660834 -0.19884152336277225 0.04251312354596124 0.1305910717887783 0.25144887144865447 0.06756216967431845 -0.2567054518140088
-0.42159009696038124 0.31806052681095814 -0.0689755973659839 -0.0031591266657755453 0.4104686668666517 0.13756579402773725 0.1510445715753197 0.4944701008460071
0.16996260345354083 -0.22563263394389874 0.1534307829783009 -0.33491829830972103 -0.34281813932602323 0.26753704371500914 -0.11239712646941286 -0.10633962891710065

net.net.hidden_layers.1.weight f8 [60, 40]
00000000: 6b71 cf3f 69a9 ba3f 4517 8b26 5497 b13f
00000010: 7c4b da41 e381 b83f 35cf b079 41a8 c3bf
00000020: 34dd b8ce 84c2 cabf 125e d14d d31a bc3f
00000030: 0e36 8f84 c7f2 743f 161f dc44 de5b b23f
00000040: d47c cb7a 99cb c53f 96ea 1606 ae5a 793f
00000050: 0d97 75aa ebdc 92bf 94b5 fb29 55e8 bcbf
00000060: d72b c0b1 a67f c53f 18e6 973a ef47 c2bf
00000070: 3a12 f322 d45c a5bf 9c05 bc1a 15f1 b5bf
00000080: ed1e 81b7 34c8 31bf 0238 0a3d 864b d0bf
00000090: d901 763d f4ba a93f 7b13 533f 2789 a5bf
000000a0: 63ca 77a0 ce90 bfbf 3de4 ff1a 5dfd 84bf
000000b0: d548 5c9a 02dd b73f 0e38 d089 fe46 9c3f
000000c0: 8c4b 738e 5d56 b3bf 86bb eb52 b05f b1bf
000000d0: a921 27a6 eef8 b1bf cfa3 a76f 8c79 b5bf
000000e0: f5ae b8a0 f62c c03f e90b 65f3 56c5 ba3f
000000f0: 440d 1c66 e7cb a0bf 5b9a 9dad c172 b5bf
00000100: 333d 94a3 8bef af3f f247 5cfc f820 be3f
00000110: 72fb 01d2 96fd b3bf f49c 0109 c01a a13f
00000120: 544f 9390 1d22 a73f 2094 254e 8b0b c0bf
00000130: ae25 0ae3 c62d c43f 5da2 ebc9 b64b c6bf
00000140: 8c89 11e6 fe2d d03f 1c3d 7ac0 b7b9 b83f
00000150: 3d02 3699 8493 d13f 04be 3331 c576 9d3f
00000160: e596 1072 41f4 c03f 27db c080 420a a7bf
00000170: 179f 4ade 3830 c9bf 11af 35c5 a5ac c33f
00000180: 4f88 557d 82cc c43f a9a4 c920 d9de 9b3f
00000190: 6d95 1900 b772 7dbf 6239 0ff0 4b2a cbbf
000001a0: bfe6 7263 f018 b93f b567 10b3 33c2 79bf
000001b0: 5818 0b48 65c7 a0bf 48c8 2295 cd05 aebf
000001c0: 4d62 8721 850a cc3f 27b4 9685 e767 c63f
000001d0: 50ca 815c 3e9b 83bf 5290 e7f5 2a2a c5bf
000001e0: d77c bea5 9f7f ccbf c6fb 1bd9 33a1 cbbf
000001f0: 9452 50fb 1ded 9b3f e7f2 f437 8488 a9bf
00000200: d3d3 a0f7 688e d83f d660 1ac4 ad6b c03f
00000210: 7521 a6fa 36d8 c7bf 8f9c 2d06 13b4 af3f
00000220: bef4 9f75 ba33 c6bf 22db d2a2 67a3 a7bf
00000230: 5d77 e034 d2e7 c0bf b373 ac0b 6921 bd3f
00000240: a8a3 3855 56d9 a1bf 9a96 17b6 49d5 cebf
00000250: 947b 7ffd 7b30 cebf 4444 5e1f 8c1e d13f
00000260: 4944 637e 592c adbf b991 cb47 2ef9 71bf
00000270: dc1c 71a6 ade8 90bf 6000 9e3d d609 b43f
00000280: 8208 3b02 5196 c2bf 47b3 2314 cfbe c4bf
00000290: 2a62 b80f e011 bf3f 9e65 f092 3ecb ccbf
000002a0: 5863 6044 f778 94bf bbad 6101 81d6 7f3f
000002b0: 28f8 5d80 7abb c3bf 6f8d 7e04 3f1c c23f
000002c0: 4655 719b 8c39 a2bf aa90 d2a5 744a babf
000002d0: fe6b 7b29 0e89 8d3f 7efb 3811 6fcc b1bf
000002e0: 01f4 672b d447 ae3f 3a5d 769b 9bdf d1bf
000002f0: 5254 29cb d833 a33f bc83 7ed0 4f6c d03f
00000300: f741 44d2 f15b a03f 6f77 6467 92a1 ccbf
00000310: bbea b38d 138f d03f 6509 8322 97df aebf
00000320: 2118 590c 978d c1bf 3f7c a54c b635 8e3f
00000330: 3dcd 4e08 1ac7 c6bf 9f6d 0174 062b d03f
00000340: 7a17 c25e 0766 93bf edc8 5fb7 403f bf3f
00000350: dded 5fdc a062 c13f cc26 06b4 da3d a83f
00000360: ac0d d4db aee3 b3bf 1b1f 7f76 5015 bd3f
00000370: 79fd 0e96 c616 c83f 9190 250b 6d70 97bf
00000380: 1f60 1bd4 3c45 af3f 5bf5 b023 6004 95bf
00000390: f042 b645 dcdb cebf 3d98 5a36 4ae1 a43f
000003a0: 9b18 2f18 a51e cd3f 79a3 f502 86c6 a33f
000003b0: c667 18f8 8827 9f3f 72cd b74f 17b5 9e3f
000003c0: 8ebb 10fd db51 c53f cb75 f1ea b0e8 d23f
000003d0: 3709 3ec7 00a9 c73f fefa e11a 5175 94bf
000003e0: fbf3 9971 114c c2bf e6f8 9b92 e1ce a73f
000003f0: 897e 4d45 136b b3bf f173 1655 7785 b5bf
00000400: cc0e e20b f53f c13f 2700 7707 b129 9c3f
00000410: 5f20 4175 e97a c5bf a7fd a7c3 2292 adbf
00000420: fb5f 12d9 965e 83bf 4cc5 2ba6 4e34 bf3f
00000430: d325 a3e1 b44c a23f 4424 053b 93db c33f
00000440: 4d57 5391 f635 8ebf 2b1b aa7f 2316 953f
00000450: a415 1926 da63 743f 1e9d fe7e d399 c0bf
00000460: c630 e4c1 98e3 c23f adb0 2df8 3871 85bf
00000470: c9ad e46f 2960 c1bf 2660 01fe 3fcb c53f
00000480: 398a 190d 210b 4b3f f7bd 3b2f de42 c9bf
00000490: 8b25 1f3a 6b34 933f e781 ff80 8f4e b6bf
000004a0: 68bb a48a 9d83 b7bf 2c1e f440 05e5 cfbf
000004b0: 63e0 f31d 3762 ccbf b2d6 a612 65e1 a53f
000004c0: 5fb8 828a 7593 61bf 3647 acf4 a2c0 bfbf
000004d0: 0a8d 3e33 32da a73f 3b96 6044 d9b1 6f3f
000004e0: 5841 80f9 d829 9e3f dae7 668b 399e af3f
000004f0: 37e6 21b9 c968 b5bf 5443 fee9 ffb9 b93f
00000500: e9ef a78e 3d4f ba3f 574a b1f7 58d5 c23f
00000510: 917a e0ca 8031 c23f 1672 1956 34a6 b3bf
00000520: 65c1 9fb4 4b04 a3bf 827f cfc1 31a7 bd3f
00000530: baca 2976 648d a0bf 2299 aa5e 6c4d 93bf
00000540: 5604 6812 3a24 aabf f5bd 351d 7b4c 9dbf
00000550: 1c98 20bb e14e 973f 0dde be03 58f8 c3bf
00000560: 7aaf cfe5 3e62 c3bf 7bed 2cb4 666c b6bf
00000570: 5ef6 ffe1 b0e0 973f 4a08 ceef c8cf a1bf
00000580: 89d4 622a 1799 ba3f b491 9c39 dffd c43f
00000590: 416a a596 6f12 b1bf a349 7e48 ccfe b7bf
000005a0: cb4d 73b6 04ef a43f 6d5b 0298 a556 b2bf
000005b0: 70c6 0411 8505 b4bf a6a5 5cf7 f017 cb3f
000005c0: 00cb eb0d 6418 643f a068 2652 4728 b53f
000005d0: 98b7 28cf f899 c6bf 2b5b d1d9 26b1 b1bf
000005e0: a60e 000b 25ce a7bf e76f 7805 7705 b3bf
000005f0: 1678 8bb7 1471 b2bf 2ac3 5b3b acbc c93f
00000600: f03b 223b e17f b4bf 4fd1 ed86 a2e8 bcbf
00000610: 11bb 6ba1 e8b5 cc3f b7f4 3d9b 308d b43f
00000620: dbf8 4f59 0373 a63f a1a1 a6f0 8eab b7bf
00000630: 22fe f0e5 8f8b 833f 1cbc 573f 948a b2bf
00000640: be41 9c6a 5110 d3bf 3a3e 74f1 c806 b0bf
00000650: 0671 a956 b049 983f 00c9 6b3a dadd b33f
00000660: 8766 f662 0d46 cc3f 299a 3c9d 527a b43f
00000670: 62ea de5e 43dc 973f 4cea e125 6094 92bf
00000680: 0325 edda 10e7 a9bf e35e 6800 149a 98bf
00000690: 1d39 7f57 4d5f cc3f 6063 f546 b4fc ae3f
000006a0: 1563 ecdd 67c1 b2bf 2541 b327 b8ab a4bf
000006b0: a6d4 4f1c c4fa b5bf 60c0 b0d3 b16f c2bf
000006c0: 35fb 59ee 1e29 b9bf 5f87 f863 8f9a c1bf
000006d0: 17f1 04fe d8d7 b23f 8fc7 b61a 4dfe b7bf
000006e0: b31e 8ce3 fca5 c23f 29db a564 eaa7 cb3f
000006f0: c365 cafb 45c6 b6bf d68e b4ec 342e c4bf
00000700: b133 964e e6e4 babf 1c4e e80e 6edf 85bf
00000710: 40b8 9fed 9989 c83f 3fda 0f5f 951d b53f
00000720: da3f 229c 1b1e b93f bbf6 6e90 420a 96bf
00000730: 5ff7 e038 d2d9 b83f e3d5 0965 699f 973f
00000740: 9e9c c154 4bb7 aebf 1ce3 ed0f d556 d03f
00000750: e5fb e0d8 3982 b3bf 4a5f b20d ec95 cabf
00000760: 8d56 d0aa d53c b0bf 3bd8 7fc6 f51e c6bf
00000770: 1124 1ca9 496e bebf 9513 2cd1 cc0b bf3f
00000780: 2963 6c1a 2e34 c0bf 37e7 9787 b007 bf3f
00000790: ce57 fde4 8c3a c43f 2599 35c4 5384 73bf
000007a0: 6702 b531 eede bfbf 4d94 1e3b 67dd bd3f
000007b0: b706 7f9a 5eae 953f fff2 09f7 9bf2 adbf
000007c0: 0469 381f b157 b23f bd4d 6e79 8a4b bbbf
000007d0: 92b5 c397 81dd a23f f61a 232b 0411 c03f
000007e0: c940 4e94 cc4d c0bf 3454 41b0 8318 bf3f
000007f0: 28e4 7dc9 dade 9cbf 5a6d 3d22 d929 bfbf
0.10414750869626281 0.06871534291266553 0.09573192937595637 -0.153572258395451 -0.20906124204496168 0.10978432321405077 0.005114344946333128 0.07171429806851068
0.17027586456149513 0.00618999460260263 -0.01842087009335729 -0.11292011523229056 0.16795810393554575 -0.14282026635173461 -0.04172385145787812 -0.08570987608620445
-0.0002713326171073078 -0.25460964165620237 0.0502544713044732 -0.04206202171329828 -0.1233033315436756 -0.01024887789388817 0.09321609753195344 0.027614571725330044
-0.0755365822581508 -0.06786634468492822 -0.07020465427843327 -0.08388593412350008 0.12637217376447266 0.10457366411451087 -0.032805663313434624 -0.08378229607260705
0.06237446185888942 0.11769062195915561 -0.07808821322576678 0.033407212352182386 0.04518215551220686 -0.12535229984055807 0.1576470001785259 -0.17418560847660816
0.25280735461833426 0.09658382844121544 0.274628781910028 0.028773385170039148 0.13245409078188355 -0.045000150887452066 -0.19678412298275624 0.15370628480319984
0.16249114150838515 0.02721728575344132 -0.007189478726649196 -0.21222829076436783 0.09803678920698199 -0.006288721037913382 -0.03277126793322854 -0.05863802381044586
0.21907104622984477 0.1750459100998409 -0.009573447416390796 -0.16534935957963853 -0.222644763879521 -0.2158570108512931 0.027271717514013874 -0.04986966307703771
0.3836920183414893 0.12828609538406138 -0.18628585089414754 0.06192073297898403 -0.17345362418556037 -0.04616855490296802 -0.13207461912036936 0.11379105124474513
-0.03486127653406551 -0.24088403121202334 -0.23585462453681016 0.26748946250251415 -0.05697898547953934 -0.004388027937896438 -0.016512597354702105 0.07827509884191519
-0.14521229370990701 -0.16207302554485123 0.12136650451464762 -0.22495252775915459 -0.01999269823872693 0.007772926261263742 -0.15415889041827424 0.14148700446558446
-0.03559531590932834 -0.10269860313798299 0.014421568528112157 -0.0695256630942662 0.059141760157196195 -0.27927293950911614 0.03750493507383425 0.25661082611810193
0.031951481740296765 -0.22368078278025957 0.2587326892677699 -0.060299609148858825 -0.13713348486834412 0.014750885213912322 -0.1779511013570331 0.25262605026883905
-0.018943896444873577 0.12205891110332674 0.13582239876255545 0.0473469109302421 -0.07769291750815083 0.11360648053152682 0.18819506003454103 -0.022889808469145626
0.06107511605449666 -0.020524503878040928 -0.2410846081152367 0.04078132546901301 0.2274977081380641 0.03862398897292158 0.030424251692330782 0.02998768257198265
0.1665606485052788 0.29545233672783117 0.184845063482564 -0.019978778138916013 -0.1429464153951868 0.04650025286353969 -0.07585258905373328 -0.08406778170906627
0.13476431923128585 0.027502790527933165 -0.16781347489655027 -0.05775555265790482 -0.00945775842619411 0.12189189488323854 0.035741474670043204 0.15513840085830755
-0.014751364049896099 0.020592264811536126 0.004978038925007953 -0.1296944017496821 0.1475707003340913 -0.010469861100965561 -0.13574712718523888 0.17026519682508584
0.0008253013022108741 -0.19735314661328093 0.018754649565186503 -0.08713623904578292 -0.09185204157686899 -0.24917665168344294 -0.2217472931149614 0.042735250975437636
-0.0021455093120357617 -0.12403315041981675 0.04658657908955817 0.003868984556009617 0.02945651076157793 0.061754034296839413 -0.08363018770060014 0.10049437964177105
0.10277161343395814 0.14713584989893277 0.14213571458909205 -0.07675482847248136 -0.03714214877971037 0.11583243352606412 -0.03232873861715775 -0.01885003402517172
-0.051057638880600706 -0.02861206403525603 0.022761847540231014 -0.15601635153665008 -0.15143572064641458 -0.08759157084289441 0.023318065446792928 -0.034788398049400884
0.10389847550216492 0.16399755776468583 -0.06668755939373573 -0.09373165864807347 0.04088606574228101 -0.07163462601816457 -0.07820922532553154 0.21166812971322918
0.0024530367076008863 0.08264585261932433 -0.17657384982288415 -0.06910937135522192 -0.046494634239960406 -0.07430213817173091 -0.07203797799181219 0.20107033632623345
-0.0800762910241557 -0.11292472643055372 0.2243014133632291 0.08027938642586006 0.04384623017539165 -0.09246152282015042 0.009543537335161171 -0.07242704912617665
-0.2978709736935591 -0.06260352988123766 0.023718600549146117 0.0776039497975809 0.2208878262725202 0.079991496456025 0.023301174798442743 -0.018144132911837738
-0.05059101746025798 -0.024025261425861266 0.22165838978111987 0.06052173010056694 -0.07326363723803937 -0.04037261471387613 -0.08585763636786456 -0.14403364979216615
-0.09828370398643645 -0.13752930051219445 0.07360607339518697 -0.09372407819935645 0.14569054709158066 0.2160618773884491 -0.08896291157943552 -0.15766011770130345
-0.1050552312719464 -0.01068006499284651 0.19169925787667985 0.08248265810821297 0.09811565935001401 -0.02152351385642846 0.09707368744508703 0.023069044868369814
-0.05999217424032931 0.25529982143011565 -0.07620584053891795 -0.2077002589110129 -0.06342826290377897 -0.1728198260531729 -0.11887035730991637 0.12127380472891354
-0.12659240999416824 0.12121108351121 0.15803681546338882 -0.004764868939082488 -0.12449539865066016 0.11665959542604405 0.021172979526233173 -0.05849158659564146
0.07165057193961749 -0.10662141289349499 0.036846208358706126 0.12551929575257476 -0.12737424127090538 0.12146781018357516 -0.028193872974473205 -0.12173230253158832

net.net.hidden_layers.1.bias f8 [60]
00000000: 5c80 2e26 2c36 cebf c8b3 8249 d47c c4bf
00000010: 58d3 555f 573c d0bf cf44 828e 0f9b bd3f
00000020: 6959 3897 c579 a43f aacd 339f 958e b6bf
00000030: faf5 a7ab 5354 b53f 081c e40d c07e 903f
00000040: 95c5 1ac2 2c8a 93bf cd0d 035f 6904 be3f
00000050: 4107 cd02 0f4c ae3f 5292 d921 e3f2 c53f
00000060: 9d90 2f6e 2bd2 bfbf 9557 61ee 5cb4 a03f
00000070: 7bf6 b3a2 80e7 cabf 8406 85d5 4c11 6c3f
00000080: fe00 00a4 ec18 943f 6874 04d1 7c21 b53f
00000090: 0ec5 a584 1296 b2bf a90e 6d3a d29f abbf
000000a0: 3aae a5f0 c08b b03f 3a63 5a5c 1db0 c0bf
000000b0: 4630 593b 60db 99bf ae37 9237 58c9 b13f
000000c0: 0b99 fdd4 4cc0 c0bf 56ec e848 9937 bb3f
000000d0: eccd bf90 bfc3 b8bf 876c 1784 ce0e aabf
000000e0: a61c a11f 0436 81bf 3e9e 2a6b 29d7 943f
000000f0: db37 46fd 1a72 95bf 88c1 cb49 8039 83bf
00000100: fa60 33c7 d534 c8bf 9a30 2079 684f 973f
00000110: 44c6 554b 6512 c43f cf85 92f8 1cf6 72bf
00000120: 541d 7149 503c cbbf 4ccf 1c35 5b6e b23f
00000130: df62 0469 3a3f b53f cacd 2349 f447 c43f
00000140: 1326 58a8 5e9d c33f f722 6956 af26 c33f
00000150: daa8 38df bdcf bf3f e2c2 00b6 b91d ac3f
00000160: f621 5f2c a1e9 c8bf 56d1 6dca 9126 cbbf
00000170: b73e 6b5a 282a 6f3f b178 3d30 76ff bcbf
00000180: 7a1f 0c59 6a10 b03f 698d 33cf f37e 9fbf
00000190: 192e b790 3733 a7bf 5532 e806 b1e1 5ebf
000001a0: fb1c 326f fb66 b7bf 660c 6972 3ff8 a2bf
000001b0: 4cbc e041 9837 c0bf 5637 1482 fb3c c2bf
000001c0: a963 f5b3 d7dd b33f 0b99 4363 c900 a13f
000001d0: 6572 e796 ba6b c7bf 6639 8e26 d0a7 a13f
-0.2360282122072047 -0.16005948628790478 -0.253682940579258 0.1156472895547893 0.0399915454001299 -0.08811316620613377 0.08331797543356592 0.016108513686983655
-0.0190817826721222 0.11725481576564008 0.05917403134527755 0.17147483017756088 -0.12430068435748116 0.03262606058039733 -0.2101898951004165 0.0034262180962805772
0.01962632895447402 0.08254222968067071 -0.07260242212739262 -0.053953714019852335 0.06463247180152445 -0.1303745938246495 -0.02525091516717761 0.06947852474897218
-0.13086853408749052 0.10631711988473688 -0.09673688205639736 -0.05089421617932382 -0.00840380879902931 0.020352027097628282 -0.020943090160976268 -0.009387018444130715
-0.189112398401228 0.02276385535519463 0.15681139162511404 -0.004629243057168122 -0.21277812562969223 0.07199640318577599 0.0829960352315413 0.1584458691719262
0.15324004383028064 0.14961806983253442 0.12426363658656517 0.05491428705898273 -0.19462980906088462 -0.21211454757907217 0.0038042820118347714 -0.11327303579079985
0.06275047945029924 -0.03075772239834632 -0.04531263009593207 -0.0018848637370211436 -0.09141513313999276 -0.03705023070917761 -0.12669661728566195 -0.14248603679191757
0.07760379928130469 0.03320912682265672 -0.18297512405742392 0.034483437258233704

net.net.hidden_layers.2.weight f8 [60, 60]
00000000: c664 6a50 f785 b0bf 721a 1fe8 2e38 b93f
00000010: 2c38 281a a977 a43f 167e 61a2 0ccd a6bf
00000020: c545 5e79 ef10 b1bf 37c3 efec e502 60bf
00000030: a57e 46cb d0c4 b23f e337 d42b 03d2 71bf
00000040: 8455 e80d ed48 b03f 7fdc 838a 7371 b0bf
00000050: 95b6 7e1b eaa5 b13f 1aaa 0aa9 0c64 a7bf
00000060: 8b67 7693 d27d b4bf 754b a5bb afd8 bf3f
00000070: fa11 08c6 abba b93f ba72 3b83 e6f2 babf
00000080: 4de5 6ba9 070b 9bbf fe37 dddf 63dd abbf
00000090: aefb cd19 80c6 b2bf b9ac 3d70 1fa3 af3f
000000a0: a02f a6d2 d467 93bf d6ce 6643 9f91 a0bf
000000b0: 45cf 151f 2033 a8bf 5024 1b4d e477 a33f
000000c0: 32ce c6ba 7929 b5bf b6d9 d32a 14ec bf3f
000000d0: da76 620c 144b a73f ee00 bf39 9645 b13f
000000e0: aa3c 9b72 928f c63f 05d9 d90b 2f78 c3bf
000000f0: cead 911e b6d4 c83f cec2 96a5 08a9 af3f
00000100: b6cf 05a5 9f54 cb3f cc0e fac1 5547 a03f
00000110: 4407 e616 cbf4 9c3f 818e 12e1 22cf a8bf
00000120: 85b9 fa32 5a5d c03f 738f 26f4 adff 843f
00000130: 25a7 fb58 8d43 b13f 4cee 0c87 282a c53f
00000140: d5da bdcf 49ec aebf 8c7f 0c3c bcd0 61bf
00000150: 8d7e e496 4298 b5bf cd27 3fbc beea a7bf
00000160: 669e 7788 adcf abbf f252 524b 0965 ac3f
00000170: 9543 b0c6 5579 a5bf 62bc e812 1161 a1bf
00000180: cfbe b866 3bee b2bf 08d7 abc2 f5fd adbf
00000190: b03a 5134 857b abbf 0f53 ca82 15b6 a8bf
000001a0: 259a 004f e88b bf3f 630f a142 1600 b9bf
000001b0: bc89 8043 4942 a93f 7b6b 1fbb d567 a7bf
000001c0: 10ee a85e 68cb c5bf ebf5 b0b1 2d12 c0bf
000001d0: 1f2e 000d c277 95bf 181f e748 ecc5 773f
000001e0: 7ce7 8eac e362 a1bf e94b 71e0 8e54 68bf
000001f0: f8a9 aa63 bca3 7a3f 1ffc 84af 2cef a3bf
00000200: cf01 6e8a 5f8c 8cbf 0e89 3018 f7f3 bc3f
00000210: 7bfb 2e79 48a5 bbbf 8a12 1eac b941 c03f
00000220: 8e84 24af 2a7e c7bf 7cc0 2955 db23 b9bf
00000230: 2db4 722a f417 92bf d907 746a 9d7f babf
00000240: f31f 4014 d126 b43f 32ef ce96 95a6 843f
00000250: 29af bd89 d5bd b33f d993 247b 1fee b83f
00000260: d80e 4111 4086 bebf f548 6572 4a67 b6bf
00000270: aacf a6e3 985e c73f d649 eef9 dc5f b1bf
00000280: 6e53 1524 a1b0 b33f 80a2 7eaf f7fe 92bf
00000290: 658f 6a86 204b 89bf 7254 c5a9 e104 953f
000002a0: 88f2 e813 5487 c3bf 161a ee86 4193 6cbf
000002b0: 4545 b8b3 07aa c63f 6653 7cf7 af7b 94bf
000002c0: 8249 dcd5 d598 a5bf 13ee 9730 79bd b3bf
000002d0: 6e65 2e07 d01a a33f 5ff5 52e5 d4ab b73f
000002e0: 522c bc34 d35e bf3f 9d60 83cd d197 9bbf
000002f0: a2ee a117 9098 a3bf 00a1 5b8e bb7e cabf
00000300: adb6 e994 1753 b83f 2ee7 3a2c 3554 c4bf
00000310: a8c5 9bf2 ed46 903f 2857 62da 3142 bcbf
00000320: 4322 6c3f 6641 c13f adac 3f2c b74a 91bf
00000330: 1fd8 696b 3467 9b3f 50ed f4f5 0b63 a13f
00000340: 7df2 e9ca 23da b53f 2104 9200 6bf6 a0bf
00000350: 9078 faec ef65 2c3f ea4e f641 c064 b03f
00000360: f436 2855 7881 c4bf 5cb6 14d9 9cf6 9bbf
00000370: 2915 9559 43bd a83f fed8 1d70 f2cf c5bf
00000380: 85a6 caa2 3096 873f 79b5 9cae f264 86bf
00000390: 79de e9fd 9935 b4bf 3793 df2e 9fe2 a7bf
000003a0: 3b12 7240 6eef 9a3f 6e75 7312 e7bc a43f
000003b0: 2fcb e907 6909 c03f 0549 f88c e15a bf3f
000003c0: e684 8aa7 3286 a33f 5f10 0c06 4c0c c03f
000003d0: 4955 5920 73ce ae3f 3e5b 68dc b5cd 73bf
000003e0: 16fd ef5c a9ae 58bf 2d6c 9d49 b192 753f
000003f0: 41eb b6a5 1a42 a4bf 4838 fade 9694 c03f
00000400: 93c3 6165 c529 bbbf a42a 202f 9d3a 993f
00000410: 9919 f0d1 bfca 933f 9f12 7009 82b6 ab3f
00000420: 75ce 6576 2f1b 96bf 6581 a929 208a 883f
00000430: 99fc 68c6 a104 c53f 3c95 9273 8e04 9b3f
00000440: a79a 2f1a bac3 b6bf 6eb1 e5ac 9640 9dbf
00000450: 7ab6 d8f6 a0ae 81bf feb8 3ca2 0176 c2bf
00000460: 690b d27e d580 a13f 8d40 a31b 6737 bebf
00000470: ba0d c5ef ee9b b83f 4e6a 4456 1715 b6bf
00000480: 1950 01eb af5d b13f 2283 0d88 7f76 c73f
00000490: f6eb 6b29 4bba a63f 8cf3 962c 62df b03f
000004a0: 7795 76cc 5f30 c33f 7c7b 5495 80b8 c4bf
000004b0: 39e7 d9ad 3e18 8abf 1f38 6cc8 b373 c53f
000004c0: d171 2925 a170 d03f 4bc9 2148 b890 98bf
000004d0: 6dc1 12cd c371 b8bf da22 119a ce96 af3f
000004e0: 07c5 0e4e f735 943f d161 98d5 aa40 b0bf
000004f0: d159 52a0 a73d 863f b8e7 4c84 36c5 c03f
00000500: 1d07 0c38 f0a5 c1bf c417 3994 2530 a4bf
00000510: 9406 956f bbf4 a0bf d6ef 1c50 715c b7bf
00000520: 8980 a6f0 4719 603f ea7a 07ed 421f b23f
00000530: 3ab8 9408 6b34 79bf 68b9 d23a 0f74 c5bf
00000540: f5fe 384e 8ea8 aebf 765c 7918 3f96 4abf
00000550: 3040 985f 20ca a23f 9c8b 3dd4 6cf4 693f
00000560: 281d 2b32 1594 7fbf 7b7d 3f11 57c6 9d3f
00000570: 103a bd03 394a 693f 9718 eac5 c7d9 b6bf
00000580: 87c3 b318 4a87 b1bf 7246 8487 f76e bbbf
00000590: eb8b 918e 7c05 c43f a5cc 2693 ea36 bb3f
000005a0: 3850 d511 f835 b23f 3516 b7bc f519 babf
000005b0: 0fea de9c b140 ef3e 8ffb 47be df6f b8bf
000005c0: 771c 9d38 cb13 babf 4617 d15a 2e57 b2bf
000005d0: d42b 17c5 ea93 c4bf 2da6 5b36 1868 a53f
000005e0: f492 6268 2f00 b33f 8394 8fc4 cd5e a1bf
000005f0: e0ba 7a00 d46e c03f 365f 8aec 3b18 b5bf
00000600: c4ed 9a7e 0237 c1bf 20bc 80b1 8880 b1bf
00000610: c357 8c06 8eb2 ba3f 5470 ec54 a7f3 a8bf
00000620: 751d a89b 4e55 b33f 34d7 6923 f6f5 aa3f
00000630: 5faa 3545 4b33 b23f 5719 443d 0fb9 3abf
00000640: bea6 7b12 f7f4 a53f baf2 87b8 6725 a73f
00000650: 38cf 7a63 bb65 a0bf d968 b7f3 c1ee b0bf
00000660: f7d2 56b9 d471 a03f fcf9 0cce 5da0 c13f
00000670: 016c 49bc 99b2 ac3f a9db af85 73c9 c03f
00000680: 2770 f9f4 cf36 91bf 3799 47a7 4e99 b73f
00000690: a8f1 f727 18fc aabf 8150 24fe aa02 a63f
000006a0: e0c0 a5ad dfaa b53f f119 d00a 478f c7bf
000006b0: 31f9 b59f 3197 73bf 6eb9 b2b1 c0ce b3bf
000006c0: 274f a0cd 0847 b03f 9b4a 8522 9833 b0bf
000006d0: 0ece cf1f c022 a3bf d3ba e123 e34d b9bf
000006e0: 3b09 016d 26dc 91bf 65bd 4175 6b64 c2bf
000006f0: fa77 9541 de98 b83f b9cd 927c b589 bbbf
00000700: f664 ae4e 352d bd3f 9174 61e3 36b1 b03f
00000710: de2c c624 04a0 7b3f 9f25 d8b0 83c5 86bf
00000720: be32 d433 3520 b1bf 36d7 0926 5710 a7bf
00000730: 8839 2812 efe4 8f3f ae24 ee02 0f36 8a3f
00000740: d1a5 0a48 fbdc b43f d67b fbe5 7888 c7bf
00000750: e4ff d70e b84f 2bbf 576c b46e fdb9 c3bf
00000760: 8378 c8ba 8391 9ebf d085 d457 e50b 9dbf
00000770: e724 ae72 5168 b93f 4cc5 deec 075a c33f
00000780: a708 7195 4b61 ae3f 67e3 645b c883 873f
00000790: 0704 a695 03b6 b9bf 05fb 68fc 8dab 733f
000007a0: 586e cbbc 9a62 9a3f 203a e63b 9acd b03f
000007b0: 1641 ec71 6150 b53f d30e fd67 f1b8 a33f
000007c0: 269b a736 4b25 c53f 36ea d316 c591 a53f
000007d0: 71fd 7307 77ba b5bf fbea b737 069c a53f
000007e0: 3d47 7019 022e c3bf 83ec c812 05a5 ac3f
000007f0: 3e1e f73e 6105 b33f a465 9ad1 2860 a3bf
-0.06454416001578797 0.09851353804615728 0.03997543758679031 -0.044533152410391505 -0.06666466439334957 -0.001954506943996039 0.0733156677510985 -0.004350674045111777
0.06361276235141672 -0.06423112994876766 0.06893790408386231 -0.045685191760032676 -0.08004489994200818 0.12440012294000076 0.10050462326768886 -0.10526886657630544
-0.02640926333967757 -0.054423447682538026 -0.0733413756370129 0.06179140324715022 -0.018950772625927592 -0.0323610086228691 -0.04726505641420301 0.03802407685504561
-0.08266411600089255 0.12469602628320939 0.04549467707805173 0.06746806058709229 0.17625647159591057 -0.15210521773014576 0.19399143688802528 0.0618365003714466
0.2135200076842218 0.03179424279099194 0.02827756240140579 -0.04845532414881593 0.12784888734081448 0.01025329495752889 0.06743701384007446 0.1653490695406269
-0.06039648686321689 -0.0021747280556069833 -0.08435455497646611 -0.04671283767636645 -0.0543188313566219 0.0554583458371435 -0.04194133806607351 -0.033943685110323654
-0.07394763238766731 -0.05857818604810744 -0.053676760326756834 -0.048264190879455986 0.12322856835144387 -0.09765757681549085 0.04933384846687569 -0.0457140723153406
-0.17027001020493104 -0.12555476356821713 -0.020964653056621537 0.005803988444718099 -0.033957590879665184 -0.0029700079499348398 0.006503806968491059 -0.038934132028309636
-0.013939615642585416 0.11309761372152513 -0.1079907699449744 0.12700577644513472 -0.1835378031910619 -0.09820338086297115 -0.01766950139124306 -0.10350974892574473
0.0787172960700671 0.010083359398656098 0.07711538899246463 0.09738346821229928 -0.11923599644893146 -0.08751359265196242 0.18257437816430172 -0.06786900617434041
0.0769139016241078 -0.018550748907417702 -0.012350324728067805 0.020526433932293427 -0.15256739589849055 -0.0034881858659361427 0.17706390643483352 -0.020003079872441452
-0.04218166576005712 -0.07710988460888073 0.03731393897687495 0.09246569250804758 0.12254066503025854 -0.026946333092241138 -0.03827333725436445 -0.2069925732714708
0.09501788507051386 -0.15881981525108685 0.015895574505469107 -0.11038505155223943 0.13480833145901458 -0.016886579585769713 0.026760882431027363 0.03395879151727377
0.08535979942275591 -0.03313001996958343 0.00021666101246337445 0.06403733835605477 -0.16020111234723056 -0.02730794024426185 0.04831896275076481 -0.17040853952830298
0.011516933410649752 -0.010934730485667942 -0.07894289444981863 -0.04665086219009711 0.026303980525442788 0.04050371265632689 0.12528717886342508 0.12248048488280368
0.03813322348765684 0.12537527365941778 0.060168836306426395 -0.0048348525947606285 -0.0015064863143832755 0.0052668500228163885 -0.039566834191154594 0.12953458678788565
-0.10610612607139407 0.024637657166787577 0.019328114689437823 0.05412680020530058 -0.021588079072400086 0.011982203742434814 0.16420385540002227 0.026384568981162135
-0.08892405642800814 -0.028566698363122915 -0.008633859189184568 -0.1442262689756219 0.03418605015851634 -0.11803287911175371 0.0961293540358871 -0.086259325562801
0.06783580291204351 0.18330377715303664 0.04439005737909689 0.06590856159796327 0.1499137638431127 -0.16188056270126683 -0.012741555862919906 0.16759345327631167
0.25687435750094517 -0.02398956241854337 -0.09548591381713374 0.06169744139385154 0.019737114085448784 -0.06348674502112962 0.010859784679536329 0.13101846179944032
-0.1378765367190277 -0.03942983087885879 -0.03311715828978126 -0.09125431257137903 0.001965179927722775 0.07078951155515836 -0.006153505420384115 -0.1676043545935031
-0.0598797293173429 -0.0008113678058617863 0.0366983524983201 0.0031683087890299177 -0.007709582134970895 0.02907691996358384 0.0030871499601865596 -0.08926056463141872
-0.06847060301858053 -0.10716197069657499 0.15641743623117974 0.1063067063576449 0.0711360019243451 -0.1019586168032099 1.4902453496880496e-05 -0.09545706172501255
-0.10186452991648474 -0.07164277760702217 -0.16076407073555166 0.04180980361509188 0.07422157572234395 -0.03392642044472274 0.1283822061863793 -0.08240103268542218
-0.1344912641705901 -0.06836752255979706 0.10428702983730802 -0.04873392974533944 0.07552043247425451 0.052657787154130636 0.07109518470466857 -0.0004077589230892151
0.04288456059096067 0.04520725371910346 -0.03202615346290688 -0.06614315223797308 0.032118461250695 0.13770649491375753 0.05605011390135673 0.13114780452425848
-0.016810654952095796 0.09218303283669092 -0.05270457733056172 0.04298910476987406 0.08463857640686312 -0.1840599825665801 -0.00478286156010048 -0.07737354601224464
0.06358389873667801 -0.06328726618566309 -0.03737450016333464 -0.09884471536654908 -0.017441368487433478 -0.1436895678084326 0.09608258343857293 -0.10757002154678376
0.11397107287338656 0.0652040772560716 0.0067444002019201015 -0.011118916353569484 -0.06689770236352907 -0.045046542542804976 0.015573375455485886 0.012798421170162246
0.08149691113307901 -0.18385230283362713 -0.00020836946298174932 -0.15411346345431085 -0.02985196902783872 -0.028365691648223834 0.09924801873980336 0.1511850267975582
0.0593360538409951 0.011481824196936065 -0.10043356326606566 0.0048022791220876425 0.025766771100150215 0.06563724481950617 0.08325776130027793 0.038520378059300996
0.16520061653792445 0.04212776092204644 -0.08487647945366007 0.0422059958472882 -0.14984155885809428 0.05594650129611358 0.07430084025610825 -0.03784301336890941

net.net.hidden_layers.2.bias f8 [60]
00000000: a6d5 270e 8b66 b2bf 8914 7315 ca8b c1bf
00000010: b6ca 5293 e715 893f 1fa4 5343 a8dd b6bf
00000020: 8456 4a39 7bc5 b03f 3c40 11f2 f046 c8bf
00000030: 63cd 9f57 7dab b13f b0b9 b52f 7e81 b63f
00000040: c616 244a fb79 adbf c8e0 9996 475c af3f
00000050: 11eb 41f9 c0ff a73f a46f 7993 b761 713f
00000060: b1f3 fbf8 0c31 a33f 5bc8 2191 0efc 71bf
00000070: 2237 3d29 4461 ba3f f32c 2c06 2e9f a7bf
00000080: 1307 1ced 4bc9 b43f 36da 40d5 7569 91bf
00000090: deea abaa e3a5 b9bf 4861 56db 98c6 a33f
000000a0: 046c d953 d2db 03bf c419 c713 3767 a23f
000000b0: 479b bb42 9439 a73f 40eb a138 719f c33f
000000c0: d473 80b6 0d7e adbf f16b 192c f4eb 9b3f
000000d0: b644 fbc6 2d01 afbf 4473 1b98 f0c7 b93f
000000e0: 078c c025 9b1b a0bf f695 d7f8 ea07 9c3f
000000f0: fe77 c1a7 25d3 b13f 859c d13a 969c bd3f
00000100: 51b3 43dd bec0 c6bf ee05 8ae2 1dfa bdbf
00000110: 998e 9233 de46 bf3f b7b5 2d68 8d37 b93f
00000120: 20d4 5c22 1cf8 b1bf 1edf bea1 0419 a13f
00000130: d284 620f 814e 913f 6495 2ed0 b5e1 b83f
00000140: 6af1 0b5d f847 ac3f ea68 4cb9 4c65 ab3f
00000150: 71b6 955d 9ba6 9abf 8907 ef9f 0c12 a53f
00000160: 884b 6c47 77d8 b1bf fdd8 22a0 436e 99bf
00000170: a25e a165 4a09 b93f 743c d604 9fa3 b03f
00000180: 2ad5 1ccb 4e98 c93f acc5 eba7 5620 c63f
00000190: d489 541b 552e 97bf 0209 8be6 279d 78bf
000001a0: 80c7 6a8e b853 bb3f cad5 3f41 f0c6 c83f
000001b0: cde8 d77e a6ba b6bf 2d97 ce69 8b94 c8bf
000001c0: afd3 0b4b daba c33f fa9b 8a08 d9b5 9bbf
000001d0: 30e0 9729 f168 9a3f 481f 890a 13b5 b73f
-0.07187718482585712 -0.13707853362408098 0.012248810943082371 -0.08931972163885903 0.06551332615557653 -0.18966495341965295 0.06902297391188976 0.08791340508262269
-0.057571270752345735 0.06125091279403844 0.04687312166875846 0.004243580907850406 0.03748360194547418 -0.004390770818746582 0.10304666525663866 -0.046136320355879244
0.08119654215627418 -0.017003861561727805 -0.10018752018724394 0.03862455060442699 -3.7877422511122e-05 0.03594371906688168 0.04536116900071945 0.15330329194315517
-0.057602337387130526 0.027267279807670467 -0.06055586866353606 0.10070708955340729 -0.03146061740724098 0.027373954237097174 0.06962809892272045 0.1156705754852841
-0.17775712779930555 -0.11709772854558029 0.1221751094731708 0.09850391190931061 -0.07019210661822273 0.03339399790223595 0.01690103203202826 0.09719406445090822
0.05523658881972689 0.053507230395739416 -0.02602617987343198 0.041153330348165325 -0.06970925801969774 -0.024834686898167913 0.09779801350793574 0.064996660881876
0.1999605647812726 0.1728618926932034 -0.022637681763748876 -0.006009250508841159 0.10674622990589278 0.19357112108234126 -0.08878555866968725 -0.1920332209239687
0.1541397921024816 -0.02706088175423458 0.025790947116519358 0.09260672576158158

net.net.hidden_layers.3.weight f8 [60, 60]
00000000: d873 82c4 8041 abbf 298c 3efe 1e18 a6bf
00000010: 9ddb 699b 8a0c c5bf d964 8561 8ff9 c5bf
00000020: 2436 c1ef 1436 c6bf 4254 2d35 7013 8ebf
00000030: 6688 c2ca 739a a73f 7e7f 9d49 d04c b1bf
00000040: 5d98 35ab 4178 aebf 88b9 101a f759 c3bf
00000050: 311b e3e1 38a0 c03f 9879 f59c f071 c3bf
00000060: a7f8 3f81 5b47 c2bf 2ab3 34c9 b8cf ba3f
00000070: 8bb5 a690 733c 73bf a1fe 6769 3cc1 be3f
00000080: 0a8f f2ea 9e0b adbf 4eca 8b6d 08bb a83f
00000090: f357 ed03 2ef7 abbf 87da aba9 f48b b0bf
000000a0: 0681 4914 d81d b5bf 0cb5 a6b8 ecca aebf
000000b0: c212 ca26 e4bb b33f 86ef c593 df9d aebf
000000c0: 76ec 000e 593e b83f 26ff 9233 fda6 b8bf
000000d0: cdff d88b 2884 a6bf 9944 8ff8 bda0 a53f
000000e0: dd29 0e18 ef9f a3bf 1fe9 8a04 400b b43f
000000f0: b4a2 6cb0 138c b7bf 610e 0143 2b53 c6bf
00000100: 2cdf f12d cff5 bcbf f4be 7a31 893d b0bf
00000110: 1b8e 490e a5d3 9d3f a79c db99 5a22 c3bf
00000120: 4d89 0958 5861 ab3f 7cce ec6c 2c50 ba3f
00000130: d0d5 03b4 e15a b7bf c6a6 f81d 7b3c a83f
00000140: 904d feca 0f71 8abf b911 e2da 9712 b2bf
00000150: 1581 d1c7 2629 adbf 4d72 516b f447 b1bf
00000160: fe65 564d b7cf b83f 554e 91b1 1d38 b1bf
00000170: baa7 a540 6dc1 ad3f f021 0af4 289b bc3f
00000180: 99ac d599 aa8f 913f ecbe fbfe 7463 b73f
00000190: fa1f 860e 2762 bebf e86b 66f6 d41f b6bf
000001a0: ed33 e87b 71a3 7ebf a3cf 26e6 2dfd b83f
000001b0: 058a 36b3 ebfe b8bf dd86 8e14 3410 85bf
000001c0: 2822 819e 807b b1bf 901d eb8d b149 c2bf
000001d0: 944f 0268 fb47 b83f 4375 2e0a e71f 86bf
000001e0: 6398 7360 4372 a43f bcef 68c8 6058 ba3f
000001f0: 665a 795a d6b1 af3f c12e 5c24 0e0a b6bf
00000200: 73e8 3987 1f0d b23f 70b1 8046 759e 963f
00000210: 5406 b4df 95ef a8bf 0c88 9318 e559 993f
00000220: 6122 e90f 2ffd b63f 5fa7 b874 bc86 c23f
00000230: b8a2 6a33 c438 80bf 8c4d 01b6 205e b13f
00000240: 98f9 3559 a2bb bbbf 9aa5 86bb 6c92 a13f
00000250: aca7 b77a 1308 bf3f cdd4 297c 95dc a93f
00000260: 7986 e9a4 f0f1 a5bf 1110 23fb 1ca8 b23f
00000270: 6ab0 7186 a5ab b43f 1b02 2195 62c0 903f
00000280: 552e 53f9 8362 c73f e51e 74f0 54c3 483f
00000290: a401 e255 024a 973f 4243 07bb 067f b6bf
000002a0: d290 5902 ccfd b13f 4036 cb16 3840 b23f
000002b0: 93d1 e711 0ef5 903f c76c 6037 3442 b83f
000002c0: c725 f217 d950 5cbf 439a a44b 5fda af3f
000002d0: ef40 f61b 4da3 91bf ddf3 9606 4d7b 9b3f
000002e0: 943e af41 8292 ad3f 7337 ebee 8ca5 723f
000002f0: 9a40 e268 fc5c bd3f 6fa4 85e3 e883 43bf
00000300: 152f 849b ff2c 9b3f 5c77 5036 f56b c53f
00000310: ddae 1f1f 580e b2bf e1e4 b7b6 05a6 9ebf
00000320: ee1c 51f4 7c5e 41bf 3dbf cfae 68d4 b7bf
00000330: f433 f5ad 5aeb a83f 95fa 32c9 28a0 a4bf
00000340: 3414 298d e546 8cbf 7d64 fe13 4d9e a43f
00000350: fccb f608 9d2f ab3f 9dcc 085c 1540 bbbf
00000360: 88a3 5c10 7b2f ba3f 7e80 0048 3784 a7bf
00000370: 8f7b ed09 9531 c03f 4e0c 7ed8 2164 92bf
00000380: 9bab b172 c72d 9dbf 0758 98fd 5d7f bb3f
00000390: d9b7 4851 e937 a53f 26f9 c545 8163 c9bf
000003a0: 083a 0a83 2815 bebf 116a f0d3 bf20 a8bf
000003b0: f4b8 1de4 a31d 75bf faa3 c3a6 e116 9fbf
000003c0: da45 bfde 4d1e b1bf bc41 2ed4 9553 c9bf
000003d0: 1377 4997 4796 d0bf cc4f f732 6367 c6bf
000003e0: eb18 b26e baf5 a53f 1c01 7d9f 9afa b8bf
000003f0: c5a1 cd96 21be b9bf 58c6 9ce4 a541 ac3f
00000400: 0604 3537 29b9 c3bf 6063 7af3 57f4 a7bf
00000410: 003d 1105 6bc6 b4bf d15f 665f 6dbb babf
00000420: 8eb5 9a54 3d4e c4bf 7b69 8c3d 89c4 823f
00000430: c056 2e31 c78e ab3f f2af 4309 3b18 acbf
00000440: ceb6 bcee 1e6f 9c3f 3c7f 6254 834b 81bf
00000450: b88a 12bd 299a cbbf 8d6c 99e2 411c b73f
00000460: 033c 51da ba3a afbf 4029 8623 0bf4 b0bf
00000470: 37ba 4d9a 8dff a9bf 23d0 1a14 c8a2 c13f
00000480: cdbf 6cc4 828f 543f 5f21 0491 51f8 c3bf
00000490: 663f 136a 0f88 c7bf 0413 04ed daf3 9a3f
000004a0: a20d 9bfa 0485 d0bf 8d85 4a13 562f bebf
000004b0: 2bdd 43b3 cf04 9fbf b381 fc64 ab3e c1bf
000004c0: 06b6 154d 33a7 a1bf 7181 770f 7945 bdbf
000004d0: 9cc8 3d83 c5c2 cc3f 342d 2283 1be8 bb3f
000004e0: 4da5 a950 0d88 af3f b451 9ab1 116d a5bf
000004f0: 3715 a8ef 47c2 bdbf 899d 945b a8e6 6c3f
00000500: 41db 5a09 a82d 5ebf 3213 5389 780f 993f
00000510: 58e5 cbba a82e 60bf e37e 7a7c d99d c2bf
00000520: bdc6 b203 09fe b53f aa20 64b4 f295 aabf
00000530: fce2 d501 3a6b c83f 3c3e 9171 bb7c acbf
00000540: 6592 310b a0a8 c2bf 563f 973d cad9 a13f
00000550: c0a5 14df fb2e 99bf 3628 b5f2 85ee c13f
00000560: 2e50 7b6c 29e2 c93f cb42 1c71 0809 cc3f
00000570: 0467 c705 a54e c6bf c661 32df ff7f a33f
00000580: 39ff dc85 f831 a23f 379e 60bf 5d92 cfbf
00000590: 49fe 298a 45a6 b73f feb5 365d 13c1 9c3f
000005a0: 704d 429d 2071 b83f 0020 78bf 5d43 a83f
000005b0: c5ed ece5 a495 b5bf 452f 46ba efeb a63f
000005c0: 0282 583d a708 c63f ce9b 00b9 83dd b23f
000005d0: a6ed 0699 2fdc a4bf ddf3 0b5b 518f c53f
000005e0: a4bc e310 d0c4 ccbf d1fe e3fa f80b a7bf
000005f0: 120e 1cf3 4f14 c23f 4e75 27af 3c20 a8bf
00000600: 2476 98b0 9e25 723f a107 5746 0b7c b5bf
00000610: 426b 701e d6f7 bebf 7a7e 455d 2b9c a1bf
00000620: e038 ac94 e1c7 70bf 9942 7721 a611 b33f
00000630: 48f3 6713 20a7 b33f 6dc9 c2cd 52a4 c23f
00000640: a7c8 0aaa d67d 86bf 5975 03e7 dc50 c4bf
00000650: 15a2 501a 4478 7a3f 4b3c 78a9 1730 af3f
00000660: ecf0 f30f 169b 91bf 1399 dce3 3864 c53f
00000670: 317f 99e6 9bed b33f cdcd 5b4e d71e 9fbf
00000680: 18b3 0aa2 c952 b6bf 7da6 3247 d193 afbf
00000690: 1ee3 a84d d05a 9d3f cef3 60d5 22d0 a7bf
000006a0: d623 3893 575d b2bf ecec 3e59 7104 7dbf
000006b0: b7d2 79aa d4e5 bfbf b95e e1af ade9 c93f
000006c0: f01c c155 9f22 b23f 58ad 54b2 7c3a a4bf
000006d0: c0d8 91c3 75a5 bcbf c183 ceb9 1f81 ac3f
000006e0: 1213 39cb 6e57 a63f 9ae7 4368 cc4c bc3f
000006f0: 13b1 8e58 6199 b33f 31b5 d876 b404 9cbf
00000700: aafd caa8 642d a9bf f622 ebe5 50de 873f
00000710: deeb 9822 7cea 653f db1e eb25 0ef8 b4bf
00000720: dba0 b72f 04b6 a43f d0ca b001 cc8f abbf
00000730: 15bd cf3d ac0c 88bf 9eb3 7e14 949b 733f
00000740: 021d 8a23 1bd4 b13f a286 0697 5405 733f
00000750: dc24 2456 e622 a13f 2666 3198 3cec b13f
00000760: 8c55 b501 b751 c3bf 34c0 311b ef6e 82bf
00000770: 4e74 3f00 1639 81bf 888e 3274 f44a a8bf
00000780: fbab 5252 4b5c c73f b75e 132a 45f0 9bbf
00000790: 9cbe f361 e9de c73f 5ca0 9ab9 2fc0 603f
000007a0: da45 f40e d76f bd3f 88dc a94d 086f b1bf
000007b0: 9c6a f412 5823 c13f f1a2 a643 872e b93f
000007c0: 5c89 24ee 85bf bf3f 3bca be9d 6968 c2bf
000007d0: 56ed 4ae8 7013 c5bf c074 2060 ef44 c53f
000007e0: fc75 5bbe c664 9b3f 90b5 28fc 939a cebf
000007f0: 8bf0 c18a 4dd5 973f f81d b3f3 c746 a3bf
-0.05323412321852289 -0.043152779136356685 -0.16444523418951187 -0.1716784692933178 -0.17352544504903833 -0.014685513136706633 0.04610025262924537 -0.06757833287474388
-0.059511234426097494 -0.15118302128525962 0.1298895934071083 -0.1519146696472944 -0.1428026562788933 0.10473208343746579 -0.004696322847320809 0.12013604710954918
-0.05672928445826926 0.04830194794876218 -0.0546202068132259 -0.06463555471769143 -0.08248663420954835 -0.060141942539624876 0.07708574244504532 -0.05979822806236172
0.0947013529957291 -0.0962980509675587 -0.04397703845143006 0.04224198970008181 -0.03832957428592796 0.07829666243461418 -0.09198115403399748 -0.1744131161850531
-0.11312575217914106 -0.06343896348948502 0.029127673146275606 -0.1494858981379583 0.05347705912278631 0.10278585109045396 -0.09123049397370342 0.04733643284664661
-0.01291096056210142 -0.07059620946717517 -0.05695458592595252 -0.06750419254371672 0.09691949499246985 -0.06726251206537744 0.05811635412358336 0.11174255331037108
0.01714960636074334 0.0913613436239264 -0.11868518929088614 -0.08642321601512004 -0.007480090424462721 0.0976132094281739 -0.09763978123968549 -0.010284811856596071
-0.06829074735390661 -0.14287394933328956 0.09484835900576477 -0.01080303668805505 0.03993425896060001 0.10291104214496632 0.06190366606158619 -0.08609093082139464
0.07051274348660445 0.02208884470762612 -0.04870289188148705 0.024756984353082642 0.089800778755611 0.14473682116777817 -0.007920773333652917 0.06784252589686995
-0.10833182027815835 0.034320257083275865 0.12121698137312248 0.050511046797433325 -0.04286148083771208 0.07287770396493466 0.08074411899878134 0.016358890869243674
0.18269395517414702 0.0007557072393930801 0.022743259899017723 -0.08787576738474193 0.0702788835274675 0.07129240566720174 0.016559810488574533 0.09476019241303667
-0.001728260045441453 0.06221292303444106 -0.017224507171307243 0.026837543036652412 0.05775839855016077 0.004552412529575156 0.11470010338439565 -0.0005955588485849881
0.026538843028034515 0.1673571124273917 -0.07053137550218076 -0.029930199887506673 -0.0005300626877521566 -0.09308485286578345 0.04867061017521471 -0.040284418640557686
-0.013807099695563797 0.0402702414423368 0.05309763655113639 -0.10644658562596239 0.10228699826678966 -0.04593060258798774 0.12651312813519808 -0.017960099066396666
-0.0284949458841016 0.10741221848761039 0.04144219510304454 -0.1983491507234671 -0.11751034926621895 -0.04712485754153673 -0.00515522022202063 -0.030360723308067585
-0.06686865509188725 -0.19786331997285156 -0.2591723420535896 -0.17503013599946227 0.042890382778795054 -0.09757391351468353 -0.10055742198677027 0.05518835464171151
-0.1540881652418024 -0.046786068412251636 -0.08115261911119731 -0.10442241267298803 -0.15863768225737512 0.009163925352869686 0.0538236854110159 -0.054872364884289385
0.027767642327652102 -0.008444810879438706 -0.21564218265583235 0.0902749231549242 -0.06099494853025791 -0.0662238084534339 -0.050777840696231306 0.13778019887615853
0.001254918768335489 -0.15601558285585335 -0.183839728159451 0.026320858684829154 -0.2581188628502905 -0.11790979357694749 -0.030291791264031403 -0.1347250216576988
-0.034478762779013336 -0.11434132220847971 0.2246939555003039 0.10901042891980667 0.06158486947681272 -0.04184775631907503 -0.11624574280729837 0.0035279548871078354
-0.001841940019785063 0.024473079091666246 -0.0019753737927856 -0.14544218614627544 0.08590751972476603 -0.05192526294746476 0.1907722958528878 -0.05563913117714178
-0.14577103182377296 0.03486473085251755 -0.02459329175068148 0.14009165144881458 0.20221441075284602 0.21902566454857317 -0.17427504331754318 0.03808593368120543
0.035537496891718985 -0.24665424198723127 0.09238085387368601 0.028080275120080593 0.09547618712740813 0.0473889633395288 -0.08431463826575854 0.04476880215506055
0.17213907714268833 0.07369254366550068 -0.040742385320722094 0.1684362120212474 -0.22475624870955813 -0.04501321852330665 0.141244882303099 -0.0471209491549681
0.004430408365377701 -0.08392401187214073 -0.1209691833795832 -0.034394602904964836 -0.004096871542755148 0.07448805157697293 0.0767688796403948 0.14563975378912222
-0.010982205452226458 -0.1587177398677493 0.006462350870642304 0.06091379111978109 -0.017193169330298838 0.1671210396390924 0.07784437541840529 -0.03039108672869677
-0.08720073896502034 -0.06167463296999374 0.02866673921582496 -0.04650982718201356 -0.0717367872640716 -0.007084315078766706 -0.12460068857201177 0.20244380081088822
0.07084079593288428 -0.03950872113122256 -0.11189971947337352 0.0556726373972718 0.0436358092379462 0.11054685159243008 0.0765591469959797 -0.027361697915855025
-0.04917444763622865 0.011654502884441236 0.002675287677246881 -0.08191002298110155 0.04045117456900168 -0.05383145828854696 -0.011742921482407223 0.0047870430352475995
0.06964273088134479 0.0046437553686772565 0.03346938897636573 0.0700109359326225 -0.150931239923619 -0.009000652329831473 -0.008409664042057365 -0.047446860489142983
0.182504096218821 -0.027283745472998357 0.186490223720729 0.002044766629143919 0.11498779406635809 -0.06810047050554335 0.13389111447834956 0.09836621667512781
0.12401616157561562 -0.14381141855626986 -0.16465579359451493 0.16616623109522344 0.02675161873673025 -0.23909234821750802 0.023274623483744022 -0.037649391649718866
