networks/test_1D/test_fe1_v2.pth (torch, 685023 bytes, 57 tensors)

net.net.hidden_layers.0.weight f8 [20, 4]
00000000: 8373 fe4d ae9a c03f b408 8c22 865a c43f
00000010: 949c ebf6 ae11 bfbf 758d 064e 4ac7 c3bf
00000020: d986 f554 e250 e13f 0084 c4f3 a073 d33f
00000030: d5dc d60d 6643 c1bf b887 671d 2fc1 dcbf
00000040: dd26 1166 39c5 d93f cf67 5573 2bea c5bf
00000050: 789c a9a8 adcf c8bf 550d a9af d8e0 ba3f
00000060: e353 e243 96b6 dabf 275b 96b1 52c1 c83f
00000070: 6629 9739 6e57 d2bf 3c90 1559 3065 b43f
00000080: a3be b6b7 2ba3 c83f 5cdf 8705 957a d8bf
00000090: a84c f03c ca81 dbbf 2d7d bad9 e950 d73f
000000a0: daa2 f268 a17f db3f 5da4 8aca ed67 d8bf
000000b0: 8993 0219 ffed 853f 4cf9 3987 be1b b33f
000000c0: b8d0 d6d9 a800 bebf 7a14 fc74 db17 b0bf
000000d0: 7f18 537c 705f c03f 6aac 39eb 2ea5 d1bf
000000e0: 7a66 19a9 93b4 dc3f cdd5 f9c9 abed d0bf
000000f0: 6037 c8cd 3e8e c53f 9601 4e7b 4cc4 d43f
00000100: 98c5 d0fa e049 963f 13ae 2bd7 aa93 cabf
00000110: 7e89 dcc0 d72f a6bf f4ff 6e55 6344 cfbf
00000120: cd0c ae92 7eaf d4bf 4ca4 7df2 da8e 903f
00000130: 73d3 00c6 2183 d13f b7e6 e35a 7727 d3bf
00000140: bd7d 4b28 bb4e cebf 926e 31fa e429 d53f
00000150: 1479 7aea de87 bd3f 44de 91e6 87b4 d63f
00000160: 902f 05fc 4130 e13f 03ce 1e3e 1e67 d3bf
00000170: 735f 36d8 4386 d3bf 7b0a e665 94c4 c03f
00000180: 8431 daf3 af04 c13f ab69 7530 e3b8 c7bf
00000190: db5b 092a 0c13 b43f 6134 9c1d 6a51 b83f
000001a0: 3b84 fc06 ea27 dc3f 9a4e 4af6 1f35 d43f
000001b0: 0609 1d73 0532 d0bf 3dbe e8a9 5490 d43f
000001c0: 0098 a38b 97fd c3bf ab8b e2ad aa72 bf3f
000001d0: 8077 0233 c537 d03f 2769 85c3 a742 b0bf
000001e0: 8791 ef8c d9b5 d8bf f7ff f092 63f9 d5bf
000001f0: 416a 1764 cd9d b9bf 7976 d010 aa5a bf3f
00000200: cdc5 9d8c 81e8 89bf a47c c1eb 4c5a 833f
00000210: efdd fee2 20dc bf3f 40ae 0ae4 80b4 99bf
00000220: 90fb 5823 74eb d23f 4c90 b015 9630 c9bf
00000230: 207e a88b 1093 b2bf 1157 7a5c f3ba d63f
00000240: c24a 0beb b38c d13f 461c 4ea7 4a89 b8bf
00000250: 9e9e 8c6d c19a c93f 7cc2 e210 994b a9bf
00000260: 515a f6d9 b781 b5bf 5ff9 14df b3d5 a6bf
00000270: 69cd 31cb 8cd8 d0bf ccc2 76a6 1707 d83f
0.12972048576639503 0.15901257216325393 -0.12136357811287929 -0.15451935586780122 0.5411235484463887 0.30393241696771156 -0.13486934352633875 -0.44929101821446293
0.4026626106975593 -0.17120879298710043 -0.19383784041858454 0.1049933842523861 -0.41739422444635305 0.1933997504354121 -0.28658633827276103 0.07966901945980082
0.1924795767822519 -0.3824818185817003 -0.42979675246278726 0.36431356680437227 0.42966494797523824 -0.38134331492853396 0.010707848501917432 0.0746420936720586
-0.11719756429994532 -0.06286403280326339 0.1279125792554545 -0.27570698710650865 0.4485215331420488 -0.2645062897130089 0.1684034828944574 0.3244811252734733
0.021766200359882498 -0.20763144976022882 -0.04333376149431255 -0.24427453681528244 -0.3232113296910029 0.016169949579680584 0.273628657686735 -0.29928382755279465
-0.23677768199466512 0.33068203385276107 0.11535447334833676 0.3547687293680364 0.5371408388395924 -0.30316883150518964 -0.3050698863457832 0.13099913573758556
0.13295554549075572 -0.1853298174490424 0.07841564203532363 0.09499228690056462 0.439936167547845 0.31574248363288293 -0.2530530571131212 0.3213092479008742
-0.1561765128928414 0.12284342522848017 0.25340394956025847 -0.06351707957711437 -0.3860992313696205 -0.34334649419542934 -0.10006412213935169 0.12247717772012291
-0.012650501350182442 0.00944957823247556 0.1244526437939084 -0.025102628630220503 0.29562095119393295 -0.19679523524348708 -0.07255652818320657 0.35516056090396925
0.27421281770254435 -0.0958449037990344 0.20003526543699918 -0.04940489131093259 -0.08401059218736263 -0.044599171621018334 -0.2632171615907369 0.37543288475266645

net.net.hidden_layers.0.bias f8 [20]
00000000: 5260 3619 2306 ae3f 2de7 6f97 6c17 c1bf
00000010: 9d13 7b07 9048 cb3f ccca bb76 6896 a1bf
00000020: 4eef 46ab 4013 c23f 0f0a 3f0e aa66 cd3f
00000030: 3607 0690 b23e cc3f 6274 5aaf dd46 d8bf
00000040: 404b 39fd 2003 673f 7d98 dcc3 88d5 cb3f
00000050: ecae c9a2 1608 c8bf 6c4e 0422 1b58 d83f
00000060: 56f8 2aee 164d c73f f1e0 f4b8 1b14 ddbf
00000070: 8cf1 d796 8af3 cb3f dc94 bfa4 7402 d23f
00000080: 8041 aa53 b536 b5bf 03c7 d30b 4086 c03f
00000090: b1cd 4917 372f c43f 5c70 82ff b3ec bf3f
0.05864057238358157 -0.1335273494185513 0.21315193524619938 -0.03435064744362179 0.141212543136016 0.22969556518189946 0.22066337616348058 -0.379325314754004
0.002809109146065053 0.2174540478092161 -0.18774683903335843 0.38037756273226964 0.18204008702554358 -0.4543523126808529 0.21836979260832512 0.2813998803015474
-0.08286603252986957 0.12909699037077624 0.15769089352725765 0.12470555294061242

net.net.hidden_layers.1.weight f8 [80, 20]
00000000: 16c2 836a ecb2 b03f bdf0 536f 837a b1bf
00000010: 8dcc 5360 8f76 c83f a201 0bd8 0163 62bf
00000020: 19e9 2ae2 f323 cdbf 1878 2ffa 7439 c53f
00000030: f290 8987 6dc1 bdbf 39f0 13b1 068d aebf
00000040: f1a9 e62d 15d5 bbbf 0279 7b7a 640e ca3f
00000050: c66a 6787 e7cf b8bf 2277 5182 9981 94bf
00000060: f3c5 a039 dac4 c9bf 2bb5 e464 3b81 c03f
00000070: edd1 1917 4184 c23f a5e5 ce41 9264 cfbf
00000080: db31 cf63 641f c3bf 229a 8216 74a6 cdbf
00000090: cbde 08e9 5740 b73f 5330 d31e 1e3c cd3f
000000a0: e471 8230 3fc0 cdbf 79a9 3de6 2071 ad3f
000000b0: ff6f 3625 494b cb3f 4996 1507 ae65 953f
000000c0: e90e 0ef2 c1df 833f eb4a 5c7e c616 c2bf
000000d0: fd48 b75e b0a3 be3f b7e6 d1ea 6bf5 ca3f
000000e0: aa2b 351a 2e3b c73f 64dd ef55 42a5 b5bf
000000f0: 57f6 78f5 0213 a8bf 4f9f d1aa b9b6 c53f
00000100: 4882 4742 d201 c43f 0a4d 0914 487e ccbf
00000110: 9d47 19d2 8e93 cf3f ce73 0238 0518 b03f
00000120: fb15 8979 47ad b63f feca 0ba2 6754 bebf
00000130: d848 0d4e 4fe6 ca3f 4883 5ec1 bbd6 b0bf
00000140: 4129 38f7 b03f 92bf e537 e7d4 95b8 bcbf
00000150: be76 678e 9fd8 cbbf 2d00 9b30 8161 c33f
00000160: 6874 a607 c31e 71bf b832 97ef 825e c8bf
00000170: f8f6 1b9b a8ca be3f c204 46e6 dc8a cfbf
00000180: 98a6 971a 942c b73f f9de b122 553a b13f
00000190: 689b 12d9 5ef5 ce3f ae90 68f4 7664 bf3f
000001a0: 0dfa b7f4 a606 c4bf f8af 9e9e 2349 70bf
000001b0: ea71 efc4 7f3d a3bf d810 183b e243 c43f
000001c0: 278c 4271 7899 c13f e4f7 a3de 4eff c8bf
000001d0: 9e2a b205 e2e6 adbf c2fb 22f1 17a4 95bf
000001e0: 968b e7e2 acad c2bf 000a b571 c491 cd3f
000001f0: 6cd7 aee0 c68b c1bf 11c1 05c5 6d95 a93f
00000200: 47d2 23af 6f3e c73f 0f5a 9523 5ad2 ce3f
00000210: 30d1 548b 69a2 c4bf a2e3 ec61 a847 c23f
00000220: 3084 709b 49a0 c9bf a882 23ec 2dda 933f
00000230: 2ba9 7c71 28ec b63f db2b 604b 830c a23f
00000240: c299 f572 2036 c63f 82b5 e12c 8060 d13f
00000250: 9679 25d2 9799 b03f 08cf 5aa2 cfd2 d1bf
00000260: 1509 5a09 3bf9 b83f 68b9 a723 1970 c5bf
00000270: a65d aee7 a7b7 c23f 76b4 34fa 1818 b13f
00000280: d879 5249 646e c63f 34c1 eb28 8334 c93f
00000290: 3417 b164 5609 9abf 97c8 6353 05b3 c1bf
000002a0: 530e bb7d e13b b0bf c765 91fa ecd6 a33f
000002b0: ae59 d23b 145f a8bf dbf3 1b2d 2bd5 b1bf
000002c0: 5b91 dc8c 0d1e 98bf 9b4e 283a a59a b2bf
000002d0: 5b0b 2be3 a654 ce3f 36ee 25f2 9242 cabf
000002e0: e484 ee73 00c5 6d3f 8a6c a4d2 c16e c93f
000002f0: 0194 05aa b3bc 953f 79ec 7a47 942a b93f
00000300: a97e 9f00 f27d c63f 3997 a014 e500 a63f
00000310: 8cdd 14bf 1256 d0bf 519b e283 39e8 cb3f
00000320: f9f2 750f 3ea2 b9bf 48cb 39aa 361b bdbf
00000330: 57b9 2e1f fd7c c3bf 8c28 ef1f a3d4 bfbf
00000340: 110e 15dc 2cd7 bcbf 2590 231b a595 b23f
00000350: 46a2 8991 d69e cabf f9ab e0d6 8e41 c33f
00000360: d49d 9fb7 9ed0 a23f c919 6757 fe46 ccbf
00000370: 2b5e 97b1 59fc b13f df67 8075 9645 d1bf
00000380: a8ae 4157 4364 9b3f dd73 7ffc 0abb cebf
00000390: ec75 439b 7d9d b7bf 73b6 3444 29cc c13f
000003a0: 9b67 0304 7605 bc3f 0d17 5380 d61a c33f
000003b0: 18ee e98f 2d37 a1bf 02a9 cf11 108f bd3f
000003c0: 4b76 2361 0c14 d1bf 47b8 9fa5 0729 d53f
000003d0: 042e 6286 57b0 c83f 4b3f 4c91 8999 b73f
000003e0: 7ba8 d442 fa01 c5bf 82bf fb8c 882d a73f
000003f0: 2406 1a41 27b5 cabf b47d 2c81 f6e1 d13f
00000400: 050f e888 8c05 c8bf 1f79 d42b 3087 753f
00000410: 25cc 6c6d e03c b03f dba1 37a0 70a8 c93f
00000420: 5e54 be75 8fc6 c8bf 14f4 8825 5967 c03f
00000430: 0960 4f14 f878 7e3f f2ef f5ed a3c9 d1bf
00000440: f87d 809a 0562 a23f e682 cabc fbd4 c0bf
00000450: 7f0c 8375 2919 ce3f f519 2ad7 0159 c4bf
00000460: 2790 f71a 1be9 c23f a2f9 0584 3c84 ad3f
00000470: 4c50 fa15 5c5c 9abf 76d3 b7fe 73fb c3bf
00000480: a33a 2f93 5736 bdbf 11c5 40b0 b9d1 c83f
00000490: 8cba 1da3 b4fd c6bf 1916 25d1 f863 c8bf
000004a0: 3dc2 be9c ac48 b43f 63ac 86a2 071f a83f
000004b0: e269 4123 e962 bf3f 99f7 aa58 37ac c2bf
000004c0: b0ad b87b 2f88 c3bf 2510 f7f9 3bfc b4bf
000004d0: b765 58f6 40a4 b43f 92c9 c100 e47f b03f
000004e0: 3daf 0cd3 5a48 323f 01a5 967d 059e c8bf
000004f0: 8841 7896 bf7e b1bf 9af1 fd93 1db1 b03f
00000500: 5f0f 831b f6b9 c73f d5e6 3183 75bb c03f
00000510: 9480 ea36 640a c73f c854 2f4d 9c19 d0bf
00000520: 0784 34c9 9a12 aa3f 9825 d8bc 051f a7bf
00000530: fd68 86d7 d8f8 94bf a2e2 a38e 1d3a cabf
00000540: de69 d438 924c bb3f 6a8b f548 f890 ba3f
00000550: daef b4d8 52a0 c4bf 9fc4 a583 dea7 703f
00000560: 6ee1 9285 c611 c5bf 51b8 12fe 8657 c0bf
00000570: b5e2 cc04 7954 bf3f e439 da36 eec7 b1bf
00000580: a48b 61a1 9d65 a83f 2c9c a2fb 8d17 a9bf
00000590: 276b 4378 0320 b93f eb8b 637a eb8e b53f
000005a0: 106c 4969 4ed2 bc3f 87a9 c8dd 912e d5bf
000005b0: e0cc ac86 72e8 c13f eabd c19e 3fcf bebf
000005c0: 3735 3f4e 8334 973f 5448 e227 c61a d2bf
000005d0: 73ec babc 0e7a b73f a0a4 cbcf f41f ccbf
000005e0: dda9 fa74 0946 b4bf 7cc8 7659 c543 c23f
000005f0: 7849 d3fe 831b c73f 6a5f 03a6 a7a5 afbf
00000600: f7d0 3361 4519 73bf 677c e010 6f41 bb3f
00000610: 6d0f 42f5 ee2e c13f 5808 0425 8e69 d03f
00000620: 2827 1fda 68f5 bf3f 9022 bfb7 e56b ba3f
00000630: e6ca e993 0d0f cdbf f90d 1653 aeac b73f
00000640: 10c3 4488 2678 a93f 05d0 38fe af2e a63f
00000650: 89be 0a12 f359 9d3f 58e4 5731 15b3 893f
00000660: b81d 05bd e3e8 9c3f 4f57 2dfa bec3 c73f
00000670: 5d29 bbf9 effa ba3f 26be 2118 38d2 d63f
00000680: 61ac d139 97a4 63bf 81f1 36e3 f551 b43f
00000690: e9a0 3765 1a78 903f 956f 8765 b04b c4bf
000006a0: d564 7a38 68c5 a63f 3eb3 8b25 bb27 c2bf
000006b0: 97ac f6c6 1d78 bdbf d091 7323 3927 d7bf
000006c0: 6f6b fbbe da1e ca3f e5ec c7cf 2070 c53f
000006d0: 0ac9 a8a2 aeb0 a5bf 6dfa 7a73 daf0 c23f
000006e0: 8310 cd48 b69a bdbf d807 9f2a 5940 d03f
000006f0: f286 aa5a 883d b63f a9a2 ed3b 01d3 c0bf
00000700: a1d7 f6b5 054e b43f dece 7add 0e8f bbbf
00000710: ec4c 7dc9 123d 663f 03fc 6f6e 9047 c83f
00000720: 2229 5894 49ba a1bf cd1e 9661 78d1 b2bf
00000730: 03cd 00c5 6060 bbbf 9455 6410 f8e2 92bf
00000740: e9e1 fe5f 3a40 c0bf 7cfa f2ba 02f8 adbf
00000750: 2fd4 484e e580 c63f c0b4 911c a9f7 a7bf
00000760: 5fa0 a1b6 2ad9 a3bf 8918 700b c218 9d3f
00000770: 1497 4b67 06d0 b73f 054c 37cf 9996 86bf
00000780: cf17 f55f 7e32 943f 9138 62bb ba32 d23f
00000790: e881 077c 892b c03f cd70 6722 301c bbbf
000007a0: 5fc4 6c22 ce2c af3f bc79 454b 09d1 a9bf
000007b0: 4e63 ffb3 0995 cd3f 0fbe b45c 869e d03f
000007c0: 35e5 a5c9 315b 9e3f 2df4 0ee6 e217 c43f
000007d0: 7ba5 927d 17bc c9bf 9a64 2371 0dc6 c53f
000007e0: 81ab 1601 6dbf a9bf de8c e7fc 232f cd3f
000007f0: cdfd 796b c065 b0bf 6021 2dec a94e bcbf
0.06523015594917356 -0.06827565639463536 0.19111816600306888 -0.0022444759382269234 -0.22765968840924058 0.16581594673238054 -0.11623272475259563 -0.05966969405741946
-0.10872013445501928 0.20356422405797764 -0.0969223695350748 -0.02002563341044728 -0.20131995977276027 0.1289438479083541 0.14466107967349676 -0.24525669301310163
-0.14939551232818257 -0.23164225672845 0.09082555236170291 0.22839714532017527 -0.23242940777426135 0.05750372705991231 0.21323503796600105 0.020895690138237808
0.009704127501897601 -0.1413200489992826 0.11968519508744531 0.21061467138115628 0.1814935329406045 -0.08455290411062816 -0.04702004667749964 0.16963883248103648
0.15630558239264958 -0.2226038072427417 0.24669060953834512 0.06286652200147033 0.0885815307347783 -0.11847541528895175 0.21015349684836937 -0.06577657195022113
-0.017821087922166304 -0.11219154784995984 -0.217548317464141 0.15141310571016345 -0.004179727397425649 -0.19038426111946705 0.1202798250851308 -0.24642525905441032
0.09052396439769905 0.06729633423844551 0.24186311339618816 0.122626719160112 -0.1564530081668213 -0.003976000918481042 -0.037578575887639534 0.15832164655160486
0.1374960473086457 -0.19529138442152238 -0.05840212173014446 -0.02113377961427055 -0.14592515067405704 0.23101096679791056 -0.13707815142486923 0.0499681761747316
0.18159290363077416 0.24079443681212395 -0.16120642951285324 0.14281182080756333 -0.2002040871603028 0.019386975801242073 0.0895409848277821 0.035251715613490574
0.1735268174481473 0.2715149343774429 0.06484364395644202 -0.2784918866629913 0.09755295732796683 -0.16748346558547245 0.14622973263315692 0.06677394970457037
0.17524388866600193 0.19691504953471795 -0.025426244636285136 -0.13827578136221483 -0.06341370887371882 0.03874912794772061 -0.04760039549107674 -0.06965894557283951
-0.023552142832288108 -0.07267220182284932 0.23695837108797488 -0.20515667747155114 0.003633976826180262 0.19869253907458911 0.021227652790361876 0.09830595727082593
0.17571854620381558 0.04297557713316142 -0.2552534929304435 0.21802443446832823 -0.10013187291583482 -0.11369649558927819 -0.15225185415824669 -0.12433833627361163
-0.11265831349469858 0.07259590065547224 -0.2079723559029551 0.15043817035743226 0.03674789420602634 -0.22091655032836702 0.07025681100582719 -0.26987229799999385
0.026749660683363402 -0.24008309678074982 -0.09224686661351428 0.13904300527922295 0.10945832822781514 0.14925652757499855 -0.03362409955749629 0.11546421465724069
-0.26684865461524926 0.3306292645855859 0.19288152753539134 0.09218654439268652 -0.16412285102098054 0.045269267282377804 -0.2086533611182385 0.2794166814291785
-0.18766934094320945 0.005255878609459224 0.06342890426167054 0.20045287917243013 -0.19355958222573383 0.1281539376522295 0.007439583835513027 -0.2779321502528084
0.035904097662065426 -0.1314997360068652 0.2351428817547436 -0.1589662838561733 0.147738826911451 0.05764950858700792 -0.02574294933454295 -0.1561112397900179
-0.11411044448252965 0.19390030962089402 -0.17961748089461016 -0.19055090152885226 0.07923392130647584 0.047111738767249965 0.12260300741892352 -0.14588062123760606
-0.1525935510738754 -0.08197378971732457 0.08063131346025086 0.06445145624619489 0.00027897088425520353 -0.1923224318718795 -0.06834027694299583 0.0652025686558261
0.18536259024960608 0.13072079568865172 0.18000462228247172 -0.2515631440886179 0.05092319208257128 -0.0451585572264534 -0.02048052611790129 -0.20489854302265537
0.10663713347859224 0.10377456456403214 -0.16114268857370356 0.00406634254100982 -0.1646049644675815 -0.12767112165369324 0.12238270156093274 -0.06945694770022431
0.04765026659949648 -0.04900783249586768 0.09814473806492839 0.0842120336342728 0.11258401937941209 -0.3309673944337636 0.1399062306969432 -0.12034986139200723
0.02266125836449825 -0.2828841580859536 0.09170620067281891 -0.21972522875083644 -0.0791936789125098 0.14269320362433635 0.18052720968860192 -0.06181072141197215
-0.004662772192421941 0.10646719133409165 0.13424479461184138 0.25644258131808817 0.1248384029887829 0.10320888267518513 -0.2270218822701146 0.09247865227194287
0.04974480069575382 0.04332494715018246 0.028663442588991592 0.012548604553545825 0.02823215333162718 0.18566119399718636 0.10539150092077905 0.35658075672742695
-0.0023978189115517056 0.07937561795455929 0.01608315699368826 -0.15855984647248236 0.04447484673910088 -0.14183749516760175 -0.11511407954701479 -0.3617689939694886
0.20406660390184636 0.16748438020281423 -0.04236360297763227 0.1479752601498662 -0.11564196851128554 0.25392750894763827 0.0868764134743534 -0.13143935609993676
0.07931552593694714 -0.1076516428682299 0.002714668935291811 0.1896839656110104 -0.034624385221905266 -0.07350876219254161 -0.10693936166426359 -0.018443943024143275
-0.12696008384024474 -0.058532796212138444 0.17580858538136243 -0.046811375367590724 -0.038766226571909305 0.02841475672541852 0.09301795980317379 -0.011029435764532644
0.01972386799504716 0.2843462781828601 0.12632864528769905 -0.1058988651270198 0.060888711645369346 -0.05042294544067569 0.23111077584214929 0.25967558911631355
0.02964475434553045 0.15697895272561038 -0.20105260497556884 0.17010658287361907 -0.050288587935333424 0.22800111626484115 -0.06405260681093879 -0.11057531372091978

net.net.hidden_layers.1.bias f8 [80]
00000000: b709 bd9d 2ba1 a1bf 59d3 03fd ef15 c7bf
00000010: 5b91 355d e77f c43f 33e9 cb51 edef cdbf
00000020: 738e cd80 68d8 aa3f 0068 1322 0a18 a33f
00000030: 1d97 468c 05a9 ccbf 7cc4 b703 e6f9 bc3f
00000040: b64b 8a36 d502 9a3f 8bd5 a7d6 5e70 933f
00000050: dc68 eb0e 8485 c0bf 8a81 44f3 fb2f a1bf
00000060: aa02 75d2 918c 933f 4c24 3d41 ab0e b13f
00000070: c863 3f88 f421 ccbf fe65 de0a fa19 9ebf
00000080: 24e1 6928 58f9 973f dccd 0d84 384a c3bf
00000090: d609 c19f b7ab c9bf c1c2 88b7 b7c5 b13f
000000a0: c188 9821 94a3 c5bf bb9b ebde ab7e bdbf
000000b0: 1bd9 2b31 bbbf c0bf 1191 2573 2a96 b6bf
000000c0: f488 9467 cb9d a53f cd02 b548 30ec c9bf
000000d0: 60a2 f7e9 d94e c0bf fd9e d9f6 7bd5 cc3f
000000e0: 10b9 dfea e7a3 8ebf 7099 99db 9391 ca3f
000000f0: d653 ac76 bc05 adbf d641 555c 92b3 bbbf
00000100: ed99 8dde 4b6e c43f 62cc 3cfd a846 c6bf
00000110: 118c 8647 f570 c0bf 7646 4da1 8929 93bf
00000120: 80f2 f508 18a2 c3bf 414b 6690 89ee c9bf
00000130: 7da0 c89d 8b8c c03f ea79 649a 4ae4 b63f
00000140: 7f23 ff15 9ca0 c1bf a517 d3be 3b72 b73f
00000150: 115b 86da b892 7bbf a3a0 39d7 9f96 b9bf
00000160: 9f5e 4065 3eb1 cfbf 82c2 1ad1 93bf c23f
00000170: 42a1 86a7 0fcb c83f c39b 7f61 eb01 bbbf
00000180: 54a1 727f 5b57 b03f 1e10 cda5 1401 c93f
00000190: 9786 6006 beea bb3f 65a9 a03d 8227 a0bf
000001a0: b0c2 85d9 a79b 80bf 2bf9 ad23 eedd b53f
000001b0: b929 3457 2e79 bfbf 6674 2e05 3d9b c33f
000001c0: ceb9 2575 94aa b3bf 9df3 96ed 6ab5 b0bf
000001d0: 94f3 5b6c 9010 a03f fe28 1d49 9a13 cb3f
000001e0: 1872 ef69 3042 b03f 0a8f 0e96 8831 aebf
000001f0: 1f86 8473 802e ab3f f54a afb1 3f79 c13f
00000200: 8f9e cf05 f4dd a1bf 3e4d e769 9958 6ebf
00000210: 308a 925b 450a 9b3f 4e54 4cbd edef 87bf
00000220: 5794 fdee d52a c33f 2783 c3f4 bff8 cb3f
00000230: f851 a9e5 a9f7 b53f 9d6f 0c99 f32b bc3f
00000240: 22ff b131 9893 c6bf d15d bc99 1fc1 ab3f
00000250: 674c 7115 71b3 a1bf 7a46 c72c 5003 67bf
00000260: db3a 6819 2b1b c7bf 5c16 f0fe 9b12 c73f
00000270: e193 fe65 3ba7 973f f974 7d88 732c 6fbf
-0.034432757382563954 -0.180356977980092 0.1601533131717002 -0.23388449186297464 0.05243231365491576 0.03729278245891976 -0.22390813207055596 0.11318814841048835
0.02540143151652404 0.018983346797502725 -0.1290745804643113 -0.03356921524596419 0.019090918035774486 0.06663008063073156 -0.21978623059001579 -0.02939596835458324
0.02341211077370632 -0.15070253799386435 -0.20055289555064232 0.06942318182769737 -0.16905452385350908 -0.115214101718819 -0.13085117245618325 -0.08822884856414627
0.042219501871174986 -0.2025204043402681 -0.1274063484591066 0.2252650218317668 -0.014961063246997003 0.2075676748529065 -0.05668438862463858 -0.10820879701828487
0.1596159779248433 -0.1740313755522918 -0.12844720833263115 -0.018713140935977944 -0.153384212851865 -0.20259208250771546 0.12928910450250788 0.0894209505972651
-0.13771391939215147 0.09158681305697643 -0.006731721958564988 -0.09995459560889457 -0.2475965494529548 0.1464714785593238 0.19369693450904363 -0.10549803858121636
0.06383296834485935 0.19534547897103577 0.10905063300790584 -0.03155142786302426 -0.008109389615783641 0.08541763659556938 -0.12294282559393012 0.1531749987888446
-0.07682159290354848 -0.06526821423081093 0.031376374461593276 0.21153572626128175 0.06350996576606638 -0.0589716609167948 0.05308915529373003 0.1365127198792703
-0.034896493634559815 -0.0037043568001792473 0.02640636798299506 -0.011688096370145253 0.14974474114856903 0.21852874232629313 0.08581029755561775 0.11004564749276687
-0.17637922693756375 0.05420778991372866 -0.034572156779767486 -0.0028091970363924275 -0.18051661243995096 0.18025541256081368 0.02309887704872782 -0.003805375719749035

net.net.hidden_layers.2.weight f8 [80, 80]
00000000: b1ba 3516 4b10 bdbf edfb 6237 f9d2 bb3f
00000010: a0b5 5361 e731 b53f 8d29 6ace bed4 b33f
00000020: b6a6 4566 910e b03f 60ec 4e3a 42f5 92bf
00000030: a045 45e2 1d30 bd3f 54ec d7c4 f8c4 bc3f
00000040: a052 6175 d6ec a2bf 448e c1ea fcf8 acbf
00000050: 0339 6e7f 848a 5dbf a9d5 9486 85c9 96bf
00000060: d250 26a1 0fae a73f 5e5a 9cbf cfca b2bf
00000070: 047f 689c 8e0a a63f f3c8 036e 81a1 c0bf
00000080: 9a9c e59b 397c a63f c365 c92b 1c9b afbf
00000090: dbf0 ce34 86da b93f 3769 543c 798a 983f
000000a0: ee80 bd14 37b6 91bf 779b 460b 1551 80bf
000000b0: f129 1d5a dc40 863f 96ab 2b1e 9a5b a4bf
000000c0: e518 40f5 600d 91bf c963 a15b b801 aebf
000000d0: ff4e 8ae6 f115 91bf 4f53 5954 ca2b c3bf
000000e0: b858 1707 ac5b c4bf 4567 bc7a 23bb c8bf
000000f0: 6d4b 40ad cc80 83bf 38d7 573c c3cf 94bf
00000100: 302d 4757 6736 c4bf 78ea 6e65 88da b2bf
00000110: aef9 4767 0f5b 4bbf 0757 edf5 9b3d af3f
00000120: 1e2c b8c4 d15c bbbf 0f74 2396 4183 97bf
00000130: 0f80 0567 21c9 bdbf 41ed ced2 661a a83f
00000140: d22c 2316 ccfe a93f 3cc0 df07 98d0 a6bf
00000150: a3d8 9547 1d79 7cbf 2019 2c9d 4093 a43f
00000160: 3f9d ba27 85e2 a1bf 02a0 2f22 0f9e bb3f
00000170: 49a0 a32c 58e7 a0bf 464c 8c53 f1c6 b33f
00000180: 7021 29b9 7fc9 8abf cccd ab63 f72c b93f
00000190: 3625 a73c eee4 bd3f a824 9cad e74e 89bf
000001a0: cdef 416a bdec b9bf 9584 7dd3 24cb 993f
000001b0: 281f 8464 9e76 823f b363 e083 0c8c c3bf
000001c0: 458b 7b28 a5d5 8cbf b894 3a3f b158 9a3f
000001d0: 5e9d b089 8879 c1bf 6bfd 34b4 51b0 c5bf
000001e0: b7fa 27e1 b3f6 b1bf aa5f b373 e752 bbbf
000001f0: ab7d 863d e416 b9bf 4113 8eeb ed06 aa3f
00000200: d252 3cdc 3b78 5dbf 9d6e ea50 d1ec 9abf
00000210: 62bb ef09 6a84 b2bf ff7f c2ad 6176 b33f
00000220: 99f1 ca5f 41a2 ac3f 34f4 24cf 1962 b83f
00000230: f318 32f6 8fa2 b63f b836 1420 df84 b63f
00000240: 4325 543e 150c b0bf a017 ce40 b28a 20bf
00000250: f701 615f 56d2 b53f abe3 2ea3 8c22 bc3f
00000260: a9d4 460d 4d14 b63f b198 ba67 9da9 bbbf
00000270: 86ae 2f6a af03 7a3f 63c6 c86c 848a bf3f
00000280: 58db 6512 f878 a33f 2cec 5d9a cdbb c23f
00000290: 1d76 2e38 9bc6 a23f 8224 3ae6 02a7 a93f
000002a0: cab8 4fbd a949 b7bf 9f82 1afc 5240 adbf
000002b0: cf93 450b ba94 aabf 6651 3817 4999 b53f
000002c0: adfa 4b23 86b0 bb3f 632a 5e43 21e0 c4bf
000002d0: ad41 47ae 307b bcbf 04f6 c729 d88d b33f
000002e0: 49a3 2403 e20f aebf 37a4 01b9 286a a4bf
000002f0: 0b6d dfcb f1a3 9a3f 3527 83c2 da12 54bf
00000300: 7cd9 bbb4 f21c b2bf 799d 3352 7b52 b73f
00000310: cb55 ea96 eab1 b2bf 3a8b a7ff 11ad b7bf
00000320: f072 8864 d301 b2bf cc71 4519 08c7 aabf
00000330: 3c78 abc6 7ea5 b13f 902c 7b23 ea65 a0bf
00000340: 1aa9 7c14 c965 c4bf 9b9b cfbc 147a b2bf
00000350: ef4e 2b45 318e bebf 737f a28c 4097 be3f
00000360: 386d e5f6 ad03 91bf 5e86 bf92 43fa c23f
00000370: c3ed bb87 ff7e 633f 8c1d 828e 9688 713f
00000380: 7faf 5176 97b2 92bf 034c 771c 99b2 c1bf
00000390: 3535 c986 e7b0 c2bf 938d 28f7 3e89 d13f
000003a0: d8bb e38e 580f a43f 1ace 4487 1d6f a2bf
000003b0: 8765 7dd6 a2a3 b3bf d96f 4132 b19f b23f
000003c0: 3f2a d3ec 8af2 b93f 025f 0f2e e513 b6bf
000003d0: ac13 8b00 cbe3 b5bf 2618 a52d 6046 b23f
000003e0: 0af8 51ed 5857 b0bf 9a16 7e8b 04b2 a6bf
000003f0: 4547 061c b13a afbf 7562 c637 3f4d b5bf
00000400: 3908 c902 befd bcbf 5546 814b dfe3 aebf
00000410: 2035 55f2 094e 80bf f0c2 a08d 9590 b23f
00000420: 5482 c8eb 98e2 92bf 02e6 eeb7 1d4e c13f
00000430: a45f efff 35a4 b6bf c853 4447 baaa b53f
00000440: 4394 d6e8 077c 90bf 4c99 c4dc 2c0b a23f
00000450: 9bd1 138d 7680 b23f 4a0f e9da f09f 6abf
00000460: 1620 67c8 6503 c0bf ba63 6b0f 7b46 bdbf
00000470: 2f67 b7f2 9c5d d0bf b9c2 183e 40a2 b13f
00000480: 77a3 37e2 03f2 a0bf add1 05eb d57c a33f
00000490: 35f9 b933 55e7 aa3f 253a 02d7 296a adbf
000004a0: d6db 2bf5 59c3 b53f a5c2 3eb2 2dd2 b23f
000004b0: 926a d3aa 04e4 7a3f 1a70 1820 7d82 9bbf
000004c0: b24b d60e 762a 9abf d27c 72a9 d6d4 bc3f
000004d0: e6ed 38d0 c2de b53f 1467 1895 a8ec aebf
000004e0: 461a 7ec9 56e4 bfbf 89ce 790b 3d58 aabf
000004f0: 1931 8a30 ff14 a1bf 89da e502 0134 b63f
00000500: 07e7 cc62 f125 8dbf f84c c86e 9518 b5bf
00000510: ff2f 64fc 6091 aebf 8c93 fdda 0f68 8fbf
00000520: 0053 dea9 dc90 993f a1b0 77f1 efd1 aebf
00000530: 58b8 dcd7 6932 bfbf 6804 606c c90e b4bf
00000540: bd18 84e2 e1a0 a9bf 3758 e178 f75d b93f
00000550: 42ba c065 2724 acbf 85ac 9d76 084e b9bf
00000560: da75 ff4e fecf bbbf f58c a14a 3346 983f
00000570: 6dc9 1953 267b 86bf 23f4 80c2 4dbe 85bf
00000580: 43c0 1c96 e8cd a53f 4096 a252 8cad 923f
00000590: 7bb0 fd5c b4a1 b6bf f8b4 8f99 8d95 b6bf
000005a0: 679e 1ce5 3e59 9f3f 1419 3308 f210 a4bf
000005b0: 325c 03b3 a724 b3bf d4ce f5fa f864 babf
000005c0: de17 7efd 5d24 b4bf 040c 729e 1510 b5bf
000005d0: f2de 42c6 ec11 a8bf 589e a923 c9ab b03f
000005e0: 56d3 6b1c 04cd bd3f ca35 a7cb 0ab9 ad3f
000005f0: be42 2715 6b52 ba3f 0dda fdf0 f1ca 76bf
00000600: f8a8 d96e ee8e 943f e6fa fe76 50a9 a9bf
00000610: 7804 401d 476c 963f 0170 e71a c56c b7bf
00000620: 6027 d679 c63e b4bf 64a7 5303 3496 a23f
00000630: edbf 263f 7502 b2bf 7cb3 9791 9c63 8ebf
00000640: 9d67 96bf 1777 c0bf 6f3d a067 2163 b63f
00000650: 2177 cfe9 1bdf a1bf 48d3 a31b fce0 c23f
00000660: 0e84 c3a1 b206 943f 2602 9c3b 7cb9 b7bf
00000670: 041e 2491 41b3 be3f 4664 652b 0e9a 8fbf
00000680: c1ec 43bb 9dbd 993f 6b05 9b3c 1072 b43f
00000690: 3c4f 6d5c 00a9 c4bf e621 bb0b 6e83 be3f
000006a0: 9283 5dce b2af b2bf b20e a470 d36a 9abf
000006b0: 954d da35 fedf a9bf 1ff2 37f3 2793 b73f
000006c0: 5a68 ae43 201b b93f d9d3 90da e8e4 7ebf
000006d0: d0b3 1fdf ff6f c13f 9dd0 8cb4 2f5f c53f
000006e0: 1f86 aac9 8377 c23f c332 477b 8f14 5c3f
000006f0: e9fd 4224 8189 a53f 36f3 366e 62a2 b23f
00000700: 898d 884a 6265 b03f ef7e 8e70 ac4d b23f
00000710: b308 4500 902d b3bf a13f 9b1e 4a9b adbf
00000720: 8247 8095 1068 6b3f dda5 e773 ec46 a23f
00000730: b335 333a 5b7f a7bf ce4d dec4 60a4 ba3f
00000740: 0fc1 981a e0a7 bf3f 1656 2edb 87fc b6bf
00000750: c52b 5a89 43ad b5bf f0e9 98a0 da08 b9bf
00000760: 2384 f6c8 7235 aa3f da0d 0b8b 2b41 6cbf
00000770: 70db c2e9 3f9c 833f a50f 1410 38dc b0bf
00000780: 9edf 7ab0 1ccb c8bf e96a 2679 8974 d43f
00000790: 3ee3 9f40 dff9 a8bf e81f 4bb2 3f0f a03f
000007a0: 0185 e242 f2e4 c4bf 3c39 ae34 7318 cc3f
000007b0: dc96 2ba2 6784 bcbf fdfb 77be d803 b1bf
000007c0: a69d 26e7 cf0f c2bf 6731 ec4a 1642 783f
000007d0: e409 8380 0a9c ca3f a010 9f6e fb83 72bf
000007e0: aa92 b167 c896 b9bf bff9 691a 9192 c8bf
000007f0: 2ddd 46c2 1261 b73f bac5 9d6f 6760 abbf
-0.1135298661444988 0.10868795015538497 0.08279272199771137 0.07746498622342397 0.0627222895324405 -0.018513712700706342 0.11401545309242644 0.11238055043934142
-0.036963178471215885 -0.05658712735819596 -0.0018030446933355322 -0.02225311883849704 0.046249855443564095 -0.07340715816494867 0.04304929408340111 -0.12992875930610345
0.043916511803041305 -0.06173027071481443 0.10099066533342997 0.0239657347748132 -0.017296658173450767 -0.007967152029619602 0.010865899562891608 -0.039761367972310044
-0.016652598351378684 -0.05860687368903645 -0.016685275741635582 -0.1497738754138944 -0.1590476069092739 -0.1932110165878901 -0.009523009335713895 -0.020323801572849493
-0.15791026841757505 -0.07364704586408688 -0.0008348298275107546 0.061016916056059904 -0.10688506176681797 -0.02296164015648477 -0.11635025754139881 0.04707642863601303
0.050772073461837444 -0.04456019493216032 -0.006951441167407565 0.040185946641985604 -0.03493133649799995 0.10788054070110323 -0.03301501793777157 0.07725437440630953
-0.013079641187815766 0.09834238227249797 0.11677445393356298 -0.012357530580191359 -0.10126861423662988 0.025188994797080772 0.009015309755809733 -0.15271145285876528
-0.014079370782786102 0.02572895954530871 -0.13652140353336056 -0.16944333361787342 -0.07017063376404563 -0.10673376631473155 -0.0980055475433718 0.05083411693980234
-0.001798685509986676 -0.02629401260729357 -0.07233298056210694 0.07602510921651627 0.0559254102167614 0.09524689967379701 0.08841800461422959 0.0879649594609998
-0.06268437167832012 -0.00012620378438671104 0.0852407439097148 0.10990218147243407 0.08624726843011622 -0.10805686743205702 0.0063511707439648565 0.12320735603204862
0.03803229546149706 0.14635629689641527 0.036671496017543805 0.05010232029332774 -0.09096775886402778 -0.05713137938915235 -0.05191594493479778 0.0843702012719568
0.10816229211557511 -0.1630899027771476 -0.11125473265497617 0.07638312358900384 -0.05871492660873529 -0.039872429450789 0.026016023701100937 -0.0012251983953767813
-0.07075421249814967 0.09110232121348884 -0.07302728828866305 -0.09248459331096806 -0.07034035877627409 -0.05229974087226061 0.0689315066369724 -0.03202754672164432
-0.15935624599780668 -0.07217530831949974 -0.1193571847791721 0.11949542458978417 -0.016615598863933573 0.14826244988857956 0.002379893381542182 0.004280651199344187
-0.01825939807569865 -0.13826288118306715 -0.14602369386049366 0.27400182854236127 0.03917958015687589 -0.03600399280767537 -0.07671563850944639 0.07274920918410945
0.10135715753418938 -0.08624107718003063 -0.08550709498656656 0.07138634790780482 -0.06383281511259056 -0.0443269176749201 -0.06099465815635922 -0.08320994483654849
-0.11324679916381876 -0.060332277266422686 -0.007961347301398691 0.072518679692404 -0.01844252528292352 0.13519641381371633 -0.08844316004194624 0.08463634719767221
-0.016098140322032838 0.0352415103428024 0.07227269119522932 -0.003250093860772828 -0.12510368619246098 -0.11435670019581226 -0.25571368887686935 0.0688820029834102
-0.03309642921869387 0.038061795176790404 0.05254617935587406 -0.05745058774583737 0.08501207576396949 0.07351956941307465 0.006565111381145032 -0.026864962657882165
-0.025552601485809574 0.11262265812773656 0.0854303129535122 -0.060399311256516125 -0.12457792681934973 -0.0514544559963755 -0.03336331813361166 0.08673101731060674
-0.014232526614808018 -0.08240636782311472 -0.05970290261220156 -0.015335201139984787 0.024966667049358016 -0.06019544432260316 -0.12186299820015856 -0.07835062881351151
-0.05005556001747056 0.09909006787469897 -0.054963332339287976 -0.09884694000145273 -0.1086424773088405 0.0237052931119139 -0.01097707692244817 -0.01061688184574378
0.04258658249307292 0.018240158599516443 -0.08840491552627043 -0.08821949957901498 0.030613882764696145 -0.03919178342907706 -0.07477806206166873 -0.10310321928937621
-0.07867991865904808 -0.08227667921350706 -0.04701175613575782 0.06512124176662704 0.11640954679371637 0.058052384719853814 0.10282010332526689 -0.005564637263765449
0.020076489940415748 -0.050119890714531753 0.021897421989710314 -0.09150344759785868 -0.07908287500882016 0.036302209287739 -0.07035000602513693 -0.014838431542523393
-0.12863442282542517 0.08745011119775879 -0.03490531186228752 0.14749099111181807 0.019556800006174817 -0.09267403083141143 0.11992273133738968 -0.015430556010573093
0.025137390665787466 0.07986546973827095 -0.16140751374279627 0.11919296060944581 -0.07299344576087055 -0.02579813361172851 -0.05053705603964002 0.09208917320206254
0.09807016041159625 -0.00754252394203988 0.13623045344084384 0.1669673568336564 0.1442723021219061 0.001713886374193383 0.04206470077178521 0.07279029074466056
0.06404699630416223 0.07149770496334516 -0.0749139786394462 -0.05782539008725896 0.003345520392039115 0.03569735445837428 -0.0458935268921822 0.10407070928913884
0.123655325406393 -0.08979081250284823 -0.08467504599882066 -0.09779135151703833 0.05118902877007538 -0.003449044270696905 0.009575366326641549 -0.0658602751973932
-0.1936984883993746 0.3196128543001309 -0.048781372679462795 0.03136633922036919 -0.1632368876062529 0.2194961554745961 -0.11139533719287037 -0.06646494531740639
-0.14110754763281114 0.005922400551537122 0.20788699412339817 -0.004520399243066603 -0.09995701343138799 -0.19197286405319677 0.09132497065626373 -0.05346987950805322

net.net.hidden_layers.2.bias f8 [80]
00000000: 4c8d 981a 4633 b43f b361 9d9d 8c7c 91bf
00000010: d315 764b 42c3 c03f b67f 2882 ab09 b1bf
00000020: 5118 2f3c 82d2 c53f 8113 69b1 f9b1 bfbf
00000030: dde8 2092 8aaf 8b3f f233 45d1 373c a8bf
00000040: 2293 16cc 96a5 75bf 0977 a886 2a85 bdbf
00000050: d6d8 363e a980 a9bf a5e0 c480 46bf c13f
00000060: d568 877e dfb8 96bf 32e7 972f 3afd b13f
00000070: e6c7 ee01 9137 be3f 9109 280d f2dc b0bf
00000080: f7cc 57ab d250 a93f 9def 1fff d051 b83f
00000090: 7508 3342 617d ae3f 4847 21a4 8adc 993f
000000a0: dca5 4cbb 0bb0 a23f e6d4 f8ac 354d b83f
000000b0: b0cc 024a a97b bcbf 4019 2fb9 f0fe 7e3f
000000c0: 2032 8460 4802 ab3f 55bb c397 327b d0bf
000000d0: 4cc9 aba4 c539 9fbf c327 aff4 62bc 923f
000000e0: dc84 9422 f9fe 403f 33df bc75 44ad c03f
000000f0: 19b7 cc12 8e43 9d3f 99f6 eaf0 92a6 9f3f
00000100: 4800 5d86 9a3a 9dbf c28e 94c6 ba8b b93f
00000110: 91fd b209 e85a ab3f d75b 384a e41d a43f
00000120: 2416 381b 9e28 ad3f 1372 8c01 41bd a53f
00000130: 5062 cf18 7ae4 7a3f c735 1e9f e5d6 ad3f
00000140: 1fbd 7fa6 8b54 c2bf 5b40 d89d 1640 bcbf
00000150: 45dc 91dd e65f b93f 2e83 ca7d 9bec 73bf
00000160: 827c 84c7 ef1c bcbf ccea b31e a5d5 c6bf
00000170: 8864 d4a8 bcb8 b03f 56d9 a9f4 5f80 a73f
00000180: 3e03 c391 458c 9ebf 9564 0eb6 e091 a3bf
00000190: 7f67 952e 0f21 b0bf 6fad 97cd b04f 84bf
000001a0: ec50 9ff5 cf50 a7bf 2f8a 72a7 8807 93bf
000001b0: bad8 37a8 65bd bebf e707 3f9b 6ad0 c43f
000001c0: 89f1 ccf8 8182 b0bf f9bb 88e0 25e7 b53f
000001d0: a9bb d8ba 6d8d 873f a066 9e34 2eb7 af3f
000001e0: 4aba e410 60e7 b13f 27f8 0a6a 747d 963f
000001f0: 8c7f eada c53e babf f08a 9f25 f71e 89bf
00000200: 3148 8490 7c46 b5bf 56a7 ae63 cc70 67bf
00000210: fb92 3eb3 2aa8 afbf 1d15 4c07 b5f0 b53f
00000220: 403d 7ac5 dc1d 9fbf 5ef4 adbd a9f9 c5bf
00000230: 3d73 dd1f ecd8 c03f 321c 33de c668 ba3f
00000240: 4662 5d86 b487 a8bf f6db d34e 1132 ccbf
00000250: b38e f6d7 9c41 bf3f 090b 1be3 7003 843f
00000260: 22f7 23ca 2dda 8a3f 1e46 7a77 3d30 a0bf
00000270: 9d27 f7d2 e00a b23f b7de 6ff4 b8c2 a83f
0.0789073767596637 -0.017076680297891843 0.13095883068687772 -0.06655380180063628 0.17048671663923412 -0.12380943852720173 0.0135184121937652 -0.047334427161878426
-0.005284871150625732 -0.11531320369291732 -0.04980973133517501 0.13864976203490645 -0.02218960962077506 0.0702701917834048 0.1180353765219305 -0.06587136098099779
0.04944475499714856 0.09499841908103553 0.059550322848296235 0.025255361812305283 0.03649937306756687 0.09492812607716736 -0.11126192147166836 0.007567348790820383
0.052751790792261 -0.25751938648948186 -0.03049382035801189 0.01829676264222947 0.0005186764221073686 0.130287702073241 0.02857801427597115 0.030908866838891134
-0.028543867541202667 0.09978835437919556 0.053427935775739795 0.03929055601127345 0.056950512716906126 0.04245951789764404 0.00656554884059142 0.0582801586852884
-0.1432051241858767 -0.1103529105532756 0.09911959561746737 -0.0048643182641690385 -0.10981653805764505 -0.17839492797050693 0.06531886216943594 0.045901297203203725
-0.029831969281761454 -0.0382223341213798 -0.06300444495482614 -0.009917622827706222 -0.045538424237436675 -0.01858342668550444 -0.12007747036827512 0.1626103647268444
-0.06449138950569568 0.08555828792371746 0.011500222458463787 0.0619444312316777 0.06993675625265286 0.02196294686540781 -0.10252033800725097 -0.01226609309737145
-0.08310678985824961 -0.0028614036541129524 -0.061829885845588316 0.08570414951471546 -0.03038735347086896 -0.17168161164946388 0.13161994510564937 0.10316126751705282
-0.04791034832186773 -0.22027794217112245 0.12209491989647851 0.009772188120569252 0.013111455661142527 -0.03161804278819268 0.07047848845027578 0.04836061462259294

net.net.hidden_layers.3.weight f8 [80, 80]
00000000: 427f ff80 3679 9b3f 745e e31b a7f5 9b3f
00000010: a6f5 d821 f95b 953f 7ef2 2ddc efcc c13f
00000020: 724f daf5 63ce 7c3f 5ced 49f0 c74f d6bf
00000030: 118c 07e2 dfca c93f 9c0a 6a3e 157f d03f
00000040: 7828 2b4a 399e b0bf 58f1 dd02 efdd cdbf
00000050: bb8a 4fc3 ca8a 913f bc03 c4c9 c96f b2bf
00000060: 2b01 197a 55d0 cfbf 5f5f 0fb8 d7ee babf
00000070: 8d75 352e 3b2f bdbf c608 3ed7 efa6 b5bf
00000080: 3f02 7dbd a938 a8bf c8c3 99d3 ade4 cc3f
00000090: 1e48 2f70 a2b7 96bf fc80 5954 42d2 a1bf
000000a0: 5024 dae4 40fe cc3f 8862 736e ff5d afbf
000000b0: b146 7d6d d921 d5bf 9db3 3e39 f94e ba3f
000000c0: 6fdd 12a3 0c1e 8a3f d0fa b5ae 61e9 c0bf
000000d0: e8c2 498a 532b c13f 1366 a07b aabd d4bf
000000e0: f1d8 5128 ee3e c03f fe86 bb14 38d6 babf
000000f0: 8113 9954 9ffb a43f b463 eced 2297 9ebf
00000100: 98c8 3849 0193 b73f f38a bd90 2e79 c63f
00000110: f202 cf56 6b51 c5bf 68cb c8a4 49b3 babf
00000120: 0c7b 7c9a 7a1b 99bf 5b10 6140 dbe6 c53f
00000130: 9c79 1333 861c c3bf 6f48 c46e 7e5a a53f
00000140: e8ad 6f08 4549 dabf f14f 62d3 a622 973f
00000150: 4c6e fd06 8f89 90bf ef0e 2849 f56e b53f
00000160: c1e1 97aa a2ed cfbf 8ec6 56d6 2c0a b0bf
00000170: 2be5 e8f1 39ec 883f 0ac5 7e0f 2674 c3bf
00000180: 5bb8 8421 f87c c03f 3dd3 9195 0e11 b43f
00000190: 7934 8c5f 258f c1bf 47ce 1da3 7f80 903f
000001a0: ffce d53c e494 a33f 5db0 01a4 9043 993f
000001b0: 0dbe 4f1c 9677 d0bf 3727 df90 a0ff b4bf
000001c0: f172 b828 c0e9 abbf 5036 90c5 c2cc a0bf
000001d0: 86ae 63b1 2c7c a33f a795 9782 41da bc3f
000001e0: d933 a39d 7f40 bf3f b84d 33f7 749e c53f
000001f0: a1f7 da97 ef8c a1bf c655 c6f6 f4bd 953f
00000200: cdb6 83ba f22c b63f 8613 cfc1 2526 b5bf
00000210: 79ff 9a86 b73b 9c3f f040 94a0 28db c0bf
00000220: edaf 8584 1d6b b3bf b94d af19 640e c13f
00000230: 0b20 6ec6 78ed 44bf 7372 6410 3780 d53f
00000240: e9fc 92c5 f998 b1bf ce40 a6fa d59e bebf
00000250: 2f37 ada9 a4e7 d03f 345f 218e 7acd 9bbf
00000260: 8916 dc7d c4f4 cabf 5846 c4ef e7c6 b03f
00000270: ff01 0311 fc78 8b3f c9ff 79d7 0f33 b53f
00000280: 7080 57a4 96d6 c5bf 96a0 edd1 b9a2 c1bf
00000290: cc32 bc5f b221 cbbf 9250 5cd6 63aa 8b3f
000002a0: a94f ffa8 a155 c0bf 1cf6 8059 4f04 d0bf
000002b0: c4ba 8503 f9d5 c0bf 20cb c601 7731 9e3f
000002c0: 1204 4a90 ca6f 8abf 369e 7764 59c1 b13f
000002d0: 6b6d 0352 602c c83f 548f 30d8 2132 aabf
000002e0: d8de 2e0f 5edd 813f 2320 8744 3aa0 d4bf
000002f0: c05a e7df c3b7 bbbf 3118 d62b 5d84 c03f
00000300: 3430 dd57 c363 543f c6d6 e0e3 0903 a5bf
00000310: f33f 6d1b 97fc b3bf 8319 9e88 ca14 d1bf
00000320: c7cb 07e3 9100 d7bf 3f4b 091c 0ac2 ac3f
00000330: 2048 eae6 3d13 a3bf 3ec6 92e5 6b3a 913f
00000340: 8a39 e59b 5738 c1bf e70a 13a8 9a43 ad3f
00000350: 2730 4f31 b0eb cebf af7a 5b66 76db a23f
00000360: 3888 1285 b1ed c2bf 7eb2 7298 0e98 adbf
00000370: e9c8 4bc7 b6dc b83f e57e 2a89 7232 d63f
00000380: f688 1206 1cbc a53f 90bb 52f4 9c93 c4bf
00000390: 2003 67bf 7eeb afbf 7b10 db8f bb7c a53f
000003a0: 8ec4 7b59 b754 c4bf 6861 5560 c44a a23f
000003b0: efb1 a8a4 1925 c1bf 4e0b 8029 848b bc3f
000003c0: 3164 84de 0133 a63f b5f8 99b1 1772 c93f
000003d0: cae8 7c15 9d02 b8bf 7939 6ef7 b390 b6bf
000003e0: 05a1 8a6e b5e5 acbf 4dfb 2786 b332 c6bf
000003f0: c05f e079 ed54 b43f 9a2b 8bf7 48eb bebf
00000400: 4180 8eb7 aa6b c2bf 1e38 76d8 1558 ccbf
00000410: 1210 46ad faff a33f 099b 5d0f 4f3d b03f
00000420: fcf9 04bb 921f d03f fd9c d32e 4d0a c9bf
00000430: 9d69 cf44 0dab c03f 6147 2c2a 83c8 b23f
00000440: a993 137e 2351 c23f 6488 08ff 375a d13f
00000450: cabd 252e d148 cc3f 89f5 b8c3 09fd c5bf
00000460: 3d0a 700c d5b9 a6bf c68c fde4 42c3 9cbf
00000470: dc66 1096 92fa cc3f b20e 9796 602c b2bf
00000480: b243 d5ee 9cbd 813f 4b72 b8f1 095f c3bf
00000490: fc6b 48db 4032 b5bf 7c9b cb93 d29f b4bf
000004a0: 305e a92d f82c 8fbf c262 ea19 d5c5 90bf
000004b0: aebd 26a9 8c16 b2bf 150f 9635 5504 c7bf
000004c0: 93e6 8423 9c4d 85bf 342a b77c e23a ad3f
000004d0: 75ea 8d68 7dbb a7bf fc29 4715 b548 cbbf
000004e0: d0c6 25ad 6249 d23f 314e 7f9a a9f0 613f
000004f0: 8c65 0629 d31d bcbf 4c99 b902 6f53 cfbf
00000500: 5a7e d777 ec5d a83f 82d7 a019 3488 4f3f
00000510: 8713 dc07 7a27 b83f eb4e 93e5 6f0e b2bf
00000520: f183 07a3 eb81 8c3f 68f1 4ee9 8f95 ae3f
00000530: 8de8 5ced 7360 a4bf a3cf a481 d68a a6bf
00000540: 426c c671 ab23 c53f d30b 707a 1a3a b8bf
00000550: 11c8 7509 c57a b33f 3835 efb6 e72f b73f
00000560: b066 68d9 5ef9 9a3f fc6c c0db ed8b c03f
00000570: 4c81 f293 a36d bf3f e747 6382 a7ea b43f
00000580: c651 878e 45f3 a23f a282 d4ef b277 b8bf
00000590: 0b02 6000 1fea b63f d8f2 a575 6dec b53f
000005a0: 4bef 8ab1 a2af b53f e526 1ab3 11e1 b6bf
000005b0: d1d0 8763 b5e2 a83f 8e3b b265 6b93 b4bf
000005c0: bf43 290f 50d6 aa3f 55ce 8df5 a70b c23f
000005d0: 06b6 6abf e343 9cbf 099a 38eb 24da c03f
000005e0: 7ccc 19b1 23b0 a3bf b027 a45b 5810 a53f
000005f0: 92c3 7779 12f0 bbbf 1411 e396 bbf7 b83f
00000600: c7c8 aa02 3763 ba3f 02e4 e8a6 1c70 8f3f
00000610: c897 2735 2bc6 56bf b3da 45d1 9b26 b6bf
00000620: 40f1 9240 fc97 9bbf e8b6 46c6 2f4d aebf
00000630: 6df2 58ad ea7e 49bf 83e2 2275 59dc b8bf
00000640: 0db2 c9a2 3edd 983f a330 0acf a778 9fbf
00000650: d139 d310 8404 b33f 698f 33e0 6d66 b5bf
00000660: c2af 47d2 0204 ac3f fd17 955b 3f10 c43f
00000670: ce22 a352 1037 b93f f9a8 96ce 8bc2 b3bf
00000680: d3db a069 5c7e b5bf 358e cd0b 330d b83f
00000690: b18e 9a37 80a7 b6bf af05 42f2 e033 b53f
000006a0: c5ad c681 0181 b2bf 9ffb d06e fbdf b53f
000006b0: a469 7115 27c5 b4bf 4010 c431 6d86 4b3f
000006c0: 0c9a 050d 0b31 bcbf 92f3 5cb8 18dd babf
000006d0: e55c 987f 7683 a63f c4ab 347a 9027 003f
000006e0: 04a6 c94a a0d2 9d3f 1537 5d70 4438 b73f
000006f0: a44c 98c7 7b2f ba3f 0444 58f7 7b4b 9abf
00000700: 49f3 ed49 20ad b9bf 8d83 d270 b7c0 ba3f
00000710: 4d8a e158 3e58 bc3f 27e5 b8a8 355e b1bf
00000720: 4f07 62e2 6ceb ab3f 2e80 0b48 0017 81bf
00000730: 243f 8b47 4f73 bfbf 2ba1 b786 8d7b babf
00000740: 76b7 6ab5 40b7 943f 2f1a 4f77 c8e9 b03f
00000750: 06a6 3d9b 5bbf 443f d0a1 7c24 56b3 943f
00000760: 9381 922c fe1d b5bf 3435 1bd2 e822 b0bf
00000770: 6cc3 b852 ba1e b43f f9c7 4496 51e8 bbbf
00000780: 2225 6a0d b83b bb3f 88a7 0702 caba be3f
00000790: 57d0 d3f2 7359 c4bf 6f27 db5f 7400 abbf
000007a0: 70ab f23f e4d1 b33f 73dd 426e f778 a7bf
000007b0: ed65 9fda d47a acbf a149 63d2 51cc 823f
000007c0: 0c26 692b a127 a2bf a0de fe0c 3373 bbbf
000007d0: f5c0 4c5b 70f1 9b3f 9d2d a440 d063 b7bf
000007e0: f6c7 6f62 b253 bebf 78da e42b ce90 92bf
000007f0: b411 1c99 c5c7 b1bf 989c abc3 6c67 a8bf
0.026829578040519005 0.027304278447302058 0.020858662310492847 0.13906667948676338 0.007032766790547972 -0.34861944642735465 0.2015037397059989 0.2577565297616873
-0.06491430340534687 -0.23333537712086172 0.017131012125797023 -0.07201825309677096 -0.2485453458957719 -0.10520694965032139 -0.1140019405188097 -0.08457850460948454
-0.047307304745576755 0.2257287295538204 -0.022184885117731416 -0.03480727462442876 0.22650920080585246 -0.061264021141771485 -0.3301909989578276 0.10276754043179755
0.012752627112020602 -0.13212224036029463 0.13413471462583648 -0.3240762908259011 0.12692048042999418 -0.10483122354665039 0.04098222644510142 -0.029873414775554344
0.09208686864511362 0.175573177980446 -0.16654721964552938 -0.10429821274810325 -0.02451888626012093 0.1711076797820422 -0.14930799001645034 0.0417060384953779
-0.4107220251450756 0.022593123103959504 -0.016149744798310814 0.0837243369679148 -0.24943955735922255 -0.06265526039967481 0.012169316000938032 -0.15198207623101495
0.1288137591995476 0.07838526870348246 -0.13718096890844203 0.016115183192097395 0.03824532740227759 0.024671802530449195 -0.25729897274774843 -0.08202556168467089
-0.05451775071217025 -0.03281220113431671 0.038056751874902026 0.11270532072338445 0.12207791899272936 0.16889822073299654 -0.034278380667714055 0.02123244053071518
0.08662335446907861 -0.08261333448088068 0.027571551886239363 -0.13168819275643484 -0.07585319981961876 0.13325167898311266 -0.0006386604044204004 0.3359506282884361
-0.06874047349537062 -0.11961114282007942 0.2641383797643923 -0.027151026654194513 -0.21059471269125066 0.06553506473235282 0.01341435362735499 0.0828103924814051
-0.17061121963979842 -0.13777849913026746 -0.21196584391181827 0.013508586863771908 -0.12761326553174726 -0.2502630590496169 -0.13152992889395965 0.029485568507605753
-0.012908537414888985 0.06935652449430382 0.18885425571975686 -0.05116372837099328 0.008723006094313687 -0.3222795170991068 -0.10827278343581792 0.1290394271892992
0.0012444884918805356 -0.041038807933018215 -0.07807297153090058 -0.26689399091301186 -0.35940978213255587 0.05616790382614178 -0.03725617831982242 0.016824422728580972
-0.13453192817764786 0.05715640355767509 -0.24156763465578132 0.03683061599234826 -0.1478788280265364 -0.05780072794855061 0.09711782804132309 0.3468290652763087
0.04245078634382253 -0.16075479440538887 -0.0623435600896356 0.041967259703171465 -0.15883533353147467 0.03572667766519794 -0.1339447072981694 0.11150384915530973
0.04335790482782221 0.19879432842203007 -0.09378988051040263 -0.08814549246583238 -0.056440038436734986 -0.17342227984041828 0.07942089295863664 -0.12077766459985498
-0.143910731913822 -0.2214381510679581 0.03906234135777721 0.06343549847734321 0.2519270731317247 -0.19562687670188686 0.13022008762238793 0.07337207584012397
0.14310115486219147 0.27113151460264917 0.22097220185558647 -0.17178461128962066 -0.04438653733088358 -0.02808861277243293 0.2263968689665522 -0.0709896438266309
0.00866243938313169 -0.15133785536535735 -0.08279805520616884 -0.08056369884762477 -0.015222491162759061 -0.016379670817147092 -0.07065657739325701 -0.17981972805511562
-0.010401935419042807 0.05708987972646576 -0.04635230923937154 -0.2131563524147423 0.2857290926832379 0.0021899521416146807 -0.10983009101473423 -0.24473369248444
0.04759158099090817 0.0009622816462584313 0.09435236637007281 -0.07053279261463856 0.013919678604851856 0.05973481867792679 -0.03979837677475571 -0.044027999234827385
0.16515105300354277 -0.0946365879936331 0.0760920665832432 0.09057472435161606 0.026341897983093332 0.1292702982908408 0.12276670801157258 0.08170554097458159
0.03701226582385035 -0.09557646136500833 0.08950990447193179 0.0856388485171452 0.08471123537577545 -0.08937178251849394 0.04860464897129336 -0.08037444336717511
0.052416326380473326 0.14098071565568895 -0.027602728422314392 0.13165723309903424 -0.038453212136027454 0.04114032858531347 -0.10913196054003851 0.09753010209812302
0.10307639899363884 0.015350555270844172 -0.0013900205564083435 -0.08652662142945182 -0.026946965638431353 -0.059182637170449415 -0.0007780691036668015 -0.09711226568004787
0.02428148144319846 -0.030733701717097116 0.07428765688675944 -0.08359419559161342 0.05471810166258663 0.1567458340816187 0.09849645631323797 -0.07718728822388589
-0.08395936564271204 0.09395140684278476 -0.08849336011422328 0.0828228560876798 -0.07228097360955761 0.08544894652821576 -0.08113331101905047 0.0008399995017787168
-0.11012333934704815 -0.10493616581966439 0.04397173221166798 3.0812355613050606e-05 0.029123787464788733 0.09070232146515551 0.10228704092905844 -0.025678574535110257
-0.10029794506949687 0.10450312141848724 0.11072148961970037 -0.06784377450175737 0.05453052772010258 -0.008344652365337959 -0.12285323616674454 -0.1034477666759172
0.020230303833776962 0.06606724655930728 0.0006331631943627409 0.020215364434223393 -0.08248890484038034 -0.06303267602489343 0.0785938693959573 -0.10901365202587944
0.1063799889326629 0.12003767537649257 -0.15897988659674198 -0.052737843228512264 0.07742144166210863 -0.04584477635347186 -0.055624629676184735 0.009178771241214191
-0.035458599614298064 -0.10722655360484135 0.02728820378541826 -0.09136678293378116 -0.11846461203802491 -0.01813051360042059 -0.06945452678707548 -0.04766406906656434
