networks/test_1D/test_fe2_v1.pth (torch, 537848 bytes, 49 tensors)

net.net.hidden_layers.0.weight f8 [40, 3]
-1.1144474921990997 0.3601728726884349 -0.0060066470029156 0.23670671911212343 -0.1581594928872709 0.7718725314788317 0.04517326322902119 -0.5079508890428901
-0.8104578300915939 -0.5521074739252557 -0.15607738898198084 -0.0018996881124326123 0.34407422995076986 0.46687227704470524 -0.03673455418387542 0.1945849045261694
-0.16367417908185974 0.01403434454453144 0.6476329553397617 0.04242895534156605 -0.1069250235020878 1.2342752749321888 -0.22595445790472674 0.0014849511434145424
0.08162518037373732 -0.20347336599523505 -0.010506702099958416 -0.401870150813836 0.6170836959434561 -0.0035438632188610256 0.4013138425387575 0.6606047569417289
0.62157055516724 -1.4051802303627114 -0.37764914612878087 0.062060317162830086 0.4609193929907147 0.4509328302293106 -0.05673912536324409 -0.2944323243383629
0.19819186669669886 0.013259193912937799 -1.096024034541673 0.016133181636832455 0.004122275004104231 0.3674813805655147 0.46221237278706523 -0.08544998589694204
0.08066806759962608 0.1970435871986928 -0.6764146983917416 0.10000451297499358 0.29469798510073325 -0.040264923098245205 -0.203075189810958 0.25513779255475344
0.00946474089453778 0.42142633055618817 0.4340748583192919 0.5694435282832084 0.36912442888115843 -0.2506704560750861 -0.012014363619398498 0.12097012149013361
0.1573288296233942 -0.5149768904974287 0.7060920938626447 0.4248883180461015 -0.4267530211526506 0.6417318247501574 0.7467436897043317 0.5961599891271983
0.7539511237617247 -0.1711395406923295 0.6843170922230989 0.0037732359021397043 -0.19736909938731878 0.3819419609775772 -0.689445663896771 -0.30296643302063103
-0.5267748747742547 -0.1009500365045822 -0.6043535444911855 -0.5986878737089593 -0.3027289865315535 -0.061833589503376384 0.0928462945878429 0.17199356097557383
-0.18222471996552503 0.3973896107051384 -1.3042710966008872 -0.10801781896512427 0.029777905139704783 0.10077683556357067 -0.2884161514575765 -0.9272359731285673
0.06311653447470313 -0.34940034154167726 -0.44499671505353827 0.3342790741622477 0.49555457666685243 -0.034692191659265396 0.6464913928905246 0.6646529496012176
0.7256224425754512 -0.6437448565915506 -0.517928436567706 -0.6696932162604475 0.5045020795965616 0.034538299800562444 -0.5522089058823022 -0.014686351993845298
0.2103240825573404 -0.43001318267728633 -0.11252895847142064 0.6030185312693427 0.8888525827284413 -0.07938453738931475 0.015206920015173602 0.014314136680998913
00000000: 69ab c1e4 c6d4 f1bf d29a 4685 120d d73f
00000010: ce6c fa06 6d9a 78bf 5e3e aae0 674c ce3f
00000020: df5a c0fc 913e c4bf e83b ec05 2eb3 e83f
00000030: 25ca 7130 f320 a73f 103a 0d39 2241 e0bf
00000040: 06fa 6042 45ef e9bf 4f5b 0c4b ddaa e1bf
00000050: 874d a908 58fa c3bf b21e 3194 de1f 5fbf
00000060: 763c 42eb 4f05 d63f 563a 5442 3ce1 dd3f
00000070: 54ad b419 dfce a2bf 601a 9e7c 28e8 c83f
00000080: 1b99 2d87 46f3 c4bf 796a b7d6 09be 8c3f
00000090: 18e0 5fbf 68b9 e43f 89e1 307f 3fb9 a53f
000000a0: 82c4 1037 705f bbbf c685 416e 97bf f33f
000000b0: ee08 8b5f 13ec ccbf 8044 3726 5654 583f
000000c0: cf3c 3c48 63e5 b43f c93d 474e 6a0b cabf
000000d0: c4dc 43af 8984 85bf 13fa be94 3db8 d9bf
000000e0: 3b1a 9f4e 26bf e33f 0b55 0c14 0508 6dbf
000000f0: 29b5 4841 20af d93f 37b2 5496 ac23 e53f
00000100: 0d32 d3ee e7e3 e33f 274c e643 9e7b f6bf
00000110: 6e11 ff52 672b d8bf 0cff 2fb1 5ec6 af3f
00000120: c82f bf0d b47f dd3f 59c4 a15f 15dc dc3f
00000130: 3e74 ad1f e90c adbf 41c9 faac fad7 d2bf
00000140: 60d3 e5e0 595e c93f e9b1 d1e1 a227 8b3f
00000150: 8ac8 7f7f 5089 f1bf cbe0 0a7e 3785 903f
00000160: 8672 3ec5 84e2 703f 7ebd da9f d084 d73f
00000170: 0f54 3b34 e394 dd3f a5fb dede 0ce0 b5bf
00000180: 6002 2c98 a9a6 b43f 16d4 7369 b938 c93f
00000190: 1c0a 0470 30a5 e5bf d014 ae50 e599 b93f
000001a0: 891a 0df0 54dc d23f d90d c49f 9a9d a4bf
000001b0: bafb 6e29 5efe c9bf 5ac3 bf76 2d54 d03f
000001c0: 5273 db04 4062 833f 1260 da24 a6f8 da3f
000001d0: ffd1 1fea e1c7 db3f bca5 5ca2 e138 e23f
000001e0: 91c0 8c11 bc9f d73f 189e ba18 fc0a d0bf
000001f0: 5cdc 9e96 fc9a 88bf 96e0 97db e5f7 be3f
00000200: d3a7 f9e0 5923 c43f 393b dcd0 b07a e0bf
00000210: c855 6372 4e98 e63f 0e78 9dc5 5e31 db3f
00000220: 1b78 54e7 eb4f dbbf ab56 032e 1189 e43f
00000230: 83c8 b805 53e5 e73f 6285 0f1d be13 e33f
00000240: 8cd9 6a1b 5e20 e83f e8ba 2985 e6e7 c5bf
00000250: 1325 66f5 ece5 e53f b3d2 9799 0ce9 6e3f
00000260: 5a04 8e01 6443 c9bf 759a d7b1 bc71 d83f
00000270: ccc7 595a f00f e6bf 2900 6752 cd63 d3bf
00000280: 4251 70fb 56db e0bf 2633 5191 dcd7 b9bf
00000290: 5bf6 993e dd56 e3bf afef c278 7328 e3bf
000002a0: 6112 2d66 e95f d3bf 432e 6cf9 a6a8 afbf
000002b0: c93f cf56 c6c4 b73f 389f c18f e203 c63f
000002c0: fc28 63be 2353 c7bf 5feb 6fd5 d46e d93f
000002d0: 484d 905e 4bde f4bf 3628 d747 0ea7 bbbf
000002e0: 1caa df62 197e 9e3f aa9d f0bc 82cc b93f
000002f0: 9880 8904 6975 d2bf be61 88c6 eaab edbf
00000300: 61dc 67bb 6728 b03f b77e 0840 935c d6bf
00000310: 47df 7e80 d37a dcbf 95e5 d00e d464 d53f
00000320: 52b4 0a8b 2ab7 df3f afca 34c9 2cc3 a1bf
00000330: 7f87 b3b7 0eb0 e43f f144 3743 d644 e53f
00000340: ce5d 838e 4c38 e73f e9ec 40d0 8e99 e4bf
00000350: 3141 17a8 de92 e0bf 3922 c677 206e e5bf
00000360: f632 948b e124 e03f f0a9 3408 01af a13f
00000370: bb61 ea02 b2ab e1bf d0c0 16cc e013 8ebf
00000380: bd8e 1248 e6eb ca3f 0fa9 1c03 5685 dbbf
00000390: 80d9 7ca4 b2ce bcbf 87e1 d584 ed4b e33f
000003a0: ce14 b9f8 7a71 ec3f 922b e587 8b52 b4bf
000003b0: 63be 1a41 ce24 8f3f 87aa 52e7 ba50 8d3f

net.net.hidden_layers.0.bias f8 [40]
-0.13052779581146307 0.7611986601528659 -0.5448743070915275 0.5093180829251682 1.0450902191625866 -0.09319024165512596 0.26128190148930147 -0.5083844378255521
0.5808463645349274 -0.4357806491567519 0.33112662963965717 -0.10259320640805573 0.8237512594067896 -0.49864340759721004 0.3676382970247723 0.32191358446597074
-0.41644482513193215 0.7615118249931148 -0.2339665047578266 0.03480390017961468 0.32608437246236144 -0.47923345255907923 0.41491618311658535 0.018404276679781097
0.1184385387906368 -0.5837420830211558 0.2217035427743445 -0.5308307844588361 -0.1453163193732009 0.4928375874533821 -0.14942724696093038 0.18485673456506932
0.11870572512842921 -0.12328788307869845 0.2788782841518396 0.03375434032673373 0.3379630435991853 -0.00807614626205504 -0.2336073578282982 0.13682093287240335
00000000: 6a56 1d83 22b5 c0bf cfb2 e34a bd5b e83f
00000010: d170 2c3e 9c6f e1bf b699 ad6f 554c e03f
00000020: b7c3 8a85 b0b8 f03f fc10 37d0 50db b7bf
00000030: 43ba 7bb9 d7b8 d03f e731 c870 af44 e0bf
00000040: 3db2 751d 4b96 e23f d3e7 1685 d4e3 dbbf
00000050: 21c5 48bf 2d31 d53f 037b 5062 8c43 babf
00000060: 751c e699 2b5c ea3f b6be ff09 c6e9 dfbf
00000070: 41a0 9ec7 6287 d73f bad8 5a6f 3b9a d43f
00000080: f4ec 2132 08a7 dabf 449b fb0b 4e5e e83f
00000090: 6aab 254b 9df2 cdbf 14e2 161a d1d1 a13f
000000a0: 049a ddfc 90de d43f 86fc 78c9 c2ab debf
000000b0: c947 449b fc8d da3f 6ae7 c819 92d8 923f
000000c0: 9f1a b1f2 fc51 be3f 35fe 7be0 03ae e2bf
000000d0: 46c3 cf1c c860 cc3f 45be 5ed7 90fc e0bf
000000e0: fc38 a4a3 b999 c2bf 2784 16aa a68a df3f
000000f0: a90c 6a99 6e20 c3bf 677f b3ae 62a9 c73f
00000100: 254a 4697 7f63 be3f baea d071 cb8f bfbf
00000110: b0ca 7f4d 24d9 d13f de4d 9ab7 3f48 a13f
00000120: c6f7 e0be 2fa1 d53f 5afe 9500 3a8a 80bf
00000130: 0f1f fd8c d8e6 cdbf fb2e 0c2c 5983 c13f

net.net.hidden_layers.1.weight f8 [40, 40]
-0.041003374354747726 -0.04668533817402504 -0.08979454247684533 -0.0038586931322690506 0.053017137991919365 0.034204740950018686 -0.03624241583431533 0.25522076891037415
-0.19994424884729697 0.08570026225907185 -0.11617104369943451 -0.04783073163072337 -0.036218723817943436 0.11464063722998909 -0.34585482756091795 0.18237816978781396
0.10745445885403421 -0.12672641597991133 0.13474124880330426 0.11654035812166187 -0.0660603095564763 0.07286369832174382 -0.038170291051822 0.13114604521062403
-0.0987506078551139 0.11063252581284932 0.13669318710637496 0.013348181882723752 0.056049861945120676 -0.10559240146776205 -0.21119026344401495 -0.05153470736214006
0.14560793932772004 -0.09658815170427966 -0.15965858771871727 0.06276497855662085 -0.053037705664683896 0.15324623405997775 0.14379597808365296 -0.02766561232606926
-0.15632726840486694 -0.0718491696569183 -0.17137240712312762 -0.03219005820039249 0.09393868242662455 0.15675171966954018 0.09792152837557275 0.18382032331754375
-0.0635587645519676 0.06066091074877089 -0.11325754125989465 -0.07372082953568282 -0.011446541554924495 -0.07444436029804324 0.05898679500570262 -0.1701085537126897
-0.01950345338223185 0.00575981586683306 0.04408079136300525 0.11383352722908788 -0.06713449795147408 -0.0677289136079272 0.07309862081042212 -0.09852441187024535
0.07833125376516717 -0.02074452011432329 0.13272428451998955 0.1200600506745239 -0.03296183221880151 -0.045936282200939094 0.13130337316112334 -0.0020703831564836553
0.13041770831560998 -0.03779999079768534 0.1192653015507689 0.0952068316890548 0.09423810721887457 0.08897263441813517 0.0247152215153991 -0.06764503086720555
-0.07680085868012641 0.1639010005404422 0.07376782618847269 0.092638190417138 0.05428348671886618 0.03633735892011567 0.14666543897502377 -0.31843771538860466
-0.05291702446081777 0.05843702390949172 -0.035433841011675446 0.11320820624169825 0.05981679030362655 -0.07433502236856021 0.4020951089892208 -0.018254629568354035
-0.0025122888960074606 0.11042773543582012 -0.18227476764496536 -0.02029624992232381 0.09353156382614335 -0.17242732993111243 -0.09676985116690855 -0.00991453162607036
0.11639905837687738 -0.08211431351358868 -0.1106891372795783 -0.05092108481809175 -0.1368595324371773 -0.05319796201780185 0.1663501303587343 0.03375230483818537
0.09558356565318016 0.1326077325129715 -0.002869275114503678 -0.148205967005867 -0.13796438620655962 -0.06603399842480429 0.13301264020071285 -0.05269022002596518
-0.06702916776910872 -0.08230892685778743 -0.055025223348789364 -0.21604985597994517 -0.10937514718425737 -0.08286524215074288 -0.1280280096308568 0.2377377988659362
-0.09607422982004057 0.025234355609142632 -0.04198857589537025 0.04644233786976069 -0.01217808230651134 0.13671932430094733 -0.39046095492855204 -0.10988253945231602
-0.06202366894369396 -0.07623941063311038 -0.0569132511116402 -0.19196807164271373 -0.05554832014556776 0.03277191279260203 0.04743638140825449 -0.1705502174101603
-0.16120355010334975 -0.1557660062251143 0.03824054634213081 -0.09730262606081984 0.09680786894102428 0.08867109333521266 -0.19720616951155992 0.0720559667218449
0.050236861064114284 -0.0596514546592928 -0.1315503765229519 0.08154000532950652 0.03842878422058475 -0.035034960500892894 -0.032616542159402864 0.10209002724245808
0.1561049380986389 -0.04713090290796357 -0.13595760901705803 0.24378219996415368 0.1705817416986078 -0.18241729025180467 0.09473229545733278 0.22700181106635875
0.04206078364223327 -0.1318914796699398 -0.0427446139486463 0.06438121366439908 -0.14846092498155486 -0.15708385303328368 0.0668627755030346 0.09438848523519516
-0.1408678331173742 0.1545873414537413 0.07461422509262228 -0.0015854790476120984 0.025112697898415637 -0.033387198801741506 0.0900553819392655 0.12284024096162377
-0.03071451335906944 0.10868074304756652 -0.15037894299246962 -0.0018059867080653456 -0.08395921979537381 0.041428834393477394 0.08721396344803693 0.13009719370503953
0.061939653396551615 9.190177486404314e-05 -0.09619578923166693 -0.0006826079921474126 -0.04674489575934418 0.010000722220238175 0.05268603394050277 -0.14944662957192342
-0.01202607780092528 -0.10818119777952682 0.01559720359637989 0.1616569995830646 -0.037014307305649814 -0.0787483097311215 0.04720792488115093 -0.22886609701623928
0.07074389697157091 0.11789597473618588 -0.1384681395254694 0.15345533325752922 -0.08118140290914992 -0.007304599696156382 -0.07330988865420747 -0.018076274237785753
0.13393326047103846 0.02118552431349602 -0.031341259918563964 0.15469346836060452 -0.13903543768840465 -0.0036632436059855595 0.02697442260493208 -0.13120465038565565
0.02155688784105758 0.11196205080649493 -0.0067763547101721555 0.014269293552636281 0.1360699331347814 0.11183376263833136 0.1646549691645873 -0.03889224862232062
0.10307950171499214 -0.13472880040108806 -0.0656081708340218 0.06542055211680763 0.009689084327393314 -0.055297566997736615 -0.12730104509879311 0.022947572284557443
0.031112078498005173 0.13422597661309082 0.1011779806626311 0.267864081601226 0.09263475670967229 0.03832268799132632 0.1421692292657276 -0.09004939593646837
-0.044909781522314375 0.13605727629996497 0.08313521153890434 -0.11568092198949416 -0.1841851010361117 0.11511098553459091 0.013742985652296416 -0.11892607735575597
00000000: da31 c2ef 64fe a4bf 98fd 5101 24e7 a7bf
00000010: 0d1e 4c6f c6fc b6bf fa5f de19 449c 6fbf
00000020: 470a 9bf3 0f25 ab3f 1039 7fa7 4883 a13f
00000030: a30b 79ad 5d8e a2bf d2b8 ee7d 8955 d03f
00000040: 4345 e9ec c597 c9bf 5c4d a9cf 73f0 b53f
00000050: ee66 6eb1 62bd bdbf ff06 3208 457d a8bf
00000060: 9f12 9ab4 428b a2bf f105 b2bb 1659 bd3f
00000070: 556c 6249 7c22 d6bf 801a 5ff9 2a58 c73f
00000080: 6c63 96aa 2282 bb3f 3925 163a 9238 c0bf
00000090: 6325 8484 333f c13f 49f2 cbc2 96d5 bd3f
000000a0: e4d3 1b15 54e9 b0bf 1b85 5b01 32a7 b23f
000000b0: 1e25 7e6f 0e8b a3bf 85f5 96c3 64c9 c03f
000000c0: 4fa5 3247 b847 b9bf d074 3dc8 6952 bc3f
000000d0: 1e9c 1a90 297f c13f 26ca 2da5 4a56 8b3f
000000e0: a7cc ff47 91b2 ac3f 9098 0287 1a08 bbbf
000000f0: b5e2 5c55 4808 cbbf b169 75d5 c162 aabf
00000100: 4eaa b9ec 47a3 c23f 6d3f c048 00ba b8bf
00000110: 1683 634e b16f c4bf ad1d 3c9a 5d11 b03f
00000120: 0ec3 9116 c227 abbf fde9 c295 929d c33f
00000130: 1c33 9517 e867 c23f 8839 a8d0 5f54 9cbf
00000140: 32ce a22c 8802 c4bf 0dd5 eb09 b564 b2bf
00000150: b4eb 03f2 87ef c5bf 463c 741e 377b a0bf
00000160: db07 da90 5d0c b83f 8d45 c9ba 7010 c43f
00000170: 2e8a f2a1 6211 b93f 7197 7ea2 6c87 c73f
00000180: 26f7 1f1f 6345 b0bf f082 9f67 f20e af3f
00000190: 0293 bc3b 72fe bcbf 90c6 e347 5edf b2bf
000001a0: 6daf 0bcd 4871 87bf 680b da1c c90e b3bf
000001b0: c504 e466 8433 ae3f 5ba1 7bf9 1dc6 c5bf
000001c0: 4d34 be99 b6f8 93bf 0ae8 76cc 9a97 773f
000001d0: 6162 92ea c191 a63f 5623 a3ac 3124 bd3f
000001e0: c08c 22f9 b92f b1bf 578d f09c ae56 b1bf
000001f0: a472 c359 97b6 b23f 6420 d756 e538 b9bf
00000200: ea12 2d5d 840d b43f 8853 d92d 0d3e 95bf
00000210: 45fd b2fe 1bfd c03f cb03 3467 41bc be3f
00000220: 69bf ca8e 5fe0 a0bf e876 81db f584 a7bf
00000230: e26e ca86 8cce c03f e22b 507e e8f5 60bf
00000240: b974 0408 87b1 c03f fcc2 8738 855a a3bf
00000250: 0b48 b5b9 2b88 be3f 0cd4 7594 795f b83f
00000260: 06c1 8a14 fd1f b83f 4f9a 101b e9c6 b63f
00000270: aaf6 7c70 f24e 993f 4ac2 4f4b 2f51 b1bf
00000280: f7fa 5598 38a9 b3bf 182b 8d3e b5fa c43f
00000290: 12fc f9c0 72e2 b23f 3cc5 33ee 22b7 b73f
000002a0: 203c 5790 0bcb ab3f 9dac 5e70 cf9a a23f
000002b0: 7af4 ecdf eec5 c23f 800c 5a95 4861 d4bf
000002c0: cbf3 ebb2 f017 abbf 7638 2225 75eb ad3f
000002d0: de34 a268 6224 a2bf 2869 7287 36fb bc3f
000002e0: f426 366c 4ea0 ae3f 9438 05ba 9e07 b3bf
000002f0: 6760 bf1f edbb d93f 6b98 fc73 57b1 92bf
00000300: 78c4 afd4 a694 64bf f3a7 44f8 fd44 bc3f
00000310: 6ee7 f592 c754 c7bf fe5e 9746 8ac8 94bf
00000320: efea c63f aff1 b73f 3cd0 7e47 1912 c6bf
00000330: 3b2b 00b2 e8c5 b8bf bc89 b6e8 114e 84bf
00000340: d98d 0325 54cc bd3f e108 1393 7105 b5bf
00000350: e863 a390 1f56 bcbf 6eeb f013 5412 aabf
00000360: e054 fbf7 9c84 c1bf 471e 2966 c33c abbf
00000370: aabd c908 f64a c53f 61a6 e36a fb47 a13f
00000380: 58f6 8320 2a78 b83f c782 2b49 4af9 c03f
00000390: 67ec f558 4e81 67bf 555e aec2 69f8 c2bf
000003a0: a98b 6227 d1a8 c1bf 489d a8a7 9ae7 b0bf
000003b0: 42ef cee5 8e06 c13f c73f a967 36fa aabf
000003c0: 8848 72d3 d228 b1bf cee6 05a5 3212 b5bf
000003d0: 43ee 791d 442c acbf d3a3 de8c 85a7 cbbf
000003e0: 6acd 2678 0200 bcbf 3937 0311 a836 b5bf
000003f0: 8812 2bc9 3863 c0bf 027c 9333 316e ce3f
00000400: 22c2 101b 5298 b8bf 56bf 4ef0 08d7 993f
00000410: e86d 8dd0 867f a5bf 9dce 9944 4ac7 a73f
00000420: da2d e089 d2f0 88bf e348 4dd1 0480 c13f
00000430: ac1d f2f1 4ffd d8bf 6460 5919 4321 bcbf
00000440: 64d7 61fb 90c1 afbf e2e4 550f 6d84 b3bf
00000450: 4991 77d0 bb23 adbf 3273 cae6 6892 c8bf
00000460: 7ff3 be54 d470 acbf 9dda 57eb 7ac7 a03f
00000470: 75fc 93d5 9449 a83f 1819 0deb 96d4 c5bf
00000480: b8b3 d863 51a2 c4bf f95e 48f7 23f0 c3bf
00000490: 105c d7cf 4394 a33f ef02 bf2c d3e8 b8bf
000004a0: 0cdf 1887 66c8 b83f 63ad f915 26b3 b63f
000004b0: 0190 4f40 0d3e c9bf 194f 8d84 4272 b23f
000004c0: 0fec a556 a5b8 a93f 634a d7ad a28a aebf
000004d0: f5a5 788a a4d6 c0bf 9db5 3448 cedf b43f
000004e0: d6a7 e706 f0ac a33f 29cf 2233 1af0 a1bf
000004f0: 1a38 c48b 1db3 a0bf 200d 4170 9222 ba3f
00000500: 645a f021 3ffb c33f 78c6 3dad 8a21 a8bf
00000510: 7170 2f16 0f67 c1bf 52b3 1850 4134 cf3f
00000520: 62f3 f15c 9fd5 c53f d99f ed23 7359 c7bf
00000530: ba3f dd2e 6040 b83f 08d6 5435 650e cd3f
00000540: 1a03 60b4 fd88 a53f 22d7 e6eb d1e1 c0bf
00000550: 66aa fa3d 9fe2 a5bf 8056 2a87 497b b03f
00000560: cdcc c380 c400 c3bf d1f9 c0dd 521b c4bf
00000570: 7cf6 1a3a eb1d b13f a842 3401 d829 b83f
00000580: bd14 2608 f507 c2bf 08af f59b 84c9 c33f
00000590: 80d5 96f8 ea19 b33f 4d76 1c2a fbf9 59bf
000005a0: 2089 c0a0 24b7 993f 77c4 ea7d 2018 a1bf
000005b0: fd07 4298 de0d b73f 6c1c 9041 7572 bf3f
000005c0: d01c 8f19 a073 9fbf 9322 184d 80d2 bb3f
000005d0: 3a71 1401 9e3f c3bf a31c 4876 db96 5dbf
000005e0: b103 38f7 597e b5bf 59ab a901 2936 a53f
000005f0: 338c c380 a753 b63f dadb 215c 06a7 c03f
00000600: f1d8 53e3 8db6 af3f 1519 4e78 6c17 183f
00000610: 9f4e c388 49a0 b8bf ae19 4a80 215e 46bf
00000620: e426 156d f2ee a7bf 3e7a fa36 427b 843f
00000630: b3f7 75f1 a9f9 aa3f 9721 4131 1121 c3bf
00000640: d83f d5d6 20a1 88bf 2f53 8152 c3b1 bbbf
00000650: 1e13 d83a 6df1 8f3f d17a 3033 2db1 c43f
00000660: b145 b90e 8af3 a2bf f312 e966 d928 b4bf
00000670: b600 f41a a32b a83f 5888 ecf8 7b4b cdbf
00000680: f86d e2a3 451c b23f 026c d23b 6e2e be3f
00000690: af61 66f1 52b9 c1bf 7f72 dea2 6ca4 c33f
000006a0: 5bc7 89ee 4dc8 b4bf 85c4 e28c 6deb 7dbf
000006b0: d543 3ed6 6fc4 b2bf b440 bd3a 9682 92bf
000006c0: e3ed c89e b924 c13f 51e1 4c78 a8b1 953f
000006d0: d138 bb2c f60b a0bf e1bd c1dd fecc c33f
000006e0: c8a9 edc8 e9cb c1bf d607 85ef 6002 6ebf
000006f0: 9aaa aadb 2e9f 9b3f 18a8 3e61 50cb c0bf
00000700: a09f 1f41 0213 963f 7263 9b82 8ba9 bc3f
00000710: a04d dcdd 85c1 7bbf 7d2e 2a29 3839 8d3f
00000720: 8f32 6454 bd6a c13f 5ac9 1e31 23a1 bc3f
00000730: ffc7 d7fd 6913 c53f 7b31 cd4f afe9 a3bf
00000740: 70fd c010 6b63 ba3f 71a7 c617 cb3e c1bf
00000750: 071f 1574 b2cb b0bf aff4 d3bb 66bf b03f
00000760: ecc4 83e2 ded7 833f b577 9b73 f64f acbf
00000770: 7b14 b990 664b c0bf 9b67 f081 917f 973f
00000780: 6e58 a33e d8db 9f3f 66d7 e919 512e c13f
00000790: 4b75 05d6 cce6 b93f 9605 9063 af24 d13f
000007a0: 4b7c 8a52 e9b6 b73f a030 3c07 089f a33f
000007b0: 4bcf 18ef 9932 c23f 135a 922a 7a0d b7bf
000007c0: 2d54 d135 6afe a6bf f7ab 0b28 536a c13f
000007d0: 8fa4 b466 5948 b53f 154c b7d0 439d bdbf
000007e0: ae26 ae9c 6093 c7bf a309 48de e977 bd3f
000007f0: 1b78 684f 4825 8c3f 1671 e27c f071 bebf

net.net.hidden_layers.1.bias f8 [40]
-0.049642691208234814 0.0814734324442567 0.09331608714430747 -0.01657366195311497 0.002221552422069364 0.0965329638819275 -0.0703916909679086 0.0029859995767683696
-0.020756823790402924 -0.01470051351923828 -0.05089041693270137 0.14522671376670596 -0.011116648159595838 -0.08495458161464377 -0.01763154128018052 0.1335099575767719
0.15223896983597313 0.011538448464203563 -0.04839777949528769 0.040935257827064975 0.05603228348604041 0.17025984010937614 -0.09515833957321432 0.025787829936770385
0.1102387005009695 -0.01670628759611905 -0.013767325712184421 0.03723403023713472 0.08771250150128508 -0.0766099563104459 0.10590398641820192 0.051560698529787063
-0.15688227737127838 0.1540109695306284 0.1336542451411546 0.10797337952806409 -0.020629979347794265 0.11664751245192122 -0.2078202202006231 0.09943743125021959
00000000: 5d18 734e c46a a9bf 5c48 d75f 71db b43f
00000010: 7eb9 7926 90e3 b73f 491d 41a0 aff8 90bf
00000020: 39ef f8df ee32 623f 24dc db62 62b6 b83f
00000030: c407 9e9a 3005 b2bf fa1c e650 1876 683f
00000040: 6afb 64dd 4641 95bf 3a72 6586 4d1b 8ebf
00000050: 62bf cf08 4f0e aabf 5518 11f9 c996 c23f
00000060: 5df6 4a42 53c4 86bf 6125 ae5d 95bf b5bf
00000070: 21af b4b4 000e 92bf 45c5 bdb2 da16 c13f
00000080: 66a5 4f0a 917c c33f 6b16 6756 78a1 873f
00000090: 2237 4300 98c7 a8bf a0bb 3d53 77f5 a43f
000000a0: 337c 2f72 43b0 ac3f 55c5 8b0e 13cb c53f
000000b0: 329b 6804 4c5c b8bf 355b daf8 1f68 9a3f
000000c0: 5fbb 677d 9a38 bc3f 869c 73fb 731b 91bf
000000d0: 0169 7f2d 0b32 8cbf b762 55bc 5610 a33f
000000e0: 99fb 6595 5374 b63f 22bf e6c8 b59c b3bf
000000f0: 04a5 2e0e 861c bb3f f081 e3f3 2966 aa3f
00000100: a1d9 50ed b714 c4bf 97fd ada6 a1b6 c33f
00000110: 6629 ed11 951b c13f a960 e9b5 24a4 bb3f
00000120: d2b6 767a 0620 95bf 7b08 2483 9cdc bd3f
00000130: e5c6 9a5c da99 cabf 04cb 3743 bb74 b93f

net.net.hidden_layers.2.weight f8 [40, 40]
-0.2572701660444745 0.036689049630698536 0.032820311617082806 -0.26505520571982066 -0.07681067079605336 -0.00036551707871040293 0.019082851706622397 0.13587306125637588
0.21822352992648208 -0.1113375693122556 -0.11666887510905917 -0.1726450635899888 0.4586661305085882 0.14690351860008832 0.12191553695802478 0.05209492142239631
-0.030075694331210847 0.2617533979510554 -0.04046527129323025 0.18685683176923393 -0.034600788992086184 0.1688478811394181 0.12914036943500135 -0.043833885531814984
-0.23824710458440837 0.08625910437527796 -0.03611629338961852 0.3382516319531097 -0.15568004716086795 -0.07249271836907979 0.006814151645695945 0.16500504649225017
-0.05482528725247069 0.43064931819406405 -0.030440264438705372 0.13156282069714137 0.09743589890077824 -0.05597868239367254 0.15993100838851507 0.3073353607803322
0.42375700022411616 -0.04635164279336902 -0.49452860558433087 0.4567494274919878 -0.026998694634216433 -0.11644257375635679 -0.05925210811029505 -0.07511911767165438
-0.6097676137483653 0.40472363224345537 0.10938886001794984 0.16299085989374895 -0.910426112141851 -0.09311026949465889 -0.27125079754200815 -0.06694954276393342
-0.04446273369301844 -0.1709328500243038 0.1586777788881886 -0.1103112963158344 -0.07537426648365189 0.024451884061025282 -0.657203002258413 -0.24724483987222945
0.7598090216463526 0.20369520022294532 -0.10008168879998566 -0.6161492828359096 0.14474720613891812 0.04021249053485151 0.03601688716649389 0.030417716900172646
0.177615705078434 -0.5279412357803968 -0.04163213928799865 -0.08729996798859292 -0.05682299276071188 0.18128737447259896 0.0834684332781233 -0.7086989785680932
0.19290692683262212 -0.0820319105137882 0.027698347398278915 0.2645800360942103 0.05209571976682848 -0.02624669966468583 -0.04477755517235824 -0.06498133013702487
-0.3441504707649952 0.08028795267420893 -0.06537536036203083 0.07776044460560436 -0.20220920483212276 -0.10678144777135197 -0.2882498028253675 0.006457560843138399
-0.18470875403097323 -0.09969168877000875 0.0512731338235376 -0.0876464722476253 0.05087069888170605 0.06724691740762684 -0.1310175052663438 -0.18019748615751924
0.20713998884555945 0.12394181026776696 -0.07880717498109645 -0.37802255382448363 -0.051290842774932635 0.001307728406965097 0.13433189747593344 -0.1631458738164075
-0.06712025061960057 -0.12886949212437712 -0.05319333028648285 0.05882957319168246 0.1150224641377077 0.047641546778752465 0.06640873659033955 -0.27901565578394233
-0.24446662131170735 0.022068717257706875 0.20504533731440014 -0.42511982306411156 0.03374385026963818 0.17850538701745783 -0.002722272031430452 -0.08432211800936676
0.6782118103023875 -0.21264526594950844 0.11500927265561213 -0.007358068269270373 0.7254795946925551 -0.06089026823391308 0.4353757452001915 0.08078284196342816
0.13245225157526733 0.324996757847919 0.1656776162951728 -0.06766610419482517 0.11578609707905675 -0.0534774072609282 0.637126469701985 0.27075789948969653
-0.744477011821413 0.08864025319153686 0.23189899122843377 0.7199880675197418 -0.019877173237208886 0.004950577049430379 -0.0472636037106248 0.08164993039024797
-0.028040032831488808 0.4041209368172629 0.07281354240380891 0.1275318832792188 -0.06466657502188923 -0.11456732055666471 0.1114585719238958 0.5754674477667036
0.2017699085278702 -0.05764724403928982 0.010700701037279329 0.31438925110195554 0.11274162978551332 0.13182036941050718 -0.20630164100490442 -0.16471079921771317
-0.01839207491059511 0.07169237132160607 -0.04547281246128832 -0.018648933592101943 -0.3116241520511832 -0.05701576363479472 -0.20404805653389466 -0.09254817827919291
-0.17204733810052553 0.1714468615443231 -0.2329349273913134 -0.08309142570359863 -0.06586569990744276 0.014846697154048015 -0.25788364693642446 -0.10302187916138418
0.2404831120702956 -0.18681581892777016 -0.07826613174226209 -0.27287484121111644 -0.1544921846182246 -0.2050050635253628 -0.14286507811277283 0.10625443761210505
-0.06353006106380668 -0.037298963207132364 0.10240067281509226 -0.21345437860516042 -0.07491636872401365 -0.07785715927737553 -0.05753632846603375 -0.12514125378286325
0.04195848328369869 0.02292016483767288 0.0426494155087929 0.21517053098663613 -0.08029563069398638 0.13049451662310857 -0.1503449704255194 -0.12877317169307448
-0.02499486400006574 0.15483815043940335 0.032117693172894014 -0.008457899029135955 -0.12721529281179847 -0.08968604479378216 -0.14554323294932442 0.12834161795834087
-0.17708188253803997 0.17462602998068813 -0.02135558937756226 -0.08488347775846385 -0.15195316659512623 -0.05305303376222783 -0.19120109180159334 -0.06471558281302853
0.14971109524346732 -0.052843135983863206 0.07562720287615479 0.10908215458068958 -0.020239796343560233 -0.13442841561431274 -0.16231526931804102 0.05496292909104304
0.057004048666129556 0.05242051731123184 0.11853643538947152 0.08678918166729281 -0.15067116550769089 0.054909313174826 -0.06802190144187374 -0.14880149649856278
0.028715784510377193 -0.16885936569410584 0.14082580514013637 -0.16521432005814154 0.12804711449523137 -0.1909502920549767 0.10688783204330438 0.04337583522592445
0.08568137897312925 -0.0727477376267161 -0.09184091481580958 0.007194135113368176 0.04921500526237674 -0.06758391228545124 -0.056730270921784835 -0.014057107682621616
00000000: c470 5949 1d77 d0bf f201 9238 e8c8 a23f
00000010: b66d 14ea d2cd a03f 2ae0 0c1c aaf6 d0bf
00000020: fc88 0d37 dda9 b3bf 915b 31e6 5bf4 37bf
00000030: c439 fa7f 748a 933f f873 40d9 4964 c13f
00000040: d83e 20a6 bfee cb3f 3124 0373 9e80 bcbf
00000050: ddf4 0deb 02de bdbf e9a8 f7c2 3b19 c6bf
00000060: e44d 942f c95a dd3f a400 0708 bccd c23f
00000070: 25e7 1b4c db35 bf3f e900 987f 2fac aa3f
00000080: 8769 3aae 29cc 9ebf 1944 f452 91c0 d03f
00000090: b908 a831 ddb7 a4bf 0bd4 bdb6 ecea c73f
000000a0: 900b 46d2 31b7 a1bf a910 bfaf ce9c c53f
000000b0: 4289 a8ef ab87 c03f 5eaa a121 6571 a6bf
000000c0: c942 4791 e17e cebf 6929 46a0 1315 b63f
000000d0: 2f1c ecb5 d57d a2bf bca9 432c eaa5 d53f
000000e0: 910b 99e3 52ed c3bf e1e4 97fe e18e b2bf
000000f0: 4ff2 7de7 27e9 7b3f 6af9 2da7 e21e c53f
00000100: 6d80 7c5f 0f12 acbf 840b 6c28 c28f db3f
00000110: 38bb fb90 bb2b 9fbf 0ac2 21ee 0cd7 c03f
00000120: 6336 3c1f 8ff1 b83f 60d8 4ee4 3ca9 acbf
00000130: 818e 5289 9e78 c43f 442d ddee 61ab d33f
00000140: 2379 5aae d51e db3f 62a8 d30b 67bb a7bf
00000150: aef4 fa4e 5ba6 dfbf 2fde 62f3 613b dd3f
00000160: bc60 f4b9 8ba5 9bbf 5f47 2536 2ecf bdbf
00000170: 2405 1bd5 4a56 aebf f241 b4a9 013b b3bf
00000180: adb1 e65e 3783 e3bf adda 19f3 fde6 d93f
00000190: a4e5 5288 e800 bc3f 6431 656e e2dc c43f
000001a0: 935b 22f1 3522 edbf 04bc 661a 13d6 b7bf
000001b0: e73c 1d4e 2c5c d1bf 3a3b a7f0 9a23 b1bf
000001c0: ee5c 34c6 d1c3 a6bf 7c4e 55ac 20e1 c5bf
000001d0: c19d 76af 8d4f c43f c34d 0e72 5c3d bcbf
000001e0: b2dc 8159 ba4b b3bf 0283 7829 ea09 993f
000001f0: 800d 3197 ce07 e5bf d490 ad0a b8a5 cfbf
00000200: ada8 6502 5b50 e83f f9a4 a72f af12 ca3f
00000210: 160b 531c f49e b9bf a27d 67b3 7eb7 e3bf
00000220: 40ea 4692 1387 c23f 9bcd 7947 bb96 a43f
00000230: 63b6 f730 ce70 a23f b18d 386d d225 9f3f
00000240: 7aaf 4886 1cbc c63f 445f bc04 e5e4 e0bf
00000250: 6ab0 68c9 ce50 a5bf 35ee 736b 4a59 b6bf
00000260: 4dde 223f e717 adbf 62cd 44b8 6c34 c73f
00000270: b38a 2def 2f5e b53f f712 f57a a9ad e6bf
00000280: 4480 f596 2cb1 c83f 2797 e214 0b00 b5bf
00000290: de58 eaa0 f45c 9c3f 98be 8c1a e1ee d03f
000002a0: d1f9 5149 4aac aa3f 1b44 c032 6ae0 9abf
000002b0: 4dc7 1e6e 15ed a6bf 8602 cacf 9da2 b0bf
000002c0: 95ac 35b2 8f06 d6bf 369f ff52 c08d b43f
000002d0: 5f19 b88a 70bc b0bf bee4 80c6 1be8 b33f
000002e0: 0321 dac0 fde1 c9bf 6d5b ff69 0756 bbbf
000002f0: 60a8 0d4d af72 d2bf 66a0 214a 3e73 7a3f
00000300: 3d89 ec54 89a4 c7bf 2e40 f3fe 6485 b9bf
00000310: 30fd dee1 7840 aa3f 7dcf e9cb ff6f b6bf
00000320: 020e 0b68 b90b aa3f 2cc7 050f 1837 b13f
00000330: 2f46 297e 2ec5 c0bf 3e19 ef12 b610 c7bf
00000340: b28a e42a 9083 ca3f 4004 b585 a6ba bf3f
00000350: b7e4 3bff b42c b4bf 4fe6 7482 8531 d8bf
00000360: 2af0 9a18 cb42 aabf 4b97 5baf 026d 553f
00000370: 4c00 3ca1 c931 c13f 7668 42c8 f6e1 c4bf
00000380: 777d 4ff1 ca2e b1bf 8f2b 10a7 cb7e c0bf
00000390: fc3b e4fb 273c abbf 4eb5 cae9 e81e ae3f
000003a0: 8adb c6b9 1c72 bd3f f5f1 b00a 7964 a83f
000003b0: eafd d2b7 2900 b13f 657f 2a7b 64db d1bf
000003c0: cbaa bfa7 ae4a cfbf 61cc 8b8b 2e99 963f
000003d0: b137 fbf4 ec3e ca3f 4044 3cc6 2935 dbbf
000003e0: 8acc b2ba df46 a13f ca2c b3b7 43d9 c63f
000003f0: 9dde 10ab 044d 66bf b2ff 2d63 2296 b5bf
00000400: 8c4f 2041 e9b3 e53f 9280 73c7 f537 cbbf
00000410: e9e7 ca68 3f71 bd3f b984 4069 7e23 7ebf
00000420: e3d5 a3fb 2037 e73f 902c 6b5d 022d afbf
00000430: 1ad0 c63a 32dd db3f 8c94 4f30 2fae b43f
00000440: 290f 6604 32f4 c03f 6dd2 9033 bfcc d43f
00000450: 6260 d593 ec34 c53f 3d83 90d8 9052 b1bf
00000460: 4139 495c 28a4 bd3f 1068 8506 6461 abbf
00000470: 9726 d90c 5763 e43f 1e48 dcf0 1854 d13f
00000480: 60b2 4c74 c1d2 e7bf 7d1a 91ac 20b1 b63f
00000490: 0298 a6bb ddae cd3f b13d 706a 240a e73f
000004a0: 2f84 f683 ae5a 94bf 96cb 6068 0e47 743f
000004b0: 95db 7460 ef32 a8bf bb2d bf84 02e7 b43f
000004c0: 5ec5 f5bf 86b6 9cbf e493 d00f 1edd d93f
000004d0: 7a8c 5487 e8a3 b23f 1bd6 f0f9 f652 c03f
000004e0: 2904 dd18 fd8d b0bf 7631 fbae 4854 bdbf
000004f0: 8ca1 4589 8c88 bc3f 3142 82b5 3a6a e23f
00000500: bad8 38ab 98d3 c93f 36e1 b487 f083 adbf
00000510: 22bf fec7 3fea 853f e198 ec17 f41e d43f
00000520: c396 d3ac a2dc bc3f 4a4a c867 7ddf c03f
00000530: cb14 9d98 1768 cabf ad13 f853 3e15 c5bf
00000540: 9981 fc40 5fd5 92bf c5f0 3266 6e5a b23f
00000550: 51ba c164 3648 a7bf dc8d 88bf b418 93bf
00000560: 2e07 6d6d a6f1 d3bf 39f8 5590 2b31 adbf
00000570: 4f0e d028 3f1e cabf 7775 03c7 3cb1 b7bf
00000580: e4b7 40ad a505 c6bf b4d7 aa83 f8f1 c53f
00000590: 25f4 9ecb cfd0 cdbf a197 f9cb 7a45 b5bf
000005a0: 82d6 0713 93dc b0bf 9f8e d7f5 f167 8e3f
000005b0: 47f8 7069 2a81 d0bf a146 c551 a45f babf
000005c0: 4486 ca8e 26c8 ce3f 1eca 55ac 94e9 c7bf
000005d0: 5baa 37cc 3f09 b4bf bdc9 b909 c876 d1bf
000005e0: 9120 3660 66c6 c3bf 068c ad1d 9b3d cabf
000005f0: 640f 1e23 6749 c2bf 1f4f 99a6 7d33 bb3f
00000600: 8af9 948e 8143 b0bf 6576 4c86 d918 a3bf
00000610: 9947 d434 ee36 ba3f 8a09 a61b 7952 cbbf
00000620: a9ce 9a19 b82d b3bf 1d15 db60 72ee b3bf
00000630: 02e3 2fd2 6675 adbf dd5c 30ec a004 c0bf
00000640: 138b fc12 957b a53f 7b41 9639 6278 973f
00000650: 2589 9be9 24d6 a53f 7245 d33c b58a cb3f
00000660: 40a5 d723 418e b4bf e60e 9a58 0bb4 c03f
00000670: ab3f 8c05 813e c3bf b910 83a8 a37b c0bf
00000680: 1302 cbed 4098 99bf 0eba 278c bcd1 c33f
00000690: ade0 99f3 ba71 a03f fcb8 c8fd 5f52 81bf
000006a0: 21c0 1639 9748 c0bf af00 4c25 aaf5 b6bf
000006b0: 56f2 d520 29a1 c2bf f463 ec85 7f6d c03f
000006c0: f684 1b7f 9eaa c6bf 4110 e64f 255a c63f
000006d0: ae8e da57 3dde 95bf 197f f170 ecba b5bf
000006e0: cb5c 868c 3373 c3bf 73b9 ec69 c429 abbf
000006f0: bea8 1f02 4779 c8bf bc39 b94f 3391 b0bf
00000700: e2a2 f5b0 bb29 c33f d9cf bc69 410e abbf
00000710: ba81 0aeb 4d5c b33f c753 80de ceec bb3f
00000720: 2640 7ebd bdb9 94bf 88b8 5b48 f334 c1bf
00000730: ba63 ae2a bfc6 c4bf 8e75 e0dd 1924 ac3f
00000740: d66f 8579 a22f ad3f 0b77 fbae dcd6 aa3f
00000750: add7 6161 6758 be3f 235a e8d8 d037 b63f
00000760: 5822 2758 3149 c3bf 88d4 a9d0 121d ac3f
00000770: f3c5 1a22 e269 b1bf dc51 876c ed0b c3bf
00000780: 8c7a 67ad ab67 9d3f 4bc6 a306 2f9d c5bf
00000790: a23f c179 9406 c23f 2184 bd2a be25 c5bf
000007a0: fa55 8d0c d963 c03f c4d5 c425 0f71 c8bf
000007b0: 9c61 f73e 005d bb3f accc 7683 5b35 a63f
000007c0: 72d6 9000 37ef b53f d4f8 f681 989f b2bf
000007d0: 5891 91dd e282 b7bf eb09 8ff0 9877 7d3f
000007e0: 9c14 268c b532 a93f 6872 00e5 2d4d b1bf
000007f0: 2fc5 9a04 c00b adbf d388 2f0e f9c9 8cbf

net.net.hidden_layers.2.bias f8 [40]
-0.08176715049953384 -0.03867374691409549 -0.13666355672447908 0.14051400879681886 -0.004544041223096742 -0.06944844055823321 0.1808686227374191 0.060890500774675074
0.07032396338777133 0.018206967700587832 0.04127084055505609 0.20615107280088035 -0.07099031706429584 -0.030740321084980662 0.06923723045726494 -0.07476351923745897
0.02722736390031141 0.043258716950827086 0.07747677448609216 0.03622760301795274 0.017441279119356067 0.1471547058838944 -0.0819852196771528 -0.11120604975766857
-0.04391568982364603 0.018573626393438764 0.05220948256724267 0.008074695006271214 -0.20636174294685086 0.01886665247061543 0.08401556368071957 0.08582794607358502
0.11533035145176826 -0.16295211842205926 -0.061426199252608914 -0.035356414792186 -0.0492468156848155 -0.08400467934943315 0.08370926032812986 0.08081599955039115
00000000: fe58 4825 b1ee b4bf aa6d 6b9c 0bcd a3bf
00000010: 15e5 5701 317e c1bf c0c2 34f0 5cfc c13f
00000020: a936 1ec7 c59c 72bf 12b0 f47c 5fc7 b1bf
00000030: bccf c3f9 b326 c73f b2b7 ed2a 0a2d af3f
00000040: f625 e052 c000 b23f 815a 55eb d8a4 923f
00000050: 38bf ec9c 7321 a53f 4688 db89 2863 ca3f
00000060: c2b2 1fe2 6b2c b2bf 1404 ea06 647a 9fbf
00000070: f9c4 7af8 87b9 b13f 720a 0fb6 b323 b3bf
00000080: d752 0876 7de1 9b3f d435 24ad 0126 a63f
00000090: 8a09 9e94 84d5 b33f 4762 59a4 6c8c a23f
000000a0: 3313 ac6d 20dc 913f 4ea6 9c24 f7d5 c23f
000000b0: 9acc 44bd fbfc b4bf d097 d3ea ff77 bcbf
000000c0: 51ce 2507 1e7c a6bf 6836 b6f7 f604 933f
000000d0: 10b4 5588 33bb aa3f b91e d137 7789 803f
000000e0: 9d17 8dc4 0f6a cabf 139a 629d c751 933f
000000f0: 2d1b 5d42 0b82 b53f c809 78fd d1f8 b53f
00000100: 3eb6 b837 4a86 bd3f 98e4 b771 9ddb c4bf
00000110: 6ba8 d039 4173 afbf b2f5 786a 3c1a a2bf
00000120: d3ca 98ed e036 a9bf d24b 84a6 5481 b5bf
00000130: 984e 7b57 f86d b53f bcfe 0f7b 5bb0 b43f

net.net.hidden_layers.3.weight f8 [40, 40]
0.3027709778441698 -0.5931878023292684 -0.3168776091924849 0.5860841013905134 -0.14893928748522536 0.0006139052622045428 0.12155792132109411 0.16189111105215992
-0.2299429164245577 0.596130437075497 0.10590536484776035 0.0530547907568448 0.15895445014782392 -0.4621533699013366 0.15682051759306218 -0.4464020290357115
0.23166524203238031 -0.0003839942156277047 0.22487155898865113 -0.03281760853090592 0.3744803260860804 0.20609154170635188 0.09013194241268205 0.1186748652269391
0.15555696528702076 0.0018474037661356973 0.22441227531801183 0.4490526843913254 0.11918882855060908 -0.12095743028284513 0.2658252641784841 -0.20652083096795995
-0.010234334440159263 0.016901018718785146 -0.35986404040092473 -0.07294765510380147 -0.13132534094640608 0.11820921978290645 0.1772466349969144 -0.06070583155955627
0.11387189448929569 -0.1273981458291487 -0.06980366236294355 0.014197370980768658 -0.12198930791903939 -0.15077796929514714 -0.0668527959285382 0.29445652354025986
0.12666343246569373 0.040685109899381545 0.057658920389187365 0.1743608588632972 -0.04593843499524951 -0.11290033187738681 0.08468640949283589 -0.03651381590527502
0.06361308097379069 -0.13998189202421207 0.09699520914404246 0.024075185361905237 -0.006228422119820527 0.02775525230463453 -0.03732405757169886 -0.09531738417943579
-0.23995932491240188 0.08216395493940401 0.1953635580000721 0.07874341676115715 -0.2189551764385435 0.06952362826440674 -0.127355897666159 -0.08896959407039304
-0.06344754964207136 -0.012022175428026919 -0.09652122864284868 -0.08628183945206547 -0.04334789705570256 0.1261362184799358 -0.12650145070210891 -0.02147085087263337
0.02826406937570446 0.17429475869758848 0.19091148643968678 0.04958372833992355 0.0963496481608808 0.2175640904428228 -0.08291299119607963 -0.2151291158720176
-0.07403443154278627 -0.005272514121714471 -0.027228913007023615 -0.08744998169977987 -0.003854399901949176 0.13209231901217272 -0.23407722237395562 0.01161407882916238
-0.0352873194752519 0.05148950761836981 0.06967174071451653 0.16620971342629126 0.20428598785255395 -0.2655208369651317 0.06494070153713807 0.05399242081199654
0.17859130712758892 -0.23346109352583913 -0.11828127269095931 -0.1882018158080156 0.19334331671864352 -0.0010087179365286644 -0.17307745558067117 0.18036266921311794
-0.18379014410839772 0.14809500740394108 0.1536817392988842 0.06539085448671471 0.03434186714682313 0.12213676141012982 0.0884089211812974 -0.06257268332957701
0.013990447133930143 -0.17811498813005 -0.034301922762891165 0.09399303256821012 -0.15110520356000567 -0.10889223363120357 0.15142077179624716 0.25987035572830297
0.10015502736437779 0.09748847810449339 0.1132282665520931 0.1792989107099847 -0.14140839410575357 -0.13715703237527524 0.059475313775886156 0.009848516935807449
0.011600368873376177 0.010792902820387263 -0.05202808068273534 -0.16903703859260844 -0.14764971562283657 0.1666089470687627 0.19219102389157472 -0.07370925154556594
-0.08241244328321662 0.0889272408100388 0.28052436335850334 0.18137909651981896 0.023038775214359805 -0.023390579861707457 0.13580688568815696 0.02249173040112342
-0.012830925441977574 -0.04278440813933737 -0.08330470018350519 -0.12928348800104797 -0.007580116469740087 0.21289502697056378 -0.004326284187413953 0.245648590756528
-0.03896014096632123 0.14304215953896557 0.15259207238745115 -0.12374553675754736 0.026835036659545283 0.24021501056023667 -0.14928763179606697 -0.22909265096656659
-0.08772865764215086 0.10221717056807422 -0.10080827053304219 -0.22887235909143658 -0.03987907039805677 0.1644154285813059 -0.18674570958598757 0.09682078875390195
-0.09961261563855753 0.003979265183917993 -0.1038631955298915 0.1573304317338341 0.06819518512085246 -0.29091630376364874 -0.250692133992234 0.10376017698482817
0.09555984033185222 -0.27177644014785063 -0.08403643462673364 -0.14354894992557088 0.1958208097749539 -0.10240710539195742 -0.038347796550381535 0.17919587357333747
-0.2683603267904337 0.24495133660255783 0.18052230274756834 0.09115854171497721 0.062003082621633204 -0.18747651579917127 0.15972002399833135 -0.10132023317165442
-0.20893302268330669 0.2340067530230241 0.061670555568837236 -0.24727399910721143 0.12315293214680227 0.12801377620917923 -0.11924525236157694 0.17053288953689885
0.05636325303497928 -0.19902232498218325 -0.017875306855447557 0.03858491562903292 0.04298470433179233 0.017749036589448135 -0.1737252070867863 0.14833890194907354
0.032544732358206305 -0.02225160688482894 -0.1681745154972845 0.01997367138332667 -0.4491436743056719 -0.10209438833128663 0.029670636081239765 0.07782593226154552
-0.1352092006261681 0.06585954563040024 -0.02239986359203823 -0.17392564199215169 -0.0446763168890412 0.09199106046590773 -0.05822936830863339 0.05907328016766129
0.06967165054403561 -0.13052848076891166 0.18134550989933176 -0.05212626067477915 -0.06558999934681015 0.07329705019040365 -0.3067458402765525 0.07467146396064872
-0.4358910086510871 0.8260551256689733 0.5586113940977936 -0.8893681038955142 0.04743302825591611 0.05897023332417717 -0.04614844510166012 0.07955126421210695
0.3272795182924658 -0.7402232632312603 0.09026520435530684 -0.13091892378392353 -0.3340795645911761 0.6878287185137033 -0.3346859390855352 0.8373367906877771
00000000: 8f31 0186 9960 d33f 817d 6cfc 64fb e2bf
00000010: c33f 1406 b947 d4bf 90b0 0572 33c1 e23f
00000020: c156 6b4c 7110 c3bf 53c9 1283 cf1d 443f
00000030: b8d2 a480 6b1e bf3f 78b6 bd11 d9b8 c43f
00000040: 59c3 fefc c46e cdbf 5676 6c23 8013 e33f
00000050: dff8 7d2e 9d1c bb3f 3cbf 645e ff29 ab3f
00000060: ef22 7892 9e58 c43f 7a98 5dba eb93 ddbf
00000070: 19b6 33d9 b112 c43f 1fe4 e4d0 d991 dcbf
00000080: 5e12 13e7 34a7 cd3f b5d5 1499 5a2a 39bf
00000090: be11 d45b 97c8 cc3f 5710 bf36 78cd a0bf
000000a0: 963f 6254 7cf7 d73f 4b35 ce27 3561 ca3f
000000b0: dec7 fc10 e312 b73f ecc4 01d9 7961 be3f
000000c0: 3f50 4967 4ae9 c33f 4f0e 84b0 9244 5e3f
000000d0: 5ae9 a79b 8ab9 cc3f 7812 6978 47bd dc3f
000000e0: 1065 acb8 2883 be3f a1e4 45ef 10f7 bebf
000000f0: b337 06f8 4703 d13f ed9d 794b 466f cabf
00000100: 2507 bc1d bdf5 84bf a441 aa2a 804e 913f
00000110: 37d1 212f 0308 d7bf 7c9f fd90 b2ac b2bf
00000120: 4e1c 40ce 44cf c0bf 69a2 0d9d f542 be3f
00000130: 50a3 518a 04b0 c63f 3716 73b2 d514 afbf
00000140: c8dc c35e b526 bd3f 3220 f41a 954e c0bf
00000150: 0868 fd1e a7de b1bf 36a3 69e0 8213 8d3f
00000160: a854 f9f7 b03a bfbf c63b 8a47 b14c c3bf
00000170: 87c3 28cc 431d b1bf d8c0 ac2c 60d8 d23f
00000180: 7206 05e2 8136 c03f cd6d e7c0 add4 a43f
00000190: 2ad8 c952 7885 ad3f 479a 42e5 7451 c63f
000001a0: ae37 de17 3e85 a7bf c9f4 1e41 09e7 bcbf
000001b0: 0ff9 2f2f 02ae b53f efa4 545a f0b1 a2bf
000001c0: cf56 6166 f248 b03f 545a 2338 edea c1bf
000001d0: 8f70 2493 add4 b83f 031c 1957 2aa7 983f
000001e0: e109 f754 f982 79bf 8b35 c373 df6b 9c3f
000001f0: 3eba 3f8d 231c a3bf 577b ca57 b866 b8bf
00000200: 873b 6fb6 fcb6 cebf 22f0 5f6b b208 b53f
00000210: 9862 384e ac01 c93f 30b4 c34f 8728 b43f
00000220: 4ef6 0b25 b906 ccbf 31e4 b1ed 4ccc b13f
00000230: 66e5 b6b3 324d c0bf 66e8 de18 b6c6 b6bf
00000240: 3a5a b93e 193e b0bf 623a 5212 159f 88bf
00000250: bc09 6480 9db5 b8bf b072 af0e 9116 b6bf
00000260: 95c3 6810 b231 a6bf 1331 9b4a 3b25 c03f
00000270: 27c0 d414 3331 c0bf c9d1 4269 74fc 95bf
00000280: 1d6b 7b96 41f1 9c3f 9034 3c68 4a4f c63f
00000290: c737 589f c96f c83f f376 44d7 0963 a93f
000002a0: d303 d5db 5eaa b83f 4d32 9ede 23d9 cb3f
000002b0: 57c7 9929 c939 b5bf 163a 8bd2 5989 cbbf
000002c0: 6c14 41a6 ebf3 b2bf f802 87bb a198 75bf
000002d0: cdb1 7b6b e5e1 9bbf d5b4 6f3b 1f63 b6bf
000002e0: 5f56 c930 4393 6fbf eee3 1aaf 66e8 c03f
000002f0: 1ad6 6a0f 3ef6 cdbf a191 f445 1fc9 873f
00000300: 032c 38f6 2d11 a2bf 93b7 9d2e d55c aa3f
00000310: 6701 d3d7 01d6 b13f 12c3 b821 5c46 c53f
00000320: 7dcb 6d12 0b26 ca3f 95fe ca1b 4bfe d0bf
00000330: 9a03 482d f49f b03f 5421 3d03 e5a4 ab3f
00000340: da3f bb77 14dc c63f ed7a ca98 0de2 cdbf
00000350: 86da ef75 ae47 bebf 2ebc f841 ff16 c8bf
00000360: 9676 1a4b 79bf c83f b701 17a3 de86 50bf
00000370: 826a b2ed 6627 c6bf 1045 d8ba 1f16 c73f
00000380: aee7 2279 6f86 c7bf 5f1a c0f6 c6f4 c23f
00000390: 45fb 23de d7ab c33f eb59 7a7d 74bd b03f
000003a0: f7f0 8ed8 4195 a13f 3d57 e5d3 5a44 bf3f
000003b0: e8f7 2591 f7a1 b63f f103 866c c304 b0bf
000003c0: 3555 2c07 06a7 8c3f 4c16 79d0 78cc c6bf
000003d0: 06bf e988 0590 a1bf e0ac ee68 ed0f b83f
000003e0: c4d7 c551 6a57 c3bf 5602 3c86 5ce0 bbbf
000003f0: 1d65 667f c161 c33f 7e63 c345 b7a1 d03f
00000400: 5a5b 0f87 c2a3 b93f 9313 3241 01f5 b83f
00000410: 5bf2 d215 87fc bc3f 7799 da46 44f3 c63f
00000420: 2034 0896 ab19 c2bf a5ee 3b94 5c8e c1bf
00000430: 076d 2c5f 8c73 ae3f 3927 3a91 752b 843f
00000440: a024 7627 efc1 873f 07c7 23e5 961a 863f
00000450: 1f12 03b2 6ca3 aabf 5cb2 4874 01a3 c5bf
00000460: 7490 ee95 2fe6 c2bf 73cf 7025 7153 c53f
00000470: 107b 1929 b799 c83f 0f04 cd08 9cde b2bf
00000480: a853 af5c fb18 b5bf 92ac 0087 efc3 b63f
00000490: 95c8 9675 1cf4 d13f ef85 dd23 6e37 c73f
000004a0: dc9f 5708 7a97 973f 627b 293e b3f3 97bf
000004b0: 5a16 4dba 1e62 c13f 465a 037a 1208 973f
000004c0: 69a6 34a9 1947 8abf 606e 7983 d6e7 a5bf
000004d0: 4e28 e4f2 7453 b5bf ad4b 7080 5c8c c0bf
000004e0: 6a02 6605 540c 7fbf f6e8 28ed 2440 cb3f
000004f0: 5900 9211 70b8 71bf 98cb cdbb 6971 cf3f
00000500: 4986 9866 95f2 a3bf 23a4 959a 344f c23f
00000510: 4638 4414 2388 c33f 454e 6699 c9ad bfbf
00000520: 6fdc 5bd3 a47a 9b3f 4da8 2e8f 5dbf ce3f
00000530: 7875 216c db1b c3bf 63e2 d371 e852 cdbf
00000540: 87b9 7ea3 6275 b6bf d8f5 ad8c e72a ba3f
00000550: 8f11 1b21 92ce b9bf 81c7 a080 b04b cdbf
00000560: 481f 4f8e 076b a4bf cd75 5b94 900b c53f
00000570: 6489 ab8d 48e7 c7bf e55b 4549 3fc9 b83f
00000580: 82c6 6f5e 3680 b9bf 768d 3bdd 8f4c 703f
00000590: 8516 0f44 c796 babf 342f 7b51 6723 c43f
000005a0: d2b6 d659 3d75 b13f ca6f a26a 5f9e d2bf
000005b0: 2e1c 3705 570b d0bf 0eea c6e6 0690 ba3f
000005c0: 1c4a 0915 9c76 b83f 5088 9002 c964 d1bf
000005d0: 6bee 646a 6983 b5bf 9819 a7de cf5f c2bf
000005e0: 7909 ee02 a810 c93f e956 8920 5a37 babf
000005f0: 3c77 1d88 52a2 a3bf 69ae 49f0 e3ef c63f
00000600: 57f6 c6ca d02c d1bf 83e4 e8bd 905a cf3f
00000610: e5ec 3fd5 5a1b c73f 93b8 6a8b 2a56 b73f
00000620: 2ce2 3838 debe af3f 550f 1000 3bff c7bf
00000630: de69 cbab b471 c43f aa35 e56f 1ff0 b9bf
00000640: 5b57 bd39 51be cabf f875 a3eb eef3 cd3f
00000650: 5baf 9676 4893 af3f 8e86 a8a5 aca6 cfbf
00000660: 2b1e fa57 f386 bf3f edc0 2063 c162 c03f
00000670: 2ba3 185b db86 bebf bd07 ba8f 05d4 c53f
00000680: 357b f6f0 a4db ac3f 5276 7c44 9079 c9bf
00000690: b983 6689 e74d 92bf 56c1 7ded 66c1 a33f
000006a0: 5ca3 aa56 1702 a63f fbad bfae cd2c 923f
000006b0: 88db 76a9 a03c c6bf e143 4ce6 c4fc c23f
000006c0: 4e69 4502 b4a9 a03f 9847 6a0f 20c9 96bf
000006d0: 016e 0a16 be86 c5bf af60 7d65 fa73 943f
000006e0: de47 161c c5be dcbf 93ed fc9a db22 babf
000006f0: 4055 7bae fa61 9e3f 9e13 d879 66ec b33f
00000700: 8a62 67fb 884e c1bf 4bab 9cd2 2bdc b03f
00000710: 542b 4066 fdef 96bf 6563 2508 3243 c6bf
00000720: 8569 e36f d0df a6bf edb5 39e4 b98c b73f
00000730: 97c9 1a61 3dd0 adbf 0a6d c65c da3e ae3f
00000740: 6383 8b54 00d6 b13f 5cad 0c42 28b5 c0bf
00000750: 39a4 2565 5436 c73f 17ce b811 4bb0 aabf
00000760: 54a3 2396 81ca b0bf a707 7671 98c3 b23f
00000770: 4eff 0a4e b9a1 d3bf 30ca a747 ab1d b33f
00000780: 46b8 b166 a3e5 dbbf 0920 ae28 0b6f ea3f
00000790: f155 9a00 25e0 e13f c5c6 0a19 b475 ecbf
000007a0: c003 3852 2449 a83f 7031 21af 5831 ae3f
000007b0: 8a1d f2dc c4a0 a7bf 0c7e 25be 785d b43f
000007c0: a2df edca 25f2 d43f 1922 6ab2 e8af e7bf
000007d0: 993c acd4 9e1b b73f 032c 0a88 f3c1 c0bf
000007e0: d995 0b41 8f61 d5bf a082 685f b102 e63f
000007f0: 436b b392 7e6b d5bf 30bb 7786 76cb ea3f

net.net.hidden_layers.3.bias f8 [40]
-0.050356802018486024 0.06181465295435715 0.009806751844163106 0.021336966047525743 -0.07777395025288728 0.13420872480441198 0.011058191263787804 -0.050854736880386664
-0.09510292419260813 0.08246938631261845 -0.11749486427533651 -0.13808876488197722 -0.1093419082440792 0.011527518695296083 -0.0987543603431877 -0.11345735300627212
-0.07344366816623772 0.07657886492303662 -0.07659771721965535 0.17560895554516726 -0.06381332258537993 -0.0535469080701418 0.21909625482932335 0.22860680904449288
0.2234380513496644 -0.13254099719605436 -0.07649451042231838 0.03311808400387113 0.05937668620995587 -0.0800582089015648 0.007122979379867014 -0.06206835231788442
-0.0670512556400934 -0.06915205661705057 -0.19850063373522864 -0.14950110481412632 -0.06277383914940782 -0.02048826231280262 0.20870944601716154 0.1828491730613398
00000000: f0e0 99e3 5dc8 a9bf ec81 b491 2ba6 af3f
00000010: f2f7 9af3 8f15 843f 77dd 7a8d 5bd9 953f
00000020: 2a1f d15c fee8 b3bf 5ab8 ef61 c02d c13f
00000030: 37a5 a54e ada5 863f c0f2 7ecf a109 aabf
00000040: a845 294d aa58 b8bf 5f46 22b5 b61c b53f
00000050: 08b2 82b7 2414 bebf e57a 8e84 e4ac c1bf
00000060: e194 fdcf d4fd bbbf ef10 675e bd9b 873f
00000070: 7dea 023c f747 b9bf 1f15 a784 8a0b bdbf
00000080: e94c df48 34cd b2bf 34c4 6828 ac9a b33f
00000090: e71b 6872 e89b b3bf 4ac1 79b0 5a7a c63f
000000a0: 65a5 8de5 1156 b0bf 9a25 ed15 806a abbf
000000b0: df81 9598 580b cc3f 0298 3ee8 fc42 cd3f
000000c0: 9348 9d39 9e99 cc3f 430b 2b78 1af7 c0bf
000000d0: 195f 96ec 2495 b3bf 5ad6 677f daf4 a03f
000000e0: 844e d5fa 9e66 ae3f c930 02dd b17e b4bf
000000f0: d028 c937 fc2c 7d3f 9ed2 a44e 6cc7 afbf
00000100: 8843 2166 452a b1bf 4612 9ffd f2b3 b1bf
00000110: f864 1001 7868 c9bf c63e f229 da22 c3bf
00000120: 08ea 3042 f211 b0bf b767 5702 e0fa 94bf
00000130: 3b47 81ba fdb6 ca3f aa15 3309 9a67 c73f
