networks/test_1D/test_fe1_v1.pth (torch, 594792 bytes, 57 tensors)

net.net.hidden_layers.0.weight f8 [20, 4]
-0.3637630977821642 0.2643491944662845 0.3009637190940128 -0.2584509937769783 0.33757170185163193 -0.02698953244025676 -0.15418178111657274 0.33766770413783836
0.35913950241316883 0.22335999646235902 -0.1362984478866099 -0.170216712070859 -0.17537462862277767 -0.1351286813362412 0.21588035709498005 -0.35789327567505647
0.2766225720033644 0.12839226415298305 -0.11459797471019482 -0.5086603249525589 -0.10237731690481625 -0.0498851388085398 -0.3574987433156747 0.021334497676320813
-0.36226971418866666 -0.5059828152038252 0.04655961306828062 0.23757760236978614 -0.529598537330524 0.1361536333258113 -0.09187548536434458 0.13503855302784493
-0.47513849402733993 0.1975101804246265 0.25980315296583156 0.2021974808055056 -0.4857168726257628 0.06539159627615944 0.22771022533408894 0.16404226591961962
-0.5576154650128401 -0.3215273094764036 0.26718604034346655 0.19069114030941606 -0.5023015537587141 -0.30218770427699176 0.3540248810595788 0.3010322660663277
-0.3203198604721922 0.30674336705679756 0.04599395325224258 -0.45928754534850125 0.34328106598391583 -0.28865156122674324 0.41938177097634843 -0.10848786251209018
0.38939566303928064 -0.4255843142463603 0.11562741470640706 0.026987282104482178 0.07905274345653558 0.01601051094974273 -0.10037715132781032 0.26907161400122215
-0.22120990122295478 0.1594219870565103 0.19001276718311735 -0.42278378133097777 0.23749490250250813 -0.11648721914235567 0.3627564416917584 -0.1849752472114963
-0.3063367112301913 0.02266089859865376 0.08085616649412401 -0.16324117761776516 0.33623962659567647 -0.2839079935079042 0.17713688188284432 -0.03605470234260923
00000000: b0d3 1d04 e547 d7bf 8739 3de2 18eb d03f
00000010: eba4 b254 fd42 d33f 3703 7909 768a d0bf
00000020: 2780 e056 c69a d53f 1133 a9dc 24a3 9bbf
00000030: 6371 c485 3abc c3bf affe 8b00 599c d53f
00000040: d23d 6440 24fc d63f 5b2f 0574 0f97 cc3f
00000050: 0b93 1540 3a72 c1bf bdda c945 a9c9 c5bf
00000060: 25d2 3d03 ad72 c6bf 139e 8b89 e54b c1bf
00000070: ce2e c9b0 f7a1 cb3f 3ae4 9e32 b9e7 d6bf
00000080: 30c0 0529 2fb4 d13f a658 cc5f 286f c03f
00000090: 6f70 91f9 4a56 bdbf 0735 8e04 f246 e0bf
000000a0: 9a5a f55b 6635 babf 2a6b 7a7f 8b8a a9bf
000000b0: 15b9 b968 42e1 d6bf c87f 2fe7 b5d8 953f
000000c0: bd61 b14f 6d2f d7bf 1b6e 74df 0231 e0bf
000000d0: e2a6 e25e a9d6 a73f 865c 3860 f168 ce3f
000000e0: 5702 bba1 78f2 e0bf f7d6 2e75 7b6d c13f
000000f0: 1ba9 f1dc 2685 b7bf ab14 7a7c f148 c13f
00000100: 6bc2 3a49 ab68 debf 9b81 c67a 0348 c93f
00000110: 1cb3 5867 9da0 d03f 8055 b267 9be1 c93f
00000120: 50c1 c238 fc15 dfbf 9978 70ef 80bd b03f
00000130: 7529 63d1 9b25 cd3f 16ac a443 56ff c43f
00000140: d92a 3f63 fcd7 e1bf a635 be47 e793 d4bf
00000150: 6944 4e7a 9319 d13f a908 a239 9168 c83f
00000160: 0cf5 43b5 da12 e0bf 37df c718 0b57 d3bf
00000170: 6dc1 87f9 57a8 d63f e6eb 72d6 1c44 d33f
00000180: b830 3fdf 1e80 d4bf 1387 71ee aea1 d33f
00000190: f673 10fa 848c a73f f0d7 ae96 f764 ddbf
000001a0: f829 ef25 51f8 d53f 0320 da65 4479 d2bf
000001b0: 5672 b8a3 26d7 da3f 6f9b 804d dcc5 bbbf
000001c0: fe4e 7dc9 dbeb d83f b13c d8fd c53c dbbf
000001d0: 4a5f af1c c299 bd3f 19cc 2fd8 8da2 9b3f
000001e0: d10d cef3 cc3c b43f 2782 af33 0f65 903f
000001f0: 67f5 3726 51b2 b9bf 28b3 9a25 7838 d13f
00000200: dbe8 a625 9b50 ccbf dfe4 558e f067 c43f
00000210: a1dd 6f9e 5652 c83f 0321 86b4 e30e dbbf
00000220: 7f84 9ba3 3b66 ce3f a54f 9e3c 1bd2 bdbf
00000230: 09af 5ecb 6637 d73f e1e3 abd6 44ad c7bf
00000240: 4310 134b 059b d3bf 6b4a 8429 6b34 973f
00000250: 7bae c55e fdb2 b43f 414a 9d3f 16e5 c4bf
00000260: 6d40 f635 f384 d53f 9a1f cc6e 8c2b d2bf
00000270: ea15 4ddd 6bac c63f 2267 db0e c375 a2bf

net.net.hidden_layers.0.bias f8 [20]
0.12359334633972101 -0.26731986434451493 -0.055470084512223114 0.17365495783657736 0.26461770996482903 -0.1842406907284025 0.38793594388944075 0.41851906355742635
-0.17007995342696297 -0.3889233345025165 -0.2083233315647999 0.40575045117596253 0.1985689841870909 -0.2309630824635014 -0.053862191660213825 -0.1135015976436258
-0.08891189236149472 0.04938076581188762 0.06313646114617612 0.135332552005596
00000000: 0345 8844 d0a3 bf3f 0493 bbc6 c41b d1bf
00000010: 3ed0 c52d 9366 acbf 4822 595e 533a c63f
00000020: 5872 8f1e 7fef d03f 22ae a2ee 3295 c7bf
00000030: acac fc47 f1d3 d83f 09d4 ae2e 04c9 da3f
00000040: ee45 d60e 2ec5 c5bf a0bb 95b2 1ee4 d8bf
00000050: 2944 08c4 56aa cabf 0ed5 88bd d0f7 d93f
00000060: 04b0 8a5e b56a c93f b0cd e1c2 3290 cdbf
00000070: 27cf 573f d393 abbf d251 ecd1 700e bdbf
00000080: 1408 eb05 eec2 b6bf da4e 6d8c 6f48 a93f
00000090: 29d9 ce0b b629 b03f 6360 79ba 9352 c13f

net.net.hidden_layers.1.weight f8 [80, 20]
-0.1255180798065145 0.06360687671450044 0.1467502819932336 0.16916602282333656 -0.01898699027187383 -0.17666106163580872 0.20195964713781467 0.11010955014707453
0.08963898234148898 0.25073420651595824 0.2734142993363079 -0.008170714500509244 -0.13699357305529958 -0.12939605534800994 -0.16467921974130312 -0.018359866834949053
0.06907564882391239 -0.1840091426941509 -0.020104210258146085 0.0013253638570241743 -0.15637731074377068 0.11889484370470035 -0.08056542653068928 0.11127678835381037
-0.060068811443919116 -0.005339501211952519 -0.10344085115382382 -0.12032082167460612 0.12299143013436452 -0.19354788849107762 0.009468442865254176 0.19529597865554893
-0.17182203172549 0.07829692551924788 0.1969797369640354 -0.033918219156268 -0.20392434025133446 0.048562998745117936 -0.211065549128734 0.20466748535465606
-0.13916862310362954 -0.306355815262829 -0.09969526917305582 0.2692571555007911 -0.1459134398130477 0.14099843670622556 -0.006606550524149599 0.16446404345319132
-0.19997362997611992 -0.1719502254764068 -0.14179936196002238 -0.1447803874272495 0.061457031769932745 0.00837252267296202 0.027199709749045908 0.1773816310259263
0.05807819428442037 -0.0563680570873673 -0.02374357761305169 -0.11655283342115673 -0.16672212414596047 -0.07396344352130256 0.13194840634147828 -0.055858032400485244
0.11901644427380767 -0.09821185412476595 0.15856566069969286 -0.16430455257964519 0.06696027090673196 0.12049568297509562 -0.02000515768651086 -0.21410553533386423
0.10337107273032455 -0.07661259353365389 0.03904287890160507 -0.05634756542981018 -0.17337914258823747 0.2304147116660326 -0.17092198478190865 0.14348624380756847
0.05621373542797584 0.05053878852635957 0.12225923841456073 -0.006409087968869137 0.05337053754783651 -0.04340157056461399 0.015570177036340163 -0.13327044922208992
0.16485218694970508 2.5366857685125213e-05 -0.007432989144337986 -0.1966696446351396 0.07242449127949663 0.028427307700284198 0.1970919176240594 -0.11567298614468342
0.2341277630781028 0.010536891218655628 -0.16480151069881485 -0.001156952366010898 0.1477428926876012 -0.0711751523148609 -0.17849321373726837 0.07512031138259583
-0.25510785582970863 0.047609978781037884 -0.21850070683568049 -0.12579710566282717 0.16441190021653226 -0.14677235636234087 -0.049543199472315294 0.0900911327211777
-0.1084558793831997 0.1929935245015848 0.03588809569966998 -0.05769463739185066 -0.22554419435072215 0.08745322242655558 0.06859037737144451 0.1282017366553462
-0.05804197334340577 0.0009884606444718527 -0.01744297903762131 0.10243226697371371 -0.12425659405822358 0.2120157429622905 0.08235810501275813 0.1663285830923596
-0.008635430312157053 0.1875419348890034 0.022539111801053772 -0.08040070346940648 -0.105942650513932 -0.23098346111609086 0.22880008041914904 0.0397118895205681
-0.031312066206938806 0.17851437332485298 -0.04022578282772337 -0.1748866040230504 -0.12013324538290962 -0.1519607254771565 0.06916058833248324 -0.18470685479545568
0.4168197543931338 -0.009416347386042722 -0.22102981754498027 0.0045933327460617925 -0.019109375893385724 0.07903369083210321 -0.011868495965075497 0.07021691688418094
0.28456129108470596 -0.004828842773278257 -0.1899873784856157 0.1700650592210828 -0.17308754568570756 0.1636540400869557 -0.043126251574539254 -0.07962531643321169
0.1974632440674592 0.089526078714255 -0.23200102547869758 0.17098992274483946 0.1556383565671747 0.019171167991934832 0.09716352227544983 -0.042430047010676215
-0.174246037495406 -0.02669774692631078 0.08136083687860125 -0.12244419685469499 -0.0858365329422184 -0.2290230178274029 -0.0822149087004055 -0.0679488409225038
-0.04322929772309421 -0.009602901434491738 -0.15842302227922953 -0.1100730724114966 -0.19087566811321355 -0.012953234682960587 -0.11332985075324886 -0.08110980345168706
-0.17990990835620024 0.10452030557362761 0.13236842256947506 0.06827547207560183 0.004201016175873473 0.13992692053102185 -0.2534881477376171 -0.07634408551259479
-0.021965967411104615 0.28378429502187424 0.1070613939613245 0.2454911161078298 -0.2255819832607024 -0.0010210544608591807 -0.041692098702479294 0.02350129556280621
-0.10241069374468437 0.12670267757909423 0.2708679325183512 0.09444943047367689 0.15269726258040642 -0.1660146926256139 -0.23569142982976518 0.08754187900239271
0.05501338777358639 0.07682527149500465 -0.23379103471720786 -0.12853669633579393 0.08987812064504218 0.31768327031575466 0.1452146198592304 0.16558943473462445
0.003362248114537582 -0.06669879036388865 -0.15821354236946686 -0.12774449812489344 0.23111295736019194 0.20774000512056917 0.1369870993231575 -0.21382086672841938
0.046347978067784616 -0.03415767678385523 0.11700702347591237 0.05230003574942883 0.15013979422038012 0.08189697037130056 -0.005455468287662545 -0.007709300230239587
0.026859882990935793 0.15391093061882666 0.20060453592914895 -0.1329882602191835 0.015191949555517352 0.25000577597001766 -0.010259135189996842 0.14135958071944713
0.005337415401579112 -0.20495147622158538 -0.22482759897299984 -0.1672435674149037 0.21766960910658717 -0.03858055928879954 0.05036570154762625 0.0854056363608014
0.055491615959141725 0.07749276897685789 0.16284516934984367 -0.09907446444619857 0.13483666371437114 0.02283996333344402 0.14344929938147338 -0.22021626684590895
00000000: 77b0 e9f7 f910 c0bf 941b 4a4f 8a48 b03f
00000010: d07b eb96 b6c8 c23f 7b70 cf73 3ba7 c53f
00000020: 8e94 1159 5371 93bf 83e9 1965 d49c c6bf
00000030: 58c8 c84f d0d9 c93f 9de4 dbb4 2330 bc3f
00000040: 8479 9a91 94f2 b63f 0a5f 3e7c 070c d03f
00000050: e61f 7ab0 9e7f d13f 1262 84bc cebb 80bf
00000060: 0071 0462 0189 c1bf edbd f9c8 0c90 c0bf
00000070: 2652 8f6b 3514 c5bf 1fc8 75ce edcc 92bf
00000080: 3110 a614 f1ae b13f f3a7 0491 9c8d c7bf
00000090: 3457 48b6 3296 94bf 9441 f59a fab6 553f
000000a0: ef8e bdf5 2b04 c4bf 9eed 5f79 e46f be3f
000000b0: d539 2390 ef9f b4bf 5f95 c8b6 a27c bc3f
000000c0: d78b 52d9 56c1 aebf ad0d 5171 dfde 75bf
000000d0: feac c680 197b babf c0ca 1e6a 58cd bebf
000000e0: 8788 1dca 5d7c bf3f 5cb7 a35d 2dc6 c8bf
000000f0: c53c 9ae3 3064 833f b4d5 ae68 75ff c83f
00000100: f222 7fab 43fe c5bf 4486 7b6e 440b b43f
00000110: 811b 1ecc a136 c93f ec8a 0794 ba5d a1bf
00000120: 2172 1e5a 311a cabf 60db cfd6 3fdd a83f
00000130: 1cfc 6827 3204 cbbf 2c8f 134e 8b32 ca3f
00000140: 1802 6e06 47d0 c1bf b591 df6b 559b d3bf
00000150: 7808 aa10 a185 b9bf aac0 455d 823b d13f
00000160: a79e 05a6 4aad c2bf df5d 389d 3c0c c23f
00000170: 7dac 0c67 780f 7bbf aceb ff63 280d c53f
00000180: d9a8 6764 bc98 c9bf d301 7b09 7702 c6bf
00000190: 9721 1b43 7b26 c2bf 6716 8dea 2988 c2bf
000001a0: bb47 1fcb 4b77 af3f 64eb 85f8 9c25 813f
000001b0: 33d5 549f 3dda 9b3f 6470 15f8 70b4 c63f
000001c0: 5be8 1fd2 6cbc ad3f 4767 7523 46dc acbf
000001d0: 8335 5a85 3c50 98bf 0fcd cc0f 68d6 bdbf
000001e0: a9ff 5c8b 2657 c5bf 8f06 06ab 44ef b2bf
000001f0: e37b ff74 afe3 c03f 4e0b c28c 6c99 acbf
00000200: 1a9b d797 dc77 be3f d79e 8b7d 6924 b9bf
00000210: eaa5 7c2b e14b c43f 31ed f47b ee07 c5bf
00000220: 98fb aced 4e24 b13f a1ed af19 ced8 be3f
00000230: 953e 0f68 3b7c 94bf fc64 1368 cf67 cbbf
00000240: a1ab bad0 8676 ba3f 2f54 b007 e29c b3bf
00000250: 8054 0ca0 6dfd a33f f9e3 758d 96d9 acbf
00000260: d3cc 9ca9 4931 c6bf 86ba 8fb1 3a7e cd3f
00000270: 6b21 6787 c5e0 c5bf 6c29 4ada c15d c23f
00000280: f590 7ff6 0bc8 ac3f a8e3 cc57 38e0 a93f
00000290: 05d9 9fa6 614c bf3f c65f 9373 6a40 7abf
000002a0: f200 ad12 6253 ab3f 3b11 570c bb38 a6bf
000002b0: 1be5 4fc9 41e3 8f3f 364f 778e 010f c1bf
000002c0: 79c0 cf5f e019 c53f 524a c22f 5d99 fa3e
000002d0: 7f51 95d4 0d72 7ebf 7574 e98d 782c c9bf
000002e0: 6c91 7955 698a b23f 9650 8b53 0c1c 9d3f
000002f0: 5329 40d6 4e3a c93f cda6 85ac be9c bdbf
00000300: 7cc7 c006 e6f7 cd3f 782e 7c99 5d94 853f
00000310: eb32 6445 3718 c5bf 6090 cd24 9cf4 52bf
00000320: c0a3 2736 3de9 c23f deea 7ae7 8838 b2bf
00000330: e19d c799 ddd8 c6bf 6351 a7b0 153b b33f
00000340: 2871 6fe6 af53 d0bf eed6 a7cb 5560 a83f
00000350: 858d 01c7 d4f7 cbbf 1b6c 609b 1e1a c0bf
00000360: 8f69 40fb 720b c53f 003d 44c3 6fc9 c2bf
00000370: aa12 f2ea b95d a9bf 1d72 b264 3610 b73f
00000380: da7f 02b7 c3c3 bbbf 807b 0906 03b4 c83f
00000390: cd0c b1aa ec5f a23f d151 81c9 268a adbf
000003a0: 98fe 44d5 a1de ccbf 8d7a 409a 5563 b63f
000003b0: 7372 a193 238f b13f 9dd0 1c1d ea68 c03f
000003c0: 5047 9c72 adb7 adbf 5887 0c89 e731 503f
000003d0: adab 0b82 92dc 91bf c40d b544 0039 ba3f
000003e0: ebdb cab7 47cf bfbf 934d 21f5 5423 cb3f
000003f0: db1f 97b7 6b15 b53f 2ac7 6248 414a c53f
00000400: 3287 38d6 73af 81bf cc08 7dc6 5f01 c83f
00000410: ee01 4430 7e14 973f 8cfb f9f7 2395 b4bf
00000420: 2d7a 35bb 0e1f bbbf 328b b4b5 dd90 cdbf
00000430: 1978 5c2f 5249 cd3f 1aa4 81e5 1d55 a43f
00000440: 3d71 a898 2208 a0bf 2ce9 a519 8fd9 c63f
00000450: aff2 664b 7998 a4bf eacc 642a af62 c6bf
00000460: 02fa 1468 0dc1 bebf 82b4 19f5 7273 c3bf
00000470: fd64 0f21 82b4 b13f b4c4 5866 79a4 c7bf
00000480: 2c7f 5cc3 2cad da3f 930e 91c0 e048 83bf
00000490: eff4 e57e b44a ccbf 96a0 c85e 75d0 723f
000004a0: ac47 0982 6891 93bf 70f3 674d 8d3b b43f
000004b0: 1f81 2e90 824e 88bf e6bc a461 bcf9 b13f
000004c0: 74a5 ba8f 4036 d23f acbe 9e9c 68c7 73bf
000004d0: a2ce 9fa4 8151 c8bf 4fff c51d b1c4 c53f
000004e0: 9252 0892 bb27 c6bf 4f10 0497 9df2 c43f
000004f0: a832 39e0 a414 a6bf e0a8 0322 5362 b4bf
00000500: 5445 b7bf 7946 c93f 4883 375c 2eeb b63f
00000510: 5be4 88a8 35b2 cdbf 473c 116f ffe2 c53f
00000520: 23c7 ba29 f5eb c33f b9b7 344e 9ba1 933f
00000530: 8c87 8966 b5df b83f 41a4 8e20 64b9 a5bf
00000540: bf0b 40b4 b14d c6bf 4299 b377 a756 9bbf
00000550: c59b 9155 10d4 b43f 406e 13bd 8058 bfbf
00000560: 61f2 c90d 62f9 b5bf 31ca cc51 a050 cdbf
00000570: 59a3 1c48 090c b5bf d431 9061 1865 b1bf
00000580: ea43 e687 2622 a6bf 4ce2 dc9c afaa 83bf
00000590: efb6 cfa1 3447 c4bf 5b78 2db6 bf2d bcbf
000005a0: d8fe 1228 9d6e c8bf f1cf b9ba 3987 8abf
000005b0: d850 a562 2f03 bdbf 80c1 35b1 9cc3 b4bf
000005c0: dce0 4eb2 4907 c7bf 7be7 34be d7c1 ba3f
000005d0: a2c0 face 72f1 c03f 1205 af57 807a b13f
000005e0: 3391 5db1 1535 713f 985f c115 20e9 c13f
000005f0: 463a 1d5a 2639 d0bf f305 8536 498b b3bf
00000600: cd6e 9f1e 3f7e 96bf ff30 8f9a 8529 d23f
00000610: 2e62 ba21 6068 bb3f 2c22 92bd 406c cf3f
00000620: e6f4 55d4 dedf ccbf 8ea9 13e1 9cba 50bf
00000630: 7685 dbb0 aa58 a5bf 7c6c 6c3f b910 983f
00000640: 28e3 6454 9637 babf a748 4218 cb37 c03f
00000650: 9ce4 ec73 e655 d13f eda0 027f d62d b83f
00000660: 695c 7c7a 958b c33f b2c2 bd2d f83f c5bf
00000670: 2f7d 8803 232b cebf 8e7d 5803 2569 b63f
00000680: 09d1 a8fa b62a ac3f 42ce 932c d2aa b33f
00000690: 20ad 1a58 ddec cdbf 218f 8cf5 e373 c0bf
000006a0: c7e0 cba4 4002 b73f 0585 1f36 ec54 d43f
000006b0: d225 9985 6496 c23f 8ec9 5fdb 0832 c53f
000006c0: 37dd 2c36 258b 6b3f 7cb0 4b03 2c13 b1bf
000006d0: 096e 2163 5740 c4bf 695d d884 ee59 c0bf
000006e0: 6e9d c500 1c95 cd3f e227 0878 3997 ca3f
000006f0: 0a8f c813 cb88 c13f 1085 e66e 7b5e cbbf
00000700: 57df 1214 ecba a73f 8853 6371 1d7d a1bf
00000710: 9d39 3b1b 2cf4 bd3f ea31 3ffe 11c7 aa3f
00000720: 179a 00e1 c737 c33f 1cdf 6229 33f7 b43f
00000730: 98f8 131e 7958 76bf 48a2 d285 c993 7fbf
00000740: 64f2 143c 2881 9b3f d09c c076 5ab3 c33f
00000750: 945a 9fd0 68ad c93f ab58 3262 c205 c1bf
00000760: a905 07f4 f41c 8f3f 8d8c e639 1800 d03f
00000770: a99e 02d1 bd02 85bf 3d49 151c 1218 c23f
00000780: 3ce9 8489 afdc 753f a8be d197 d93b cabf
00000790: ebe2 6998 26c7 ccbf 86b6 41ba 3c68 c5bf
000007a0: 1c13 3906 99dc cb3f de45 d0c0 d4c0 a3bf
000007b0: e66b f981 88c9 a93f 544f 10cf 24dd b53f
000007c0: 2b50 7ea7 6569 ac3f 529d 6eec 90d6 b33f
000007d0: 0aa7 554a 1cd8 c43f 7546 aab0 f15c b9bf
000007e0: 963c 7aea 5342 c13f 9265 3cfe 5b63 973f
000007f0: 1220 bdf0 8b5c c23f ea3f 13f0 0b30 ccbf

net.net.hidden_layers.1.bias f8 [80]
0.16512151983472853 0.014802695736850148 0.10674334412707105 -0.07784062258128237 0.15288798193856093 -0.10461702590029476 0.11810384568975325 -0.051207883515366266
0.032195348273914674 -0.1919706388983956 3.3935271011164356e-05 -0.15370375200372377 0.210820219709514 0.1819124660367299 -0.07777784375526821 0.11249004896795048
0.0528447754273654 0.039217329880470615 0.08035017689290185 0.038402452736707005 -0.1866063587846215 0.186405804974234 0.09493281041571772 -0.02822981615496609
0.11253381839348724 0.1500211821296521 0.23355139080619278 -0.02489153289455298 -0.18532181469198072 0.03403668184045736 -0.09055765302698644 0.17502372121044465
0.06285516136958794 0.22178939800222502 0.0938422099739148 -0.01254389614527542 -0.015093198162666988 -0.06618182827125593 -0.015373337428612051 0.1479686606083862
0.027346000076525264 -0.014705146517448411 0.07079129327683377 0.15603175020510246 -0.0355368427977297 0.04855479769661864 -0.07963435418623258 -0.1680110822691609
0.15851792821321906 0.09295048381222665 -0.02224777201047815 0.10164075171661519 0.20201363563980207 0.20346941660744333 -0.1025397090515449 0.052154086113552295
-0.03094289235692709 0.030604238569135595 0.027968099897144997 -0.09613554526563757 -0.1506937692552447 -0.09217420832843855 -0.18800045751232594 0.029411586680001177
0.11024225880306532 -0.1474015471045532 -0.17218044343421512 0.1289363831809014 0.08858078234718776 -0.13903995416252318 0.09132895028496951 -0.1401692108164514
-0.021489571753652684 -0.16374879430998857 0.1777863314195032 -0.1243171194512313 -0.0013115535101431979 0.07473144526968893 0.16717932947449676 -0.1299001480400502
00000000: 2b2a c7b3 b322 c53f 94c6 a830 e050 8e3f
00000010: dd68 1724 8853 bb3f 6b71 49f0 5ced b3bf
00000020: d153 3059 d591 c33f 90b7 d870 2ec8 babf
00000030: 35f2 c4ba 0d3c be3f 69e3 fd71 eb37 aabf
00000040: 2fef d69f e87b a03f d42f ee6f 7e92 c8bf
00000050: 5d4c 8c08 b7ca 013f 4c72 1086 90ac c3bf
00000060: 6b73 7e2e 28fc ca3f 4665 2e5e e848 c73f
00000070: 2943 48af 3fe9 b3bf 6a5a 71d9 25cc bc3f
00000080: 0b33 736c 780e ab3f 29cf 8b3a 4b14 a43f
00000090: a39a fb45 d491 b43f 5841 2e7d 7ca9 a33f
000000a0: d450 1a98 b7e2 c7bf cd0e 133a 25dc c73f
000000b0: 4489 0d44 844d b83f b974 a1e4 46e8 9cbf
000000c0: 03ac b12d 04cf bc3f 7420 7ae3 e433 c33f
000000d0: 3755 b910 03e5 cd3f 50eb ea7e 2a7d 99bf
000000e0: e430 ab0e a0b8 c7bf 7dfd bc86 416d a13f
000000f0: ad46 274e c92e b7bf 21c1 4f63 2d67 c63f
00000100: 4a99 779e 4617 b03f 5a71 8251 9863 cc3f
00000110: 2984 d206 0b06 b83f 4bc2 aa3d 9db0 89bf
00000120: 0d70 01c4 2ee9 8ebf 66b8 03d4 4af1 b0bf
00000130: 11dd e36b 0e7c 8fbf 3cae 1217 a3f0 c23f
00000140: 2f36 0500 9700 9c3f 9bac 005b bb1d 8ebf
00000150: 012e 77d1 601f b23f 0e60 2230 d9f8 c33f
00000160: 6c1a 3d93 e231 a2bf b17c 57a8 2cdc a83f
00000170: f231 dec2 ea62 b4bf 1616 db1b 6381 c5bf
00000180: a3b2 c0c2 504a c43f b4f2 1e58 9acb b73f
00000190: 4985 c6b4 1ec8 96bf d44f 90d8 2005 ba3f
000001a0: 1ea2 3533 95db c93f 7057 082d 490b ca3f
000001b0: 0bf1 ead8 0a40 babf 5cc3 6bbc f0b3 aa3f
000001c0: 8ed9 dd5a 7eaf 9fbf 35fb 17af b756 9f3f
000001d0: c1d8 8e69 aba3 9c3f 8d27 e6ce 569c b8bf
000001e0: 7cc4 54f5 ee49 c3bf 652a 4e9a ba98 b7bf
000001f0: 4f01 5324 6610 c8bf 1603 a82b 121e 9e3f
00000200: ec42 3230 d638 bc3f 63d0 18cc 0dde c2bf
00000210: 10c6 c73e 020a c6bf 3864 83c6 fc80 c03f
00000220: 5d3a 3ceb 3aad b63f 7291 fbab 0fcc c1bf
00000230: 74e6 a686 5561 b73f d86f 2e90 10f1 c1bf
00000240: 7145 8cbf 5c01 96bf 0411 2972 b8f5 c4bf
00000250: d1b0 8fd7 b3c1 c63f 2c3f 602a 3fd3 bfbf
00000260: 7d95 b6db 0d7d 55bf 5b87 6a99 9921 b33f
00000270: 8880 54dc 2166 c53f f3ed c96b 91a0 c0bf

net.net.hidden_layers.2.weight f8 [80, 80]
0.06892527749820844 -0.032246807249090924 0.02017286440268717 -0.07562975115366027 -0.014443141232177801 0.05103693452159017 0.006620456758823292 -0.11269304806086086
-0.0053384498386619 -0.07767622323194347 -0.0788761086763346 -0.024563836670489697 0.08880587133118936 -0.09738495134874366 -0.17036938926276496 0.010591438307702506
0.04490729873915251 0.16790262601015105 -0.020471293637695866 -0.13930152600911244 -0.1110025070573245 0.1257940915939189 0.19204785479259995 0.07027882656827963
-0.055487254225674625 0.08628399828638306 -0.033702654309460484 0.09547108642940827 -0.005349641609656918 -0.17332623053045323 -0.025606613548287596 0.004211591679887248
-0.04757757192698092 -0.010375280149670534 0.09551419755337935 0.0843465304585201 0.05690681767163718 0.008655509789566907 -0.10276582622118056 -0.10256292421464673
-0.08211717144174993 0.14461571963900127 0.0451224116014389 -0.14457097455225051 -0.00939482652102103 -0.09137909313396961 0.03809581750643481 0.04147411360798082
0.012498684823748015 0.027070251938550272 -0.05583144758178578 0.12441763520923778 0.1619329435595592 0.0966422625438757 -0.05196641169381766 -0.005150522258179263
0.034729128673903695 -0.07459109280205246 -0.04343613794322406 0.08279563805470481 0.12840754398504198 0.08194816881125809 -0.09404493119387289 -0.0299858796693343
0.05803532448561417 0.12404968857124792 -0.02063422537899536 0.050068373358489716 -0.08890639851978842 -0.09477824440267944 -0.004227382618918267 -0.027668764727582514
-0.05261900817005936 0.05575154852406239 0.10045102641986083 -0.09864752317476047 -0.00993726868587677 0.04868900665295766 -0.0028654439493979444 0.1074769471594063
0.07298030461424848 0.08215737482109009 0.1643889515545587 -0.008005781469193897 0.04134371277608738 -0.2034708898558296 0.03636574215435716 -0.13656054254265587
0.089354497142358 -0.0390531911117678 -0.04143105847692505 -0.08422994960466157 -0.06572026711083954 -0.11876832830210596 -0.21563648379528097 0.012284833502951068
-0.0275407484668302 0.07283357258630917 -0.14256121352108428 0.15468914880806134 -0.25487336508820113 -0.032531298242433226 -0.08430903769036115 -0.07664810097151169
0.02807105706999701 -0.09211387803439022 0.02388810982989953 0.027730665635343005 -0.12190241502862091 -0.026317732887348604 -0.08901647652715187 -0.020873857382918994
-0.049370336488888104 -0.07259466648082158 0.19531822821155492 0.0638468468817209 -0.1441028954880754 0.13070505176103786 0.09565917969169686 -0.019189888525460747
0.0669634251915776 -0.17088698839740735 0.0740039834481219 0.09047461658939908 -0.2107707339446744 0.10642780167380277 -0.04460829074803705 0.012729178004758134
0.12120666842336278 0.06261380870590891 0.03161240417558942 -0.061556018181527936 0.05919167086405669 0.1420526232790117 -0.019266496045890168 0.0030443416098882145
-0.04888593250566889 0.08645752054271486 -0.06606796437170959 -0.0161647002142263 -0.04267565191567462 -0.01932617079200124 0.08440067133310127 -0.07261432661212736
-0.07888773637494703 -0.06987524192396898 -0.25853841110944104 0.07747321991103971 -0.04883006244755908 -0.050604134897992294 -0.0035945019125439843 0.046293923799135536
-0.041066928343259 0.05137317686730555 0.05739823508237787 -0.02297938109247665 0.11188136817191503 0.12827479171649622 -0.03167518085446552 -0.058535065324018455
-0.06534498520062441 -0.10453884105286372 0.13777919069901995 -0.020146866144973765 0.1208251317746141 -0.16450982004539125 0.07326928831495426 0.00859018108722399
0.07158967590629034 -0.06467746812601421 -0.05038029350452129 -0.05876559331075681 -0.033722385505798924 -0.09072805082080268 -0.1330224938979632 -0.06183822003962564
-0.051863481559906714 0.1000431285603654 0.01552002522721443 -0.049733519549276003 -0.06126908035319094 0.004897509540968675 0.09018260190341813 -0.08978148155260442
-0.012807937252119908 0.09892536279617678 0.12605537367447678 0.15916808916600572 0.06726234479454811 -0.029712111030131754 -0.07300966956754482 0.03980524489831347
0.10602225400986569 -0.07345666146267328 0.1673369125622585 0.13061119911892252 -0.035921273038286114 0.005436583084642903 -0.06703951886609968 -0.09161944750444885
-0.16112132015274014 0.0359698142456089 0.07457677407147484 -0.07885423521984732 -0.04798072145073515 -0.02237311065702612 -0.10606450057198367 -0.03389544599686301
-0.04605285830218622 -0.09332874968364713 -0.015100291021665999 0.056976869025440496 0.15284153951933224 0.056714115901140144 0.03411038423090926 -0.05140490403785681
-0.04403270245654722 -0.0026386155903517353 -0.032650196627307386 0.03234309639765576 0.11453331542724568 -0.0753572087165875 -0.023915136289259724 -0.03830228704167829
-0.05018621056353198 -0.06155888439286351 -0.15119719366317916 -0.03128556707979358 0.07610863102077253 -0.10623606915307672 0.11193772502965807 0.05798769352418303
-0.025223533498243186 0.14732964108247823 0.14241242217342615 -0.05144403389699739 -0.08828533803559717 0.032284428377884665 -0.08651665329025285 0.13693565236692448
-0.17018779113898924 0.00022211676630955012 0.03652546124230162 -0.059600133153763404 0.12909996226430606 -0.028331620129324407 -0.03758652357025986 0.0877840907514842
-0.03620823647977284 -0.12183722232279465 0.02944260061867859 -0.03697915103843078 0.08541121957096054 -0.0396776784422408 0.03333159898882802 -0.03857056615121403
00000000: b9f7 b844 16a5 b13f c30d 124d a782 a0bf
00000010: 5f36 8103 32a8 943f 3c41 cfab 785c b3bf
00000020: b21f f399 5d94 8dbf bd0f 5159 8321 aa3f
00000030: 0f3b 3854 0d1e 7b3f a66f e89b 73d9 bcbf
00000040: d185 7e37 c5dd 75bf 013f 75c6 96e2 b3bf
00000050: 745a 3383 3931 b4bf c8f9 a72c 4327 99bf
00000060: 0a6c 0f49 fbbb b63f fd57 2a5d 38ee b8bf
00000070: bac0 8f05 aace c5bf 4d87 31c9 f6b0 853f
00000080: d96a dfe6 16fe a63f a024 d04f d57d c53f
00000090: c70d b942 6df6 94bf e2fa 3ee5 a1d4 c1bf
000000a0: d8d0 9509 a96a bcbf 3a84 b652 051a c03f
000000b0: 42f3 cc2b 0695 c83f be46 b60d cbfd b13f
000000c0: 07fc 7c4c d368 acbf f4e1 ce46 b516 b63f
000000d0: 5c55 186c 7941 a1bf b88a ed09 cb70 b83f
000000e0: 9908 247c 81e9 75bf 8f68 d5cd 8d2f c6bf
000000f0: 143c 01bf 9e38 9abf e4b0 7788 2c40 713f
00000100: 0821 e666 165c a8bf 5cf8 6f87 a23f 85bf
00000110: 73a2 cb52 9e73 b83f 95b4 d9f5 bb97 b53f
00000120: 3f63 a3f1 e322 ad3f 9aa9 cfdb fab9 813f
00000130: 1f32 c476 dc4e babf 77b6 4855 9041 babf
00000140: 8247 c885 a105 b5bf 5223 2b95 c482 c23f
00000150: 4c27 4ae4 481a a73f c78d d33b 4d81 c2bf
00000160: 6268 4645 983d 83bf f66c 8cc8 9e64 b7bf
00000170: 47ea 9b84 4b81 a33f 015b 2753 183c a53f
00000180: 6bf2 7c14 e998 893f 1d0c 15db 4db8 9b3f
00000190: ba7a e782 f095 acbf 19f3 448a d5d9 bf3f
000001a0: 73dd 5dfc 37ba c43f 8492 091d 8cbd b83f
000001b0: 604b 6e6d 579b aabf 93cb 7fca b618 75bf
000001c0: d6f8 be2f 04c8 a13f 1960 28e0 6618 b3bf
000001d0: ab83 dcef 423d a6bf f147 b24d 1832 b53f
000001e0: 1ddb fc8c a86f c03f c7ed 0221 8efa b43f
000001f0: 9e0e d51f 5413 b8bf 9f19 1652 9eb4 9ebf
00000200: 3a5f 5b59 ceb6 ad3f 2314 7e6b b8c1 bf3f
00000210: 956c b96c 2321 95bf a5fa 46d4 8fa2 a93f
00000220: bf31 0cda 91c2 b6bf 0ff1 1414 6343 b8bf
00000230: d2f0 8861 bb50 71bf a2b3 805e 3355 9cbf
00000240: 8d0a 7aee e0f0 aabf f072 398b 778b ac3f
00000250: d1ab 5291 28b7 b93f 9af3 ddcd f640 b9bf
00000260: 8fa5 23a0 fd59 84bf 7794 7ff6 c3ed a83f
00000270: 404f a381 4579 67bf 4ba2 1ff5 9b83 bb3f
00000280: 2c00 9255 d6ae b23f f856 fb05 4408 b53f
00000290: 4912 6079 b20a c53f a17f b6cc 5565 80bf
000002a0: 7e7a 89cc 002b a53f 0b35 cf88 550b cabf
000002b0: ced6 7ed2 879e a23f 4e86 12dc d07a c1bf
000002c0: 9919 fab2 efdf b63f 474b 42a5 c7fe a3bf
000002d0: 9ce4 64a2 7336 a5bf d84f e50e 1890 b5bf
000002e0: a7e9 ec1d 0bd3 b0bf d2ae dbe5 9967 bebf
000002f0: 3bd2 dcee f999 cbbf 824b 0e71 ca28 893f
00000300: 43bc e357 a433 9cbf 3f1d 4f94 38a5 b23f
00000310: 0725 e022 723f c2bf 229e 96a1 dacc c33f
00000320: fc37 eb5f d84f d0bf 9868 183c f1a7 a0bf
00000330: 3928 a3ef 4695 b5bf 4320 f9be 359f b3bf
00000340: 9eb3 51c0 a8be 9c3f 325a aa6d c694 b7bf
00000350: 4042 eee9 1f76 983f a51c 0078 6d65 9c3f
00000360: cbf1 d925 ff34 bfbf db5e 3928 09f3 9abf
00000370: bb40 7da7 c8c9 b6bf b73a 34db f45f 95bf
00000380: 0f7e 3999 1147 a9bf 182f 6666 9095 b2bf
00000390: 029b 3d0d 3000 c93f 3649 4f57 4458 b03f
000003a0: 0faa b0b3 f671 c2bf 9c29 5e71 f1ba c03f
000003b0: d588 56b8 1e7d b83f 98e0 859e 83a6 93bf
000003c0: 0fd9 39d9 8324 b13f 3049 3df5 9fdf c5bf
000003d0: e2f3 aed0 ecf1 b23f a39e 5e2f 5829 b73f
000003e0: 8d86 9f10 89fa cabf f3fb 9237 da3e bb3f
000003f0: cd5b c9db e5d6 a6bf b918 e259 c111 8a3f
00000400: 3e7a ef74 6607 bf3f 2e7d ab64 7507 b03f
00000410: c107 2a44 802f a03f 965c ec39 4584 afbf
00000420: 580a 1de5 5e4e ae3f b4ad a5c5 c72e c23f
00000430: 86d3 b3a9 98ba 93bf 1ed2 df74 72f0 683f
00000440: b44f b1b2 9307 a9bf ba65 397f 1422 b63f
00000450: 682f 4a82 d4e9 b0bf 5638 14ab 7a8d 90bf
00000460: 2769 a042 95d9 a5bf d6c2 085e 3dca 93bf
00000470: 69d8 224b 489b b53f 8428 053e da96 b2bf
00000480: 962e c997 fc31 b4bf 9f10 dd06 58e3 b1bf
00000490: fb63 1eb1 e48b d0bf 6f6f d5f1 48d5 b33f
000004a0: 243d 8c02 4100 a9bf 8dc6 db00 c9e8 a9bf
000004b0: 3ff7 1c85 3772 6dbf 1e0d 7151 d6b3 a73f
000004c0: 03ea 5c74 b906 a5bf 7cca 12c5 954d aa3f
000004d0: 23ca 0d2d 4d63 ad3f 9e18 1929 e887 97bf
000004e0: 1d82 54e1 41a4 bc3f 836a a9f1 4e6b c03f
000004f0: 00c9 bab3 ba37 a0bf a5c5 78de 4ef8 adbf
00000500: ebef 64ee 72ba b0bf c9d9 7bb7 0ec3 babf
00000510: d691 0f9f bfa2 c13f c794 d64c 61a1 94bf
00000520: 72c1 8155 65ee be3f 5b9f 7b64 a80e c5bf
00000530: 172a 1dad c6c1 b23f 86d5 b096 ba97 813f
00000540: 7cae bf74 b353 b23f 0caa 63da b38e b0bf
00000550: 4afa ed21 72cb a9bf 4faa cc1a 8616 aebf
00000560: 08f1 c77d 0f44 a1bf a6ec 1a1b f439 b7bf
00000570: 4949 768e e106 c1bf 1914 6d59 42a9 afbf
00000580: 8f20 50aa d98d aabf 0436 5b2d 6d9c b93f
00000590: cd97 4586 f6c8 8f3f d64e f5ff ab76 a9bf
000005a0: 76f3 be30 a95e afbf f905 f734 690f 743f
000005b0: fbe6 d7fd 3416 b73f 850b 0e4f ebfb b6bf
000005c0: f53f 043d 0c3b 8abf 0e5b f42d 2c53 b93f
000005d0: 325e b51d 9522 c03f 8a74 c4b4 9e5f c43f
000005e0: 8b15 25e3 1a38 b13f 0b9b ad04 da6c 9ebf
000005f0: 5e99 15ff c2b0 b2bf 7c55 1862 5a61 a43f
00000600: 33de 9e41 4624 bb3f 81d0 a746 0ece b2bf
00000610: 652b 6fc3 4b6b c53f c982 5a26 deb7 c03f
00000620: 6639 dce9 4564 a2bf 85f6 cea8 ab44 763f
00000630: fec8 117d 8029 b1bf e98d b542 5f74 b7bf
00000640: 5747 5f98 9f9f c4bf c6fa a7af a26a a23f
00000650: 3c9c ada5 7617 b33f 1d9b 6b89 ca2f b4bf
00000660: 4c54 f0da ed90 a8bf 6dad 530a fae8 96bf
00000670: 7726 3909 0b27 bbbf a168 1470 be5a a1bf
00000680: 0426 9780 3d94 a7bf 38f7 aa97 64e4 b7bf
00000690: 85fc c8c0 e6ec 8ebf ec7b 2f7a 122c ad3f
000006a0: 6d58 dac2 4f90 c33f bcad 08f2 a109 ad3f
000006b0: 6c95 7391 ea76 a13f 81aa 645b be51 aabf
000006c0: bfbf 0252 748b a6bf 1d54 5af5 939d 65bf
000006d0: 5fcb 71cd 86b7 a0bf 5001 8f3a 468f a03f
000006e0: 32fe 0f2c 0e52 bd3f 83a1 f42a 9c4a b3bf
000006f0: 2e8e f7a0 357d 98bf 847a 697c 5b9c a3bf
00000700: 7c3c 29ca 01b2 a9bf 71be 7d66 a584 afbf
00000710: f3e1 03fd 6d5a c3bf 2199 e36e a904 a0bf
00000720: dc73 2df1 da7b b33f e905 ab7a 4932 bbbf
00000730: d2e6 3064 f3a7 bc3f 2780 831e 90b0 ad3f
00000740: cfa9 dbad 32d4 99bf ef1f 179b b2db c23f
00000750: 9eb6 e3fb 913a c23f 14e7 5256 df56 aabf
00000760: 1b46 942f de99 b6bf db2b 1ba8 9587 a03f
00000770: d2e5 7094 f425 b6bf 4743 4982 1b87 c13f
00000780: 7e6a 8faa b6c8 c5bf be0d 907e 001d 2d3f
00000790: a295 031b 77b3 a23f 1a1f 779d e883 aebf
000007a0: 0f86 ebf9 5886 c03f f6b2 97d7 f602 9dbf
000007b0: d55a 0273 8a3e a3bf 2100 e3a6 0479 b63f
000007c0: f88b 0dcf e289 a2bf a4d7 4f65 b930 bfbf
000007d0: cfce 107b 3326 9e3f 4514 b068 eeee a2bf
000007e0: d8cc c47a 82dd b53f 41cd 94f6 a150 a4bf
000007f0: 962a 29df d610 a13f 9253 6a70 85bf a3bf

net.net.hidden_layers.2.bias f8 [80]
0.031001187686128334 0.10790151687901654 0.0647234643853043 0.07342952606341437 -0.053707189768084904 -0.018198465192566397 0.0571595531530098 -0.039088079456853844
0.0007093021162646281 -0.027923421751375375 -0.07478858603581696 0.012193262258934452 -0.04207298538478858 0.04017404238559211 0.006520690896382572 0.003420725029301983
0.14508719267485293 -0.026555445441438973 -0.03795022490289528 0.1147389104797336 0.298119065060468 0.05818601325137088 -0.10308429204942024 0.08561512383683925
-0.13684631511480044 -0.1883465278914311 0.013490594669281694 0.284508530648433 0.08318512275531907 0.06086373049158008 0.10229266402129987 -0.09613092226255644
0.013124623605168851 -0.04005382776454521 -0.08508000752114624 0.053237358908083364 -0.09403609423185195 -0.023920409084272946 0.01410102019731785 -0.02145746106440808
0.061291192870692957 -0.10116471010289621 -0.07409512368710464 0.046435887798678556 0.07890055074608333 -0.1704147392115775 0.09638960259949665 -0.06386186379698534
-0.033034036121653725 0.08759604675171695 -0.1306163121560945 0.09419529038685914 0.07242262848668497 0.03914804153768585 -0.08728341053775032 0.0816562323287777
0.1087764048374506 -0.05098657268135373 -0.03112640234934338 0.110561798973546 0.14274582176060968 -0.010980783348078803 0.2221025190608431 0.04295518201548492
0.10083060216431772 -0.02785028399329733 0.11785386331132207 0.03700127350443485 0.11200908033071005 -0.12148417657892095 -0.02259827587411551 -0.05928829199913385
0.03646838885004606 -0.12727199145471327 -0.07340210745342757 -0.03250516063418674 -0.13061228033877062 2.3059230357442256e-05 -0.05231758740978814 0.028611227337105475
00000000: 980e ff7c c6be 9f3f a325 2f0e 6f9f bb3f
00000010: 8096 d18a b791 b03f 11ce 0005 47cc b23f
00000020: f65c 3a3f 827f abbf 3e9d 5b53 9ea2 92bf
00000030: e06d e456 0444 ad3f 6a7c dc4d 5a03 a4bf
00000040: de33 38b2 0e3e 473f d6b8 db1c f597 9cbf
00000050: 794e 2343 5825 b3bf f7c3 11f5 c7f8 883f
00000060: 46a6 8b20 978a a5bf e472 632c b191 a43f
00000070: bd4a 5ba2 70b5 7a3f ae8a 24c4 c705 6c3f
00000080: 58b0 cd95 3792 c23f 8688 cec6 5931 9bbf
00000090: 36e5 aa3d 366e a3bf 0fd1 167c 875f bd3f
000000a0: 71ec affc 6114 d33f 149f ff9f 8eca ad3f
000000b0: 0665 156f bb63 babf 4216 ec6c dfea b53f
000000c0: c682 ff17 2e84 c1bf bfee cd30 bd1b c8bf
000000d0: b8e7 43f7 f4a0 8b3f a95a a444 6335 d23f
000000e0: 7f72 bfc5 9e4b b53f 4ba2 f2e7 8729 af3f
000000f0: 579a 971e da2f ba3f f582 403f 099c b8bf
00000100: 3a88 4029 15e1 8a3f fb1b a870 ef81 a4bf
00000110: 13c5 d8a9 cdc7 b5bf 330b df56 ed41 ab3f
00000120: 958f 5edd bf12 b8bf 5e44 e57a 977e 98bf
00000130: 41a4 b3e4 fee0 8c3f 4a78 1bd6 f1f8 95bf
00000140: 402d d329 8f61 af3f fab8 6631 eee5 b9bf
00000150: f478 07e5 e5f7 b2bf 5d7f e9d6 71c6 a73f
00000160: bd3f 1795 d332 b43f a5c5 d571 26d0 c5bf
00000170: b5da d62e fdac b83f 893b 7848 4059 b0bf
00000180: e742 9851 d6e9 a0bf 10b9 0ecc b16c b63f
00000190: 3d6c 840a 09b8 c0bf a816 a6bb 2e1d b83f
000001a0: 2536 d714 4a8a b23f d6af 364c 360b a43f
000001b0: e633 bea1 3458 b6bf 9ede 5d3f 6ce7 b43f
000001c0: 4c72 5a3d c5d8 bb3f 6c30 677c e91a aabf
000001d0: bfbf 8780 99df 9fbf 173f c72e c74d bc3f
000001e0: 881d 0dbe 7e45 c23f ec69 eaca 177d 86bf
000001f0: 6cde dcf7 da6d cc3f 3785 e6bb 38fe a53f
00000200: c052 bbca 08d0 b93f 16fa bdeb c884 9cbf
00000210: 371f a1b8 ab2b be3f d34a 39b7 d4f1 a23f
00000220: 9c1c e088 a0ac bc3f ff50 6345 9619 bfbf
00000230: 921e 4d9f 0024 97bf 8c0d 58f6 085b aebf
00000240: b9c3 e512 fcab a23f 1d55 7fd8 724a c0bf
00000250: 984e f802 7bca b2bf b107 c033 84a4 a0bf
00000260: 9168 4138 e7b7 c0bf 353a 7d3e ea2d f83e
00000270: a77f dced 5ec9 aabf 315c d8f6 424c 9d3f

net.net.hidden_layers.3.weight f8 [80, 80]
0.005124896387645208 0.4586691537444576 0.0018490348380994696 0.40427844335563434 0.0744564173954745 0.04121588029241721 -0.12549338518309228 -0.024025308797375
-0.06715520399890967 0.11080221331726557 0.1826825158855719 -0.4596573283015037 -0.024132976685773255 0.059570468349894316 0.140305829542654 -0.09443375263352055
-0.07062529400121047 -0.05733098013159686 0.07183703023926089 0.0018761906118032272 -0.010563399177065462 -0.06675040485349422 -0.12888860387120799 -0.09224661239822024
-0.11631237462574587 -0.11592012642797303 0.2526737609810005 -0.004246828004903102 -0.06569681385450532 -0.14250451441443673 0.09583363600740578 -0.03081238397580025
0.0731647735542808 -0.08527167898105087 0.08412684454662814 0.07990473980455752 -0.2426880662273285 0.03554013964677766 0.029709515798777304 -0.9972084119120168
0.12852158908571076 0.17251342428697083 -0.43495047007944426 0.027657161753149678 -0.12528361986713224 -0.113135874398346 0.1280695155283973 -0.3279423215231192
-0.057536919123040396 -0.006644105427409611 -0.033554892388245765 -0.0971988524839277 0.024730475186308137 -0.09798378945284135 0.14457834609688136 -0.05054618470359204
-0.107416068361751 0.09062048237171762 0.04673296028627267 0.03344282998194445 1.1270972509829182 0.12585873291998048 -0.01958021097259572 0.0563566712683812
-0.25617622552356517 0.16367983889764948 0.08731261219353002 -0.0797635714397222 -0.2308895735284883 -0.08962110282859684 0.03570668070107509 0.020846698297474642
0.03845039281361546 0.026238765555743095 -0.09896785209764941 0.06454741205674401 -0.11240350505156926 -0.055462587782281234 -0.099827866750674 -0.001667938296022853
-0.1030034124034877 -0.009047138439102206 0.08461036209850568 -0.1268339358484725 -0.03209258031023594 -0.08817893788750729 -0.04603330725344406 -0.02274334067426361
-0.13801391482455813 -0.15211842737551762 -0.05256730188762243 0.04029164515396926 0.0019911736503989783 -0.08868127577602036 -0.16473148985722058 0.13831924072139853
-0.2235849394983138 -0.033620928757513116 -0.13140813630117582 -0.1907556643696359 -0.19200746204753932 -0.035615782556571565 0.18913910030369302 -0.10438512796888627
0.16416156726278952 0.20897312399454962 0.003832950793502592 -0.12221434064947072 0.07998989708615585 -0.09143127430074673 0.028007482532032058 0.18790492527286584
0.04407114539344994 0.2150224274560313 0.03903466246682797 0.11748912426487691 -0.006364873653194067 0.025005626777614344 0.017771095812964013 0.04563467038436084
-0.14800464975902336 -0.07487437784778135 0.030053181772239018 -0.02196301787488738 0.08669884860923205 0.14122243765342543 -0.14993588436895364 0.056500057268394084
0.018271850294925326 -0.03302253365159404 -0.08264616410060899 0.03792558087104628 -0.1310684564007852 -0.1684940106495001 0.04722179720950892 -0.03847604396303049
0.10444768931964385 0.11000782152676347 -0.04295819756394633 -0.11437903667508316 -0.09222098487390161 -0.08618344026144827 -0.2220740854731232 0.010186778379667269
0.060447078687855996 -0.04345977731507582 -0.07416595174628526 -0.05712297213117786 0.021211281470386877 0.10874672525022186 -0.06895328864749567 0.11520894191893508
-0.17694642118447065 0.07742213197801003 0.05995880899874763 0.08027005058178677 0.18462076028808408 0.025488389066997616 -0.08819451278008736 -0.08057780139335514
-0.014095220100680818 -0.03562445618716647 -0.14596212962371363 -0.1248368769874275 -0.03661706147668105 -0.005912228339496775 0.10968584556460227 0.07809163151439982
0.07345961750282154 0.17158290991682565 -0.05490393584114837 0.05249502825083844 0.041304428623540355 -0.10390028234399913 0.04751156151739908 0.04692782500609878
-0.07349717003108028 0.04369741685702668 0.04946932112041005 0.06290334056964908 0.03163030708201063 -0.02420421805700419 -0.028588682442335683 -0.12260293359418242
-0.03698720040182603 -0.07047722440107453 -0.09709862414510959 0.10202975895890896 -0.03724915585670667 0.052348501407210056 -0.07316347579956509 -0.14850119946638957
-0.12189706383037806 -0.06877857895313327 0.06032871031111081 -0.16341432604454836 -0.013553716996116422 0.019380367623169897 0.1525830998393637 0.050915374720793806
0.13247792780734632 -0.05729340058142964 -0.013785930040783424 -0.08887981688051304 0.016888149405937306 -0.031209082452391117 0.0017106093625666769 0.061302976812524924
-0.1061356749422893 0.04642459957106536 0.19150937614764882 -0.046641440663593284 0.1724344702112245 0.02776081559359936 0.04907512546767469 0.15432582477779055
0.030439018811888978 -0.1830618532278236 -0.11474119337220003 0.07805861785525027 -0.07023895860874187 0.12134182124882736 0.05974164044091556 -0.0832842278908155
0.06803008990386199 -0.04641732873103018 0.03350200440170631 0.1803517722074059 -0.021624715903834975 -0.022747367421801265 0.04066247317245864 -0.18330317713559485
0.17912392537969007 0.018770311789531376 -0.09182800558042754 0.027701922856827287 0.06215169818438095 0.0041043394309326535 -0.12928104801939985 0.1376252960924234
-0.07255474658546807 -0.1208523614814846 -0.008140712253347811 0.05489153363919405 0.020113339857134687 -0.05094175759943217 0.028309795214019377 0.0642539142043806
0.013331401632313887 0.09541048189108697 0.0512853032215145 0.06114947182520503 0.041539174465122924 0.10869917034041389 -0.10793188937831666 0.026885584066634764
00000000: 5ccf 15e6 d7fd 743f 600d c1dd d55a dd3f
00000010: 59cf 290a 6a4b 5e3f dc2c 2cb1 b2df d93f
00000020: 11de b065 930f b33f a412 dd73 3f1a a53f
00000030: 24e4 9cd0 2a10 c0bf ca7d 3e2e 179a 98bf
00000040: 7478 ee5c 1531 b1bf 77a6 85aa 885d bc3f
00000050: b3c7 a303 2462 c73f 07fd 1a92 066b ddbf
00000060: 536b 7ba6 50b6 98bf bf8a bd3a 0580 ae3f
00000070: e773 a99a 8af5 c13f 0c14 3377 cf2c b8bf
00000080: f36d 01d0 7f14 b2bf 9ef8 6c79 7c5a adbf
00000090: a6f6 845f e963 b23f 2684 6654 50bd 5e3f
000000a0: e92e 0070 43a2 85bf 252c d7f5 8d16 b1bf
000000b0: 9e1a 3af9 6b7f c0bf f4c9 6a57 799d b7bf
000000c0: ea3e 23d5 a5c6 bdbf 02d2 f4ff f0ac bdbf
000000d0: 3e20 fe90 ce2b d03f 32e4 4836 1f65 71bf
000000e0: 30dd f4a2 81d1 b0bf 769f 7882 963d c2bf
000000f0: 0732 829c 8d88 b83f a990 f315 488d 9fbf
00000100: 9c87 a235 edba b23f d4a5 7f60 5dd4 b5bf
00000110: 221f 0b3e 5689 b53f db86 4114 a374 b43f
00000120: b7b5 c90d 6710 cfbf 68d4 f432 5132 a23f
00000130: d566 f1da 2b6c 9e3f a6a9 8e9d 21e9 efbf
00000140: 78fe f93a 6573 c03f 517d b77d eb14 c63f
00000150: 1dbf 177f 3ad6 dbbf 9b7a ebb4 2852 9c3f
00000160: dde3 062d 4b09 c0bf 2596 8b00 79f6 bcbf
00000170: 508e 67f6 9464 c03f 9ca1 7aca 01fd d4bf
00000180: 6361 e4a3 7a75 adbf 37b4 5978 d936 7bbf
00000190: 174c db5a 1b2e a1bf 0a90 a024 06e2 b8bf
000001a0: 2816 8f18 f252 993f 57f4 3c33 7715 b9bf
000001b0: 6c12 1912 8b81 c23f 2ca0 7a84 30e1 a9bf
000001c0: 18ba ad94 9e7f bbbf a15f 2268 e732 b73f
000001d0: 394d 26f0 61ed a73f 7cc4 1d2a 6b1f a13f
000001e0: 5521 8620 9708 f23f 1756 e792 231c c03f
000001f0: 72b4 1ab7 d50c 94bf 64ab 0418 c8da ac3f
00000200: 51bb a8f7 3065 d0bf e83b 8a01 76f3 c43f
00000210: 6748 e68d 1e5a b63f 8dea beaa 626b b4bf
00000220: 4568 a51f ca8d cdbf 9a26 ae99 68f1 b6bf
00000230: e23b b863 2548 a23f fd3e ab3d d658 953f
00000240: f93f 4e17 c5af a33f 9a1c ccbf 55de 9a3f
00000250: 8461 1d08 f555 b9bf 233d d3df 2d86 b03f
00000260: 90fa 26e2 79c6 bcbf a654 5aa1 9765 acbf
00000270: 6f70 ecae 518e b9bf 01f6 b81b d753 5bbf
00000280: cc3d a67f 6e5e babf fe22 bf5d 4e87 82bf
00000290: 0fa5 1d52 06a9 b53f d1fe 3e2b 183c c0bf
000002a0: 09e1 c04d 706e a0bf 7f40 6c16 e592 b6bf
000002b0: 474b 5c7a ad91 a7bf 764b 97c1 074a 97bf
000002c0: 7b3e 48a1 70aa c1bf b830 59db 9d78 c3bf
000002d0: 1881 e4f4 19ea aabf 0707 7a44 1ba1 a43f
000002e0: 941d b136 cb4f 603f 98be 39eb d0b3 b6bf
000002f0: 6a70 c7e4 eb15 c5bf a329 a7e3 71b4 c13f
00000300: a7fe 8269 6e9e ccbf 4207 f32a c336 a1bf
00000310: 16c2 eb57 fbd1 c0bf 7d46 ff7d ae6a c8bf
00000320: a683 0a55 b393 c8bf 8a95 9a5a 3b3c a2bf
00000330: 3680 19c5 b535 c83f 1cad d0d6 fbb8 babf
00000340: 3caf 5309 3f03 c53f 7157 a69e a1bf ca3f
00000350: 71c7 c4c9 4766 6f3f f311 3164 7049 bfbf
00000360: 7dd5 fec7 377a b43f 490c f43c 0a68 b7bf
00000370: 50cf 1256 fead 9c3f bcf2 66c2 440d c83f
00000380: 8302 5340 7e90 a63f 9143 eada da85 cb3f
00000390: 712d 69ed 59fc a33f 9973 5a6a c413 be3f
000003a0: 1631 f0c2 0d12 7abf 6a41 e734 139b 993f
000003b0: 87b3 520d 9632 923f dca8 ba71 6d5d a73f
000003c0: f37a 2ffd d0f1 c2bf 1d21 2a9c f72a b3bf
000003d0: 5bf8 68e3 42c6 9e3f 96f6 f92d 797d 96bf
000003e0: 48a4 604f e531 b63f ff67 97ab 9313 c23f
000003f0: 6b45 ee5b 1931 c3bf e937 6154 93ed ac3f
00000400: cc02 d11d dbb5 923f 931a 215c 54e8 a0bf
00000410: f8b3 f38b 4c28 b5bf b4bf 0b53 fb6a a33f
00000420: 53a8 e3e6 d9c6 c0bf 88de a734 3691 c5bf
00000430: b0ab 5895 742d a83f 5e58 00cd 21b3 a3bf
00000440: 9648 c571 15bd ba3f c0fb c2fb 7829 bc3f
00000450: 1bb7 43eb 9dfe a5bf 4d12 decd f147 bdbf
00000460: 37cf 0962 cb9b b7bf 5d33 6131 1e10 b6bf
00000470: cbb5 3273 ec6c ccbf ab2b f03f cedc 843f
00000480: eac6 3464 ebf2 ae3f 86f6 8424 5c40 a6bf
00000490: 481d 3a31 8afc b2bf 7bb5 4ee2 383f adbf
000004a0: 43e1 e200 69b8 953f 4e2e 7f4c d3d6 bb3f
000004b0: fc50 b137 eca6 b1bf 92a3 bf4d 557e bd3f
000004c0: 67d6 102a 2ea6 c6bf b507 d5d4 efd1 b33f
000004d0: 5272 83c7 ebb2 ae3f 9cd7 18fa 938c b43f
000004e0: 09cc cc2f a7a1 c73f 2cc5 e1d5 a019 9a3f
000004f0: bebe 1364 ea93 b6bf 819e c42d bfa0 b4bf
00000500: a115 e66a f4dd 8cbf eff8 8564 5e3d a2bf
00000510: 461c 9816 e3ae c2bf 2feb fe3f 4ff5 bfbf
00000520: ea32 09b3 78bf a2bf f67e d5b5 6b37 78bf
00000530: 09b9 881f 5f14 bc3f d214 722b d0fd b33f
00000540: 6454 c0de 3fce b23f 8b98 52c5 6df6 c53f
00000550: 2d05 b861 5e1c acbf f573 14db a0e0 aa3f
00000560: f373 3ca4 da25 a53f bd6f b67a 3599 babf
00000570: 9d59 cc75 6f53 a83f cae2 5883 ec06 a83f
00000580: 72cd a1e5 b5d0 b2bf d326 a400 825f a63f
00000590: c326 bcf8 0a54 a93f 7048 8eee 6e1a b03f
000005a0: ae97 f5fc d831 a03f 939b eb93 fdc8 98bf
000005b0: 1b93 8000 5a46 9dbf 9a40 2ee6 e762 bfbf
000005c0: b260 3180 fcef a2bf 215c ea9d cb0a b2bf
000005d0: 7699 3097 74db b8bf bf80 f24d 9f1e ba3f
000005e0: 3694 6a44 5212 a3bf 63c0 133b 6ccd aa3f
000005f0: 3a21 d26f d7ba b2bf 3efd 8f59 1602 c3bf
00000600: 0341 a15e a534 bfbf 34e1 4413 799b b1bf
00000610: a897 979b 67e3 ae3f 6694 07b9 c2ea c4bf
00000620: 8a85 e619 0dc2 8bbf cbfe 8074 72d8 933f
00000630: 4cbe ddcf d787 c33f 852b 947a 9411 aa3f
00000640: 63ec af67 09f5 c03f 6338 8c83 8f55 adbf
00000650: fa61 5c35 cc3b 8cbf c7b9 c6e2 d3c0 b6bf
00000660: 21c9 8d85 204b 913f ee7e e211 46f5 9fbf
00000670: 125f 2ed1 d006 5c3f ad4e 1d91 1a63 af3f
00000680: a3e6 d024 b52b bbbf 4e76 c611 f7c4 a73f
00000690: db3b b715 6183 c83f bab0 930c 63e1 a7bf
000006a0: 5c51 212d 5512 c63f c8d4 56cc 546d 9c3f
000006b0: 828c dcf5 5f20 a93f b0a6 2cd9 f2c0 c33f
000006c0: ae0e 47f9 672b 9f3f 961b 6120 926e c7bf
000006d0: e1a0 09c9 ad5f bdbf 91f8 db4a a6fb b33f
000006e0: 5930 212e 2efb b1bf 449a e6f1 4110 bf3f
000006f0: 2f66 cecf 7496 ae3f 424c 107b 1d52 b5bf
00000700: 63f1 4783 6b6a b13f 2b23 bc19 03c4 a7bf
00000710: 28f5 82ba 2c27 a13f 8e06 b451 c415 c73f
00000720: 027a 5e1e ca24 96bf fc40 96fc 154b 97bf
00000730: f17e e630 b6d1 a43f 686f 867f 7a76 c7bf
00000740: c6ec b764 88ed c63f 6248 164d 8638 933f
00000750: d528 d348 0a82 b7bf 6657 d392 e45d 9c3f
00000760: b380 2fee 58d2 af3f 5566 0a3a b6cf 703f
00000770: e332 9e08 488c c0bf 02de e8a8 b49d c13f
00000780: 2c10 c1a7 f292 b2bf a814 352c 2ef0 bebf
00000790: d179 27e7 13ac 80bf ac80 9d3b be1a ac3f
000007a0: fb51 9963 9798 943f 1bd8 c7bd 0915 aabf
000007b0: 2e16 6732 3efd 9c3f 85d6 25cc f172 b03f
000007c0: 9f3f 2a70 7e4d 8b3f 2cf6 6a43 d26c b83f
000007d0: 7325 3438 1142 aa3f 0159 50cb fb4e af3f
000007e0: b43c a967 9f44 a53f a1e3 b675 b5d3 bb3f
000007f0: c84a 139f 6ca1 bbbf 9e41 3301 e587 9b3f
